model/model.pt (torch, 55967 bytes, 4 tensors)

fc1.weight f4 [96, 138]
0.11335643 -0.09067778 -0.020177351 0.094256155 -0.011816101 -0.004193379 0.13429323 0.035374463
-0.066705845 -0.00048489813 0.0124458335 0.015969874 0.13180102 -0.0030705815 0.024350524 0.13887429
0.028990272 0.054851856 0.13720034 -0.013816246 0.060066972 -0.013601783 -0.03962718 0.018308774
0.036978822 -0.11131033 0.07417554 -0.011667387 -0.12151114 0.11515153 0.13976923 -0.06417039
0.015949836 0.022564339 0.053136047 0.040122613 0.1670047 -0.020525798 0.067787856 0.13625783
-0.07049319 0.11952245 0.13061312 -0.050107818 0.10006259 0.011103 -0.016707223 0.10977901
0.06819147 -0.08903172 0.17089154 0.04617047 0.036252122 0.092744 0.08850784 -0.03294206
0.073851004 0.10915452 -0.008096632 0.055693682 0.03506143 -0.056214374 0.1681602 -0.01582492
0.10561767 0.0031425229 0.035616584 0.03851128 0.05041491 0.037182137 0.082684025 0.059367083
0.039058708 0.046050888 0.0060672807 0.041567054 0.00030403642 0.0973059 0.08635986 0.025032176
0.0040265284 0.00025417798 0.08123902 0.0013999868 0.055831455 0.10055043 0.010689347 0.06546603
0.12847896 0.095804505 -0.0062562306 0.08887068 -0.0090963775 0.10159787 0.084331825 0.07648826
0.092196986 0.0221552 -0.027135124 0.06847822 0.023234917 0.10040222 0.1332339 0.12948464
0.046338595 -0.0138799185 -0.024166353 0.06298069 0.01423452 0.08016451 0.073877364 -0.0059160506
0.0806331 0.08401157 0.12459661 0.0841571 0.13746378 0.056556553 0.024988668 0.045571897
0.07785186 0.064997934 0.057944387 0.118841775 0.013387737 -0.014646342 0.078368776 -0.018823367
0.004189921 0.014942557 0.008943341 0.08005522 0.08284576 -0.088189706 0.037862647 -0.01564535
-0.11346503 0.04101321 -0.0037755687 0.024910662 -0.0011090294 -0.016715903 -0.006490665 -0.0022366901
0.011860265 -0.019874964 -0.010717759 0.0048415717 -0.03723528 0.08279564 0.032083806 -0.06446046
0.0457659 0.037953943 -0.007337395 0.070639744 -0.08393398 0.032562282 0.08419546 0.06367488
0.030871715 -0.072164774 -0.00073747896 -0.04021027 -0.02897536 0.050062396 0.011708851 0.04436165
0.062117934 -0.02383031 -0.02718083 0.0011178884 -0.012292794 0.008659903 -0.0007026924 0.034741364
0.06289767 -0.0016425889 0.053507946 0.07366985 0.028954497 0.002511796 -0.04059832 0.03418762
0.010247044 0.053004455 -0.0080983965 0.07291583 0.05010062 -0.00060550723 0.022958465 -0.06345981
-0.059633303 -0.064885736 -0.014346003 0.032742526 0.031986304 -0.016785415 -0.0024908916 -0.043276176
-0.069135256 -0.032123785 -0.009597049 -0.025640631 0.0543761 -0.03282644 0.056421615 -0.05892933
-0.007916995 0.02730455 0.062385216 -0.02691172 0.057934232 -0.08001945 0.03002474 0.06987223
0.03688565 -0.07713659 0.015342117 0.019406501 -0.018789893 -0.07412517 0.039510347 0.048898425
0.0047452897 -0.061280355 0.07325997 -0.021671271 0.014680859 -0.00778479 0.041104026 -0.022551732
-0.039782856 0.057146512 -0.07361508 -0.07312546 -0.08149395 -0.011663307 -0.005113014 0.060780812
0.054195702 -0.035572447 -0.071115546 -0.013191957 -0.062175266 0.06535467 -0.017983653 -0.0645205
0.019150373 0.027751256 0.073995225 0.023080593 -0.022246508 0.01525714 -0.009552116 -0.036055285
00000000: 6a27 e83d 46b5 b9bd f94a a5bc 5f09 c13d
00000010: 5298 41bc 9d68 89bb 2a84 093e d0e4 103d
00000020: 139d 88bd ed39 feb9 9ce9 4b3c 41d3 823c
00000030: d9f6 063e cf3b 49bb c07a c73c 1035 0e3e
00000040: 027d ed3c 57ac 603d 3f7e 0c3e 895d 62bc
00000050: c908 763d 03da 5ebc 1c50 22bd 48fc 953c
00000060: 1b77 173d acf6 e3bd 58e9 973d 9128 3fbc
00000070: d5da f8bd 91d4 eb3d aa1f 0f3e c46b 83bd
00000080: 3ba9 823c d9d8 b83c 2fa5 593d 9c57 243d
00000090: 4803 2b3e b825 a8bc 5cd4 8a3d 2c87 0b3e
000000a0: bc5e 90bd 30c8 f43d 72bf 053e db3d 4dbd
000000b0: 9ded cc3d 5be9 353c 96dd 88bc d1d3 e03d
000000c0: f8a7 8b3d 4356 b6bd 31fe 2e3e 3f1d 3d3d
000000d0: 1b7d 143d 91f0 bd3d 9943 b53d 41ee 06bd
000000e0: 323f 973d 688c df3d bca7 04bc 0f1f 643d
000000f0: 939c 0f3d 0b41 66bd 3032 2c3e 43a3 81bc
00000100: 144e d83d c9f2 4d3b b2e2 113d 01be 1d3d
00000110: dd7f 4e3d 4c4c 183d 3e56 a93d e62a 733d
00000120: 06fc 1f3d db9f 3c3d 0ad0 c63b 3742 2a3d
00000130: 1467 9f39 5148 c73d 70dd b03d 4710 cd3c
00000140: f8f0 833b 3143 8539 a560 a63d c37f b73a
00000150: 86af 643d 62ed cd3d 5f22 2f3c 0e13 863d
00000160: fd8f 033e 2735 c43d 1101 cdbb d501 b63d
00000170: f908 15bc 8b12 d03d 2ab6 ac3d e0a5 9c3d
00000180: c6d1 bc3d d27e b53c 7b4a debc 4f3e 8c3d
00000190: 2757 be3c ae9f cd3d 786e 083e 9f97 043e
000001a0: 8acd 3d3d 9968 63bc 84f8 c5bc 05fc 803d
000001b0: e737 693c 4a2d a43d 044d 973d 6edb c1bb
000001c0: f722 a53d 420e ac3d 822c ff3d 8f5a ac3d
000001d0: 4ec3 0c3e d8a7 673d 09b5 cc3c 99a9 3a3d
000001e0: cc70 9f3d a31d 853d 1857 6d3d 5163 f33d
000001f0: 3d58 5b3c 36f7 6fbc cf7f a03d 7633 9abc
00000200: 9b4b 893b a0d1 743c 1787 123c fef3 a33d
00000210: 0aab a93d ce9c b4bd dd15 1b3d ad2a 80bc
00000220: 5b60 e8bd 78fd 273d 886f 77bb 7211 cc3c
00000230: da5c 91ba caef 88bc a5af d4bb 6f95 12bb
00000240: 8f51 423c d2d0 a2bc 8a99 2fbc 0ca6 9e3b
00000250: 0584 18bd c390 a93d 4f6a 033d d803 84bd
00000260: 0675 3b3d 9875 1b3d 886e f0bb 92ab 903d
00000270: 94e5 abbd 0760 053d ab6e ac3d fa67 823d
00000280: aee6 fc3c 20cb 93bd 6053 41ba 86b3 24bd
00000290: bc5d edbc 3a0e 4d3d 7bd6 3f3c 90b4 353d
000002a0: 606f 7e3d c837 c3bc 55aa debc 1c86 923a
000002b0: b767 49bc 44e2 0d3c e434 38ba f64c 0e3d
000002c0: 7ed0 803d 234c d7ba 262b 5b3d 38e0 963d
000002d0: fb31 ed3c f29c 243b 6d4a 26bd 5108 0c3d
000002e0: 38e3 273c 331b 593d 23af 04bc e554 953d
000002f0: 4f36 4d3d e7ba 1eba 6413 bc3c 38f7 81bd
00000300: 0d42 74bd d0e2 84bd 7f0b 6bbc 071d 063d
00000310: 1204 033d 9181 89bc 3a3e 23bb 5c42 31bd
00000320: c996 8dbd 3b94 03bd f13c 1dbc 4d0c d2bc
00000330: 79b9 5e3d 0475 06bd 5a1a 673d e25f 71bd
00000340: 49b6 01bc cbad df3c a487 7f3d f875 dcbc
00000350: 724c 6d3d 3de1 a3bd 72f6 f53c 2c19 8f3d
00000360: 6815 173d caf9 9dbd 815d 7b3c 62fa 9e3c
00000370: 43ed 99bc f0ce 97bd 9ad5 213d b749 483d
00000380: 607e 9b3b 1c01 7bbd 5309 963d f387 b1bc
00000390: fc87 703c 8d17 ffbb b25c 283d 69be b8bc
000003a0: 59f3 22bd 7612 6a3d 81c3 96bd cdc2 95bd
000003b0: 4de6 a6bd 7517 3fbc 128b a7bb 4df5 783d
000003c0: 50fc 5d3d 6ab4 11bd 07a5 91bd 1423 58bc
000003d0: 7eab 7ebd abd8 853d 7452 93bc 5323 84bd
000003e0: 3ee1 9c3c 9a56 e33c cf8a 973d 8313 bd3c
000003f0: 4f3e b6bc 15f9 793c 7a80 1cbc b5ae 13bd

fc1.bias f4 [96]
-0.040866688 0.011370625 0.021396024 -0.08338712 -0.020612568 0.0035878858 0.048561487 -0.1407418
-0.14008489 -0.120137885 0.05761872 -0.024838438 0.008482454 -0.1516537 0.01635127 -0.030156597
-0.01759099 -0.019976472 -0.08289971 -0.03483944 -0.06103886 -0.0049962895 -0.02342619 -0.07631984
-0.056276105 -0.0685493 -0.023247344 -0.13156584 -0.023362389 -0.095336124 -0.09509388 -0.17234996
-0.11544894 -0.069873385 0.013180082 -0.11065779 -0.044384047 -0.122929364 -0.13595276 -0.11026044
-0.0025140387 0.012400717 -0.0029894253 0.017246306 -0.017563408 -0.02752269 -0.022710146 -0.051088687
-0.087614134 0.03620145 -0.0010061347 -0.098632604 -0.12456622 0.04260082 -0.08605097 -0.07215957
-0.07073021 0.0048552896 0.09228153 -0.032664947 -0.1222165 -0.12910263 0.020197175 -0.008201839
-0.030080924 -0.019370366 -0.108511046 -0.05103951 -0.12637885 -0.11794656 -0.09819104 -0.11671339
-0.091623984 -0.039171826 -0.10089185 -0.018517252 -0.05590759 -0.024170022 -0.10226355 -0.11289409
-0.006845488 -0.018897472 -0.045240566 0.016999172 -0.10044867 -0.011675728 -0.11577273 -0.09920783
-0.070587926 -0.1507527 -0.07616295 -0.07927427 0.00414902 -0.14635369 -0.03587406 -0.14970572
00000000: d463 27bd dc4b 3a3c b746 af3c dec6 aabd
00000010: b0db a8bc bc22 6b3b 69e8 463d 9e1e 10be
00000020: 6a72 0fbe da0a f6bd 9b01 6c3d fb79 cbbc
00000030: fef9 0a3c 1c4b 1bbe 19f3 853c f80a f7bc
00000040: fb1a 90bc b3a5 a3bc 53c7 a9bd cdb3 0ebd
00000050: e203 7abd eab7 a3bb 48e8 bfbc 944d 9cbd
00000060: c681 66bd 9363 8cbd 3771 bebc 32b9 06be
00000070: 7b62 bfbc 963f c3bd 95c0 c2bd 827c 30be
00000080: 7e70 ecbd c719 8fbd 45f1 573c 8da0 e2bd
00000090: 0ccc 35bd 64c2 fbbd 3337 0bbe 3ad0 e1bd
000000a0: 92c2 24bb 602c 4b3c 3cea 43bb 2048 8d3c
000000b0: 23e1 8fbc 4477 e1bc a10a babc 5f42 51bd
000000c0: 0a6f b3bd f947 143d 47e0 83ba e4ff c9bd
000000d0: 931c ffbd 337e 2e3d 7e3b b0bd 66c8 93bd
000000e0: 00db 90bd 1f19 9f3b 19fe bc3d aecb 05bd
000000f0: a54c fabd 7b33 04be 8c74 a53c 0261 06bc
00000100: 456c f6bc 9aae 9ebc 0a3b debd ce0e 51bd
00000110: 7569 01be f78d f1bd 6218 c9bd 6e07 efbd
00000120: 5ba5 bbbd a372 20bd 63a0 cebd 7eb1 97bc
00000130: 5bff 64bd 3600 c6bc 8d6f d1bd 0435 e7bd
00000140: 1e50 e0bb dfce 9abc 2c4e 39bd d941 8b3c
00000150: 08b8 cdbd 8d4b 3fbc 411a edbd 7a2d cbbd
00000160: 6790 90bd ea5e 1abe 52fb 9bbd 8c5a a2bd
00000170: 81f4 873b bedd 15be aef0 12bd 754c 19be

fc2.weight f4 [3, 96]
0.025655808 -0.07160817 -0.017363252 -0.0057808007 0.010236352 -0.013219755 -0.06343975 -0.023605544
-0.1395006 -0.049495947 -0.28579652 -0.0029423742 -0.26111647 -0.06890749 -0.015970359 0.12681378
0.056390233 0.044211324 0.020511 0.03613032 -0.012149103 -0.023806257 -0.041767206 -0.7769403
-0.0768264 -0.057119753 -0.15461583 0.09267324 0.0034267488 -0.0024117196 -0.0036664167 0.21043688
-0.064089775 -0.037978865 0.037343565 0.09886952 -0.08692652 0.010089687 -0.1458752 -0.037953388
0.07755772 -1.0634419 -0.0010985356 -0.008273773 0.017434137 -0.15296237 0.04821091 -0.035325486
-0.054482542 -0.2734676 -0.046079192 -0.048050225 -0.014285006 0.07589476 -0.0058843466 -0.04899798
-0.0445483 -0.0033526556 0.525942 -0.02628884 0.045638785 0.015206397 -0.033593982 0.66640157
0.034995697 0.017892053 0.06324047 -0.12170868 -0.008104683 -0.07965613 0.057056963 -0.10664987
0.037760623 0.49085018 0.041376192 0.048223548 0.04120701 -0.03335893 0.047779933 0.07196476
0.010484494 0.024728326 -0.041961256 0.096023716 -0.073040284 -0.030090949 0.05535494 -0.037616797
-0.040440146 0.083085805 0.039186385 -0.03670397 0.038629666 0.14709878 0.024919773 -0.046789985
0.031542636 -0.023265753 -0.089858636 -0.061871666 0.030234348 -0.018223647 0.013400906 -0.006897277
-0.090102844 0.018354252 -0.5955284 -0.028880563 -0.2750258 -0.001845397 -0.003904238 0.0640759
0.07016013 -0.0218532 -0.023732204 -0.014779757 -0.048896458 0.007228273 0.023245828 0.029680071
0.09718952 -0.064640544 -0.038882945 0.0013277009 -0.006034009 0.0022576386 -0.057198577 0.030073304
-0.019362478 0.033980843 -0.069280185 -0.0015768606 -0.01287995 0.049206674 -0.087440245 -0.061750956
0.041181777 -0.4486087 0.05045365 0.21600473 -0.007936401 -0.0351762 -0.02386403 0.053450417
-0.005872314 0.07486927 0.00027880596 -0.014338834 0.011444909 -0.014720536 -0.017872384 0.035422146
-0.00028098357 0.0060574706 -0.06514724 -0.0011232718 0.009955098 0.0025152082 0.0077477847 -1.2998981
0.041561533 -0.09490703 -0.033302806 0.017646277 0.01267996 0.026545642 0.010593858 -0.0014297306
-0.065106824 -0.023806645 -0.066270776 -0.06844667 0.07202554 0.017577264 0.10034829 0.050503142
0.007202617 0.08965557 0.032526366 0.023238692 -0.04701437 -0.0028287966 0.037044354 -0.08369845
0.043572333 -0.1473359 -0.003993153 0.03130465 0.01737286 0.07881985 0.03463432 -0.03064249
-0.02341672 -0.029746737 -0.013203803 -0.028845994 0.07730471 0.08037536 -0.04747998 -0.012880329
-0.0748217 -0.115914054 0.47650272 -0.020423602 0.3333885 0.08679668 0.043880325 0.057758916
0.057878133 0.12648167 0.019572986 -0.009980873 -0.02858719 -0.059552938 0.017922448 0.556579
0.068928115 -0.0037425624 -0.03155174 0.027548477 0.030285986 -0.0016757078 0.041799664 0.06381148
0.06858622 -0.051292237 0.024986558 0.058040954 -0.015450233 -0.0106518725 0.079701066 -0.07248844
0.033187177 1.0347154 0.035743807 -0.3562518 0.042993177 0.19579668 -0.038219303 -0.14539577
0.019319246 0.20480976 0.03632941 -0.008113511 0.008878465 0.028947344 -0.03723645 0.036413833
0.04115713 0.020029014 -0.9422652 0.01808884 0.04684601 -0.042758465 0.004752721 0.2788738
00000000: 212c d23c 4ea7 92bd 613d 8ebc df6c bdbb
00000010: 5fb6 273c ac97 58bc b3ec 81bd 6a60 c1bc
00000020: 3fd9 0ebe 43bc 4abd ec53 92be d9d4 40bb
00000030: 0fb1 85be 5f1f 8dbd 45d4 82bc 79db 013e
00000040: 72f9 663d ef16 353d af06 a83c 63fd 133d
00000050: 080d 47bc 5705 c3bc 1714 2bbd 8fe5 46bf
00000060: 2957 9dbd 67f6 69bd 9d53 1ebe 78cb bd3d
00000070: 4e93 603b f10d 1ebb 4448 70bb c47c 573e
00000080: 8041 83bd ba8f 1bbd 91f5 183d 1a7c ca3d
00000090: 8806 b2bd 374f 253c 4f60 15be 0375 1bbd
000000a0: 95d6 9e3d dd1e 88bf bdfc 8fba b88e 07bc
000000b0: 09d2 8e3c 2ba2 1cbe ce78 453d 75b1 10bd
000000c0: 1629 5fbd f203 8cbe 89bd 3cbd 50d0 44bd
000000d0: a80b 6abc b66e 9b3d 7ad1 c0bb 1bb2 48bd
000000e0: 4778 36bd 3ab8 5bbb 23a4 063f b25b d7bc
000000f0: bcef 3a3d 4024 793c d899 09bd 4b99 2a3f
00000100: a657 0f3d 5b92 923c 3884 813d 6742 f9bd
00000110: 81c9 04bc c122 a3bd 90b4 693d 3f6b dabd
00000120: e2aa 1a3d b750 fb3e 157a 293d 0e86 453d
00000130: afc8 283d 60a3 08bd e4b4 433d 4362 933d
00000140: 28c7 2b3c 0f93 ca3c 91df 2bbd 15a8 c43d
00000150: 2596 95bd 4b81 f6bc ddbb 623d 1214 1abd
00000160: 91a4 25bd e428 aa3d e781 203d e756 16bd
00000170: 243a 1e3d 10a1 163e 8d24 cc3c dba6 3fbd
00000180: da32 013d d297 bebc ce07 b8bd 256d 7dbd
00000190: 06ae f73c c249 95bc 798f 5b3c 8e02 e2bb
000001a0: d787 b8bd a85b 963c 8d74 18bf ee96 ecbc
000001b0: 2fd0 8cbe 40e1 f1ba 3fde 7fbb 3a3a 833d
000001c0: 1db0 8f3d 7b05 b3bc 0a6a c2bc cb26 72bc
000001d0: a747 48bd 26db ec3b 096e be3c 9f23 f33c
000001e0: 4d0b c73d 4362 84bd b943 1fbd 4006 ae3a
000001f0: f0b8 c5bb e4f4 133b 0e49 6abd 4a5c f63c
00000200: 0f9e 9ebc 7f2f 0b3d c5e2 8dbd a9ae ceba
00000210: 6d06 53bc f08c 493d df13 b3bd 92ee 7cbd
00000220: 39ae 283d 0ab0 e5be 7da8 4e3d 5830 5d3e
00000230: ae07 02bc eb14 10bd 807e c3bc d3ee 5a3d
00000240: 8a6c c0bb 0f55 993d b42c 9239 6eed 6abc
00000250: 6d83 3b3c 672e 71bc 1b69 92bc d016 113d
00000260: fa50 93b9 bf7d c63b eb6b 85bd bf3a 93ba
00000270: b51a 233c 31d6 243b 21e1 fd3b 1063 a6bf
00000280: 6d3c 2a3d 9e5e c2bd 8668 08bd ed8e 903c
00000290: 9bbf 4f3c 3f76 d93c dc91 2d3c cc65 bbba
000002a0: ba56 85bd 2706 c3bc f9b8 87bd c52d 8cbd
000002b0: 2082 933d 32fe 8f3c 6783 cd3d 62dc 4e3d
000002c0: ee03 ec3b 579d b73d 5e3a 053d 125f be3c
000002d0: 2492 40bd 5563 39bb d2bb 173d 186a abbd
000002e0: e778 323d 39df 16be ffd8 82bb 4e39 003d
000002f0: 8751 8e3c 4d6c a13d b7dc 0d3d f605 fbbc
00000300: 6cd4 bfbc 6eaf f3bc c454 58bc 6f4e ecbc
00000310: ef51 9e3d d69b a43d 5e7a 42bd 0408 53bc
00000320: 1f3c 99bd 5964 edbd 2af8 f33e 664f a7bc
00000330: e6b1 aa3e 75c2 b13d dbbb 333d 9d94 6c3d
00000340: 9f11 6d3d 6984 013e 8757 a03c d186 23bc
00000350: af2f eabc c8ed 73bd 19d2 923c f67b 0e3f
00000360: 2f2a 8d3d c745 75bb 663c 01bd 58ad e13c
00000370: 511a f83c 6ca3 dbba 2036 2b3d 98af 823d
00000380: ef76 8c3d cf17 52bd 9cb0 cc3c 5abc 6d3d
00000390: f922 7dbc 3185 2ebc 503a a33d d274 94bd
000003a0: 47ef 073d 8e71 843f 1968 123d a366 b6be
000003b0: 9d19 303d ed7e 483e d88b 1cbd a1e2 14be
000003c0: 6543 9e3c a6b9 513e 26ce 143d 88ee 04bc
000003d0: fb76 113c fb22 ed3c 3f85 18bd ac26 153d
000003e0: 6194 283d e313 a43c 4b38 71bf 0c2f 943c
000003f0: 9ae1 3f3d 8023 2fbd b7bc 9b3b 8cc8 8e3e

fc2.bias f4 [3]
0.028325967 0.29162034 -0.31858745
00000000: dc0b e83c 434f 953e e51d a3be
