model/model_LSTM.pt (torch, 522967 bytes, 6 tensors)

weight_ih_l0 f8 [288, 150]
00000000: 475a 2c7e 4b92 cbbf 5ba0 bc4e 1f7b d7bf
00000010: 9df3 b64a bd2c d1bf c4da ad5d 0591 cebf
00000020: d579 6135 ca66 d7bf bfbb debe 1d73 cabf
00000030: 9b4e f3a1 5de8 d0bf d65f 5fcf a0de c3bf
00000040: c160 d784 7cc4 d0bf 7df6 d662 12ea d0bf
00000050: fd53 9e13 e811 c6bf b379 9bec 5cba cabf
00000060: baf7 cfa8 c480 c2bf fd78 1af9 bc50 d4bf
00000070: ebf8 e64c 6b5b c7bf eaec 11ec 5492 cfbf
00000080: c5ac b685 5d51 d0bf a30e e580 5c6f cfbf
00000090: 18ad e740 c609 c4bf e1b6 fd28 da2e c8bf
000000a0: 9bc0 f9c8 b413 d6bf 2b6b 37a9 874e d5bf
000000b0: 9117 1210 bf11 d0bf f5ff 884e 7018 c8bf
000000c0: 9592 af9b 2736 d7bf b34a 3c69 8d8b d2bf
000000d0: 4422 7c73 4178 c6bf efdd ad00 31cd d4bf
000000e0: 4b5a 795c b3bb d1bf 4756 328d 6324 d1bf
000000f0: 86d1 1d15 05cc cdbf 1309 6621 bfdc d5bf
00000100: 72df 11f3 9870 c7bf 343c cccc d619 c3bf
00000110: b9f5 2c19 4c3c c4bf cd72 4c4a adcc d0bf
00000120: 2f81 e12c f9be d2bf 856f 32f4 a237 c9bf
00000130: 85b1 bcfd 73e4 d3bf f125 bb3d b9c5 cabf
00000140: ec8d d907 af68 cdbf 6b62 5227 17bf d0bf
00000150: 857d 28e2 5d2f d4bf 8812 15d0 bd20 c2bf
00000160: 6d87 3504 df76 cbbf 81f2 86dc 058a d1bf
00000170: 8f32 ff26 9a07 cabf bade e097 9cbc c3bf
00000180: b12d 648a 7946 d1bf 235b b886 5aa0 cdbf
00000190: e373 61c3 1a6d d6bf 319a 9e7f be70 d0bf
000001a0: 4f23 5842 39eb d1bf 2d95 c201 77f9 d1bf
000001b0: 35fb 3090 e565 d4bf e69f 84e3 ba1e c4bf
000001c0: db78 206a 3bcf cabf 1668 2ff1 03f5 cdbf
000001d0: 1589 2ad3 826f c4bf dd1f 4d25 151c cbbf
000001e0: fd47 fcc5 2219 d3bf 575c 8aa2 8777 d4bf
000001f0: 15c6 a722 c073 d5bf a08b 0140 6325 a7bf
00000200: ba3e 7400 36eb d93f 56a3 6346 1cf1 c23f
00000210: d97f 897e bfa5 c93f bf21 e183 41f8 d23f
00000220: ae83 58ea 16ce d23f a2a8 0141 7b17 c23f
00000230: b3a5 2a39 75ce c13f 79e3 a248 1f25 c33f
00000240: 83b6 9e39 b45a d73f 9846 d1a3 23bb bd3f
00000250: 5594 be80 3ea7 ce3f 2e89 ea20 5be9 d73f
00000260: f8ab b21a 813e 853f 2284 d13a 47e9 db3f
00000270: 716e b7dd 881c c93f 2051 3704 977a d13f
00000280: 611b 0370 7682 a9bf b78d e741 290e cf3f
00000290: 994b 49fc 7349 ce3f dace a860 4194 b43f
000002a0: 3974 8ada ef98 dd3f f650 b794 da08 a0bf
000002b0: b800 5f9e a1ad bc3f fa71 bc1d ae94 da3f
000002c0: 841c 6a60 d365 bbbf 1aa6 3882 f29e b03f
000002d0: 2865 5962 51f3 b43f 6cb3 8f31 2fdb d13f
000002e0: ea81 f841 daa5 b9bf 44ce 945d 8814 c63f
000002f0: 8b85 7384 448c d03f 2825 a090 0ab8 6b3f
00000300: b890 16d5 3c4d c93f 33a5 c226 3be7 ca3f
00000310: b07d 8819 e1de 69bf 0e1a 4ef7 1666 b33f
00000320: 79ef 15e3 c45c b53f 366b e9d6 1c76 c93f
00000330: b438 361e 576f bdbf 03dc aa37 ea26 d73f
00000340: ca8f 4726 d50e 943f f4ca d9c7 c664 c9bf
00000350: 210b 8a85 f3c5 d23f a77f dcca 0642 a73f
00000360: 313b 06eb b771 bdbf 0ad4 46ff 435c c53f
00000370: 9f2b df59 5e71 b43f caa9 6c09 f91d c0bf
00000380: 811f 8562 defd bf3f fa21 a796 4c56 d23f
00000390: 9d81 d7bd 5f1b ccbf 1ea4 a572 51b4 d13f
000003a0: 21e5 473c dbeb be3f 1e8a 08a0 5036 cfbf
000003b0: c51f 2051 33d1 c83f 0c67 a3d9 8bfb c63f
000003c0: ec0a 4cfa 4863 d1bf d485 53aa b874 d33f
000003d0: c913 65e2 0867 c33f a134 e129 4144 c5bf
000003e0: 39c0 dc1b 43fa d43f 067f 5171 fe46 d83f
000003f0: 57ea e358 bbd0 d6bf d82b e5ba de8e d7bf
00000400: 6500 8c83 ac55 ba3f d326 a2df ca94 b6bf
00000410: b8c2 655d ffc7 9d3f 2838 43f8 4442 babf
00000420: 7fac a6cd 5302 d7bf 54a2 d36c 20b0 cf3f
00000430: 3cfa 119a f274 d2bf c842 d8b3 61a4 b9bf
00000440: d6e3 6fe3 0d0f d03f 47ff 36a9 e03d c53f
00000450: d444 a15d ac56 c4bf 020e 1238 7533 e0bf
00000460: abcc 8b09 ff36 d0bf 992b 3ee5 3320 cabf
00000470: b9be 6e4b 09d6 d3bf 28f1 fd1d 7f54 cfbf
00000480: 9072 6f66 c98b cabf 02b9 ae63 34cf d33f
00000490: 7121 e0e8 6f1d c93f 0933 56f3 02df d83f
000004a0: 2d1f 9341 2c45 d53f 6c9f 2402 1506 d63f
000004b0: 8133 a364 6476 cc3f 7873 2c31 7663 df3f
000004c0: 3a84 1447 30e8 d23f 5fa1 9f85 89b0 d93f
000004d0: 320a 98a0 4dc2 df3f 6234 7f33 d3da cc3f
000004e0: 9f08 9745 7e86 d83f 2d95 417a 1165 e53f
000004f0: a51d 1616 d773 cf3f 5e2f b857 c4fa db3f
00000500: c65f 0e4b c642 e03f 8c8a 6397 ead9 cd3f
00000510: 120a 513a 844c d83f f0d7 2531 bbb7 df3f
00000520: a017 1341 7609 d13f fd72 f006 32fa cb3f
00000530: 2286 bdbd 56f7 e23f 7eea b345 f207 d23f
00000540: f3f2 6a28 a18a db3f 76f4 b9ea 70d5 e03f
00000550: c66b efec edd0 ba3f 0f5c 46da beee de3f
00000560: f8d7 985e a754 e03f 76f7 738d 23f0 c43f
00000570: fc90 852c 7976 d13f ea6e f484 8a1a dc3f
00000580: 6255 195b 049b b73f 6380 505d dc01 ca3f
00000590: 01b4 a4ee 582d db3f 992d 9ce8 9316 d33f
000005a0: c534 e319 bf11 d63f c97b f07e 64f9 e23f
000005b0: 92ac 7753 ea9a ca3f d20f 74b8 7034 d73f
000005c0: 3909 8dbc 8b50 d13f acd0 477b d3dd b53f
000005d0: f969 2040 d5f3 b73f d518 ed5a 90b8 d73f
000005e0: 983f 64be f036 af3f ca75 70a3 20a7 c53f
000005f0: c563 a265 6525 e03f 4636 f095 c0c9 c63f
00000600: 9970 a158 f594 c13f 9253 b7a3 4228 df3f
00000610: e39a 7340 d4e3 ca3f 166a b207 d186 c53f
00000620: e167 8c3e 7f4c d83f 97ea c4ff 6383 bb3f
00000630: b4bd 08a8 6561 c43f 0510 98ef 7289 dd3f
00000640: 7a0a 274a b9e9 b73f f958 88a6 aaa7 c13f
00000650: 06f3 a35f 89fe e33f 05c2 7740 bba0 c13f
00000660: 496d c956 5c6e bc3f b447 76e4 94e2 db3f
00000670: 4834 dc1e 6570 d03f 2541 6e98 afc3 88bf
00000680: da7e 4f05 ebb2 e33f 64d0 c59d c50a b03f
00000690: b568 984a 7264 babf 1d24 b856 1521 da3f
000006a0: 9006 798d f343 cc3f 4e85 7d88 06ca cbbf
000006b0: 6884 2ed1 a850 d2bf 1a40 6826 9e37 d0bf
000006c0: f6d4 d113 76c7 c8bf 5c69 a4cc 490a c6bf
000006d0: 62bd 0fbf 5fa7 d2bf 9cb0 002e 210e cebf
000006e0: 182b 950f 221e d6bf 4a46 93b9 930d d2bf
000006f0: fe43 ac52 7fed c8bf ca17 3cd3 391c c9bf
00000700: e7ae 0c1b e3f3 cfbf 3439 bd22 a39b cdbf
00000710: fe76 11d4 5cc9 d1bf 0004 abf0 0541 bfbf
00000720: 2676 deea de0b d2bf c89f e750 688f c7bf
00000730: 200f 334d dc29 c8bf 1a62 06c2 6f29 cdbf
00000740: 2af8 5292 0a7a c3bf 4440 8dd0 321e c1bf
00000750: 8638 d74e c63c cdbf 54cd debf db59 d4bf
00000760: 0c95 e104 04dc d0bf 328f 0cb4 6ad0 d1bf
00000770: 8d95 fecc 6862 cdbf 77c1 e978 a48c bbbf
00000780: c8ed 7132 b84b d7bf 02f5 193c a88d c3bf
00000790: faca 56de dd31 d3bf 1c23 25d7 f867 d5bf
000007a0: d039 cef5 a612 d5bf 9670 4a69 6185 b5bf
000007b0: ccca 4b88 bbe8 c9bf d2e0 692f 1c03 c9bf
000007c0: 157c e22a f329 c0bf 3638 4cc9 f2c5 d7bf
000007d0: 8275 71b3 bff8 ccbf 6ca0 a53b c125 d0bf
000007e0: 9cf6 bc94 3253 d2bf 3cac eede 6012 d3bf
000007f0: 1eae c480 ce22 cbbf 94c8 f7f6 8269 d2bf
-0.2154020658569655 -0.3668897885240818 -0.2683556775698948 -0.23880068849731206 -0.36564879620519025 -0.20663806743456622 -0.26418248000593686 -0.15523157239544955
-0.26199257824692884 -0.2642866101485664 -0.17242146451886234 -0.20881234696476056 -0.14455469363013923 -0.31742786718849897 -0.182477390813751 -0.24665318991524227
-0.2549661451145762 -0.24558597844781102 -0.1565482918661949 -0.18892981530682731 -0.344952770486097 -0.3329180862908056 -0.2510831505718381 -0.18824580988621134
-0.3626803417558134 -0.2897676017466139 -0.175544911755667 -0.3250238901741502 -0.2770813372675646 -0.2678460005639391 -0.23278869181707423 -0.34159830342845615
-0.18312370175021503 -0.14922604560749309 -0.15809012631681954 -0.2624924874851729 -0.2929060877122706 -0.1970103924148782 -0.3108186700726708 -0.20915904535495103
-0.22975719340602951 -0.2616632350923626 -0.3153910358978112 -0.1416241899516033 -0.21456515985033367 -0.27404924903729727 -0.20335699943679628 -0.1541934720605605
-0.2699264384725338 -0.23145610407001369 -0.3504092128767395 -0.2568813558849881 -0.2799819133656926 -0.28085112735637346 -0.31871928292450785 -0.1571878062179614
-0.20944922143912134 -0.23403977657909597 -0.1596530467114198 -0.21179451295233678 -0.2984091695262803 -0.3197955214795391 -0.3351898516112624 -0.045207120478856
0.4049811367449184 0.14798310696576306 0.20037072828836136 0.29640233877992367 0.2938287056477361 0.14134159731049062 0.13911309520089574 0.14957037970250633
0.36491113306951933 0.11613676785898475 0.23947888647413387 0.3736179181525071 0.010373123767143597 0.43611317390429083 0.1961833078956832 0.2731072941944763
-0.04982347600303317 0.24261966436379875 0.23661660975139112 0.08038719758843219 0.46245952932241924 -0.03131754937536073 0.11202440372926759 0.41532471565167806
-0.10702248672360964 0.06492534331541613 0.08183773661712179 0.27900295104955464 -0.1001869593678816 0.17250160760305466 0.2585612576932241 0.0033836561533503624
0.1976696052998983 0.21018161194414517 -0.0031580349425579177 0.07577651536676219 0.08344679397663225 0.19891701215495922 -0.11498016822426643 0.3617501777293343
0.019587831937215396 -0.19838795431459 0.29333198586407333 0.04542561746916301 -0.11501645553492491 0.16687822308236405 0.07985486692557096 -0.125914697267332
0.12496747880243043 0.2865172835559232 -0.2195853878938693 0.2766307468032795 0.12078638288212008 -0.24384506048325333 0.19388429127888976 0.17955158354634937
-0.27168487971373056 0.3039991057722464 0.15158186964450085 -0.16614546341808015 0.3277747890560963 0.3793331247925241 -0.3564899795598299 -0.36809509517177963
0.10286977969735885 -0.08820789298820424 0.029083242488413957 -0.102573690997105 -0.359517050582049 0.24756245912364483 -0.28838791891022075 -0.10016451493016654
0.25091883860255615 0.1659508539432812 -0.1588950593163988 -0.5062814803245035 -0.25335670406566163 -0.204107748923289 -0.309938739456793 -0.24476613010836812
-0.20739095212674785 0.3095217679464356 0.19621085043787503 0.38861154330588527 0.33234697726992374 0.34412121972353904 0.22236304201069504 0.4904456596576021
0.2954216665403383 0.4013999752919712 0.4962343281078204 0.22542800917145472 0.38320881648918176 0.6685874355140747 0.24572266176640514 0.4371806007991291
0.5081511941852959 0.23321277992279865 0.3796701974389701 0.495589063640522 0.26620251040400866 0.21857285822706976 0.592692728602007 0.28173500830568077
0.4303362745957166 0.5260548195361838 0.10475050959159579 0.4833218700018173 0.5103337142561477 0.16357845694431788 0.2728560385496761 0.4391199396502389
0.09220912193389588 0.2031817870747573 0.42464278512017023 0.2982530376036379 0.34483315971449385 0.5929434279713571 0.20785264087257765 0.36257570279144347
0.2705411282842252 0.08541604766634475 0.09356434646216617 0.3706398857069762 0.060966037026559394 0.1691628263514942 0.5045649514241793 0.17803199120719365
0.13735834911029057 0.4868322943487381 0.21007779261636647 0.16817677379442902 0.37966900928733877 0.10747361177792879 0.15922232346336573 0.46151421926356334
0.09341009197582109 0.13792927867388707 0.6248213642098512 0.13771763465730671 0.11105897063082638 0.4357044440340545 0.2568600465172648 -0.01209199127131961
0.6155905822488095 0.06266436673996761 -0.10309519120383721 0.40826924771005385 0.2208237114701217 -0.21710282959524324 -0.2861730616369358 -0.2533946394987666
-0.19358707397228841 -0.1721889733533527 -0.2914656987986374 -0.23480620142197928 -0.3455891754316993 -0.282078677392836 -0.1947478440929728 -0.1961738854808444
-0.2496303445890284 -0.231312171900251 -0.2779151984194498 -0.12208592534717866 -0.2819745343821033 -0.18406394911221313 -0.18877748269562122 -0.22782704328416586
-0.1521619047616139 -0.13373408492270944 -0.2284171948398958 -0.3179845212682342 -0.26342869259527 -0.27834575255313887 -0.22956571588035182 -0.10761478378277
-0.3639965527179041 -0.1527605336631624 -0.29991862023159366 -0.3344709492708249 -0.32926343922090684 -0.08406647511077589 -0.20241493372994623 -0.19540741267315426
-0.12628020853023317 -0.37145681055051527 -0.22634121190905537 -0.25230437111759474 -0.28632797742089067 -0.29799672861799187 -0.21199971473230134 -0.2876899158283177

weight_hh_l0 f8 [288, 72]
00000000: 4c49 d926 5116 bdbf c79f 943a 717f afbf
00000010: 3f48 63ca 2ae3 b5bf 00a4 15aa 76d3 bc3f
00000020: a049 62cd 47ae 9dbf 7e1f 9474 b0a7 9e3f
00000030: e106 dd1e 2ac8 8a3f a06e 579f 990b 953f
00000040: bca4 b205 fefa 92bf 56fb 1a8c e816 9c3f
00000050: 4f6f f00a cd52 a1bf 67b3 580a bb0a bebf
00000060: e80d 1607 b1ff b03f 4e9f 9f25 6537 a0bf
00000070: 3f59 2e8a f80b ba3f cc60 69ff 91af 6dbf
00000080: a1e2 fc45 4cc0 98bf b244 8d97 23a9 a5bf
00000090: f41d 9967 24a0 bdbf 5b2c 8eea 1f69 7e3f
000000a0: b26f 19a1 2fa2 b63f 3d6c 37c9 c069 a5bf
000000b0: 6ce6 e64a c5f1 af3f 29ca 17ae ce43 b6bf
000000c0: 7cf0 1bd9 4aa6 b3bf dd45 6c23 1660 7fbf
000000d0: b590 59e0 f1cf b3bf 9806 feca 7e35 a83f
000000e0: c80b 1919 6740 9b3f 542e 5d3b f272 5c3f
000000f0: b13b 478b 5ae1 8dbf 882a 2b06 4533 9d3f
00000100: 493a a18e 22b3 7c3f d578 5d8c e256 b13f
00000110: 5769 1e5c e606 47bf bac9 d262 7245 ba3f
00000120: 8246 9b53 b2ef ab3f 0564 8f79 ded8 b43f
00000130: db6f ada2 4a72 a23f e59e f336 aade b3bf
00000140: e258 1324 f9b9 b7bf 8f53 6dff 8f8d 70bf
00000150: 59b6 78e2 5f33 b1bf d05c adde bdd5 973f
00000160: 971d 3fd1 3243 b7bf ad56 8df9 d8ca a4bf
00000170: 68c4 fdf2 26a6 a03f 9dc3 dba3 2f2d 93bf
00000180: 9edb 35d5 b87e b23f 58fc 1ed0 90a1 ad3f
00000190: d419 3ede 2184 b3bf 058d 768d 94e4 bc3f
000001a0: 79a9 9c41 77a7 ae3f ebe1 c435 3f7a a3bf
000001b0: a5d7 019c f43b babf 9eb3 680d 7d27 b4bf
000001c0: ab32 970a 1aae 813f 7acb 5a67 104f bbbf
000001d0: 4219 e28e 7ab5 abbf 869d 3f5e 839d bd3f
000001e0: 361c 3375 52dd babf c463 b41c 675c b23f
000001f0: e386 1b1f eeb7 8a3f 91f1 fea8 357a a53f
00000200: c114 f3d9 e68f a03f 09fc 78e3 060c a63f
00000210: f347 5e38 dee1 963f a107 cd3a c3d6 ba3f
00000220: 24ce 7725 38d6 973f 5556 d017 daac 9d3f
00000230: 6690 2c88 b7e0 823f d5c9 8c25 3247 a13f
00000240: c998 bd51 3b39 9bbf 2568 3f51 e1a7 a13f
00000250: a8eb 2f05 7abb bc3f 2ac6 a505 4d76 bc3f
00000260: 53ae 71b5 197f a23f 3ad0 ae7f 3507 bebf
00000270: 7533 d126 65e8 b53f b721 e617 3662 9b3f
00000280: b5be d463 c12f aa3f e952 6fe2 04a5 9e3f
00000290: 1e37 c5c8 2b3c b23f bb0b 8dc7 abb4 a9bf
000002a0: 6030 8aa5 4702 bb3f ed8d ec90 4973 933f
000002b0: 5fc5 6b43 4e39 84bf 6b09 b466 fd33 af3f
000002c0: de8f 9a9e d1a5 af3f c5db 7f97 a6e7 b2bf
000002d0: 8c39 6486 74a6 b83f 3be5 1e0f 7e86 643f
000002e0: e937 1d9b c058 b8bf 6fab de53 e158 94bf
000002f0: 8a51 3c81 1a0e bbbf 045d 6b95 62f1 b33f
00000300: d94b 72fd fd63 903f d337 9ac5 13db aa3f
00000310: f4ae e982 ee85 afbf 2719 0bda 17c1 a43f
00000320: 5369 c60e 3b8c b23f e6e4 614d 8078 bc3f
00000330: b364 eb4c 16b3 8b3f 45e6 75ad c7ae b93f
00000340: 515e 684d e2a4 b93f b210 7294 98b5 b83f
00000350: eaf7 7bb4 b78b b43f ce49 c032 25b4 9dbf
00000360: 4adf 4127 1640 a1bf 458e 245a 75f1 b5bf
00000370: 6d7e 4ef9 530b a6bf 29a4 d31c 686e af3f
00000380: 5748 d5e8 c114 ae3f 2915 6d9c de2d b8bf
00000390: 01cd 3c8e e9de 6cbf e09a 4600 39b3 b43f
000003a0: 0085 ab87 ec8f b13f a12a f398 1d77 bb3f
000003b0: 592b 0245 8b17 963f 9aa9 793a 2fb8 b0bf
000003c0: 975b a7cf e0d9 a73f 142d 8821 a2b4 703f
000003d0: b076 7612 84f1 ac3f c22e dae8 dcb0 b0bf
000003e0: a29e a3e5 e194 b73f 44cb b9bb c96e b5bf
000003f0: d546 6fa8 500b af3f fbb7 8324 59dc 743f
00000400: 0378 c619 b707 b33f 056c 43e9 d1f9 aabf
00000410: 678d 0de3 b16f bdbf 2b21 eaf2 0dfe bbbf
00000420: 607c 915e 970e bebf 3b38 4297 bc56 96bf
00000430: cb38 057d 2249 b63f 4d81 09ac 6c55 b73f
00000440: d600 d5de 0696 ad3f 2c8e b1f0 8f11 a2bf
00000450: 0cf9 31b4 e4e5 abbf 6b72 a8de f4d7 b7bf
00000460: 6762 c1e1 e997 b13f df19 4f44 2085 9ebf
00000470: 9c11 d4ac 12c2 a13f f518 9fb6 5b9d ab3f
00000480: c1bd 84f8 39ed a5bf 7cb6 63d3 5c4e 9bbf
00000490: ddde d8b5 1297 a1bf c0e4 5b69 6f3c bd3f
000004a0: b8e0 afbd 0a38 a13f 682e b26c ce91 a2bf
000004b0: 8563 3372 e2e4 bb3f 091c e68d 336e b6bf
000004c0: cfa8 f699 bfd1 b0bf edf8 1fb0 396d 8fbf
000004d0: 75a8 84d9 59b2 a1bf 40b0 a190 a4e3 b93f
000004e0: 773f f97b c72a b5bf 006a 7641 6398 bdbf
000004f0: fb65 cf42 78e1 9abf d2df 4512 3af4 b73f
00000500: 2758 d0fd 4ec8 9bbf 9c1a ce26 e508 a13f
00000510: fe8d 6075 1b3f 85bf ec55 d683 4e0f 923f
00000520: 9ebe 459b 03fe a9bf 6c9d a099 d960 80bf
00000530: ab65 61c2 5d41 a8bf 0305 c774 656a b13f
00000540: 5d94 620b 7b5a ad3f a5c8 cf52 557b 85bf
00000550: 0eb8 4779 e51a b63f bf62 560d 080e a73f
00000560: 3fa1 4ebd dcb0 9f3f a4ae 8180 f292 99bf
00000570: 2e92 225a 55be b83f f0f7 baf8 38ec 9b3f
00000580: 4a31 d17b 4d64 ae3f 0382 c677 bb94 b3bf
00000590: 0617 d0d3 e4fb b43f d44d d5ee 504e 74bf
000005a0: 4f58 1868 91c1 abbf f2f7 4e27 cac8 a73f
000005b0: ae85 5c78 90e2 a13f dc91 1e14 c593 adbf
000005c0: fc8f 0bcf 6e1a b5bf c699 f24c 3aa1 aebf
000005d0: 969a d8cf 292c bc3f 4459 8d4e 633f bd3f
000005e0: 70c6 6a0e c678 b93f 1846 eb2f b1a8 8b3f
000005f0: a51e 0443 a3d1 68bf fdb8 42fe 2b5e 8fbf
00000600: e831 515d 0041 abbf bd3c 98c8 d87a b1bf
00000610: 6623 8a1d ce53 b53f 7281 2c34 c3be 82bf
00000620: 1b63 41d4 03c5 b0bf b0e3 1008 49f3 b93f
00000630: af8a 3616 abf5 b23f a1e5 6682 4d63 a1bf
00000640: 1186 3353 ff20 b9bf 7791 9bf8 fae6 bbbf
00000650: a7f2 ca0e d1e6 b1bf 70ba 1d60 7b08 ba3f
00000660: 8769 f580 237b b6bf 528d b4a9 b77f b2bf
00000670: d007 3b82 c44d 9cbf 785f 5e9e 0756 bcbf
00000680: 0171 2f6c 0a8d b4bf ffeb ff13 8d00 ba3f
00000690: 0386 d484 d72a b43f 846f 12ff 95b3 a93f
000006a0: e7c8 371f d126 ba3f 0c43 ace2 795e a9bf
000006b0: ce48 a523 6514 9cbf d59e d079 6b19 b9bf
000006c0: f4ae 193e 0fb2 a9bf 7893 4650 5bf5 b53f
000006d0: 891c fef7 c4b7 b8bf 3228 7b93 ecfa ba3f
000006e0: b60b 5d20 346d afbf 9018 fc31 a326 6d3f
000006f0: dc58 7cba 41c2 b1bf f381 76f1 5183 a6bf
00000700: ad89 2945 6e0d 9f3f 9e24 9a71 3136 a7bf
00000710: 9e01 566e 856d 793f 34bf 4fb4 d763 92bf
00000720: 3bd7 b6e7 8f5e 88bf 1372 8ea1 9c5b a7bf
00000730: 7a88 fc39 4185 bcbf 03d6 7496 afa6 b93f
00000740: d548 9538 7ead a2bf 7b00 ceb5 487d 81bf
00000750: a9d2 97fd 6603 a1bf 36c1 4c24 b6c3 8fbf
00000760: 5c72 6379 ab18 9a3f 5338 7c7e 9cb9 b73f
00000770: f121 a310 47e8 b0bf 09d9 a9b5 9824 a53f
00000780: 6251 a09d 4686 b13f c890 86db 0f7a 5dbf
00000790: 1a15 17bb 9213 bdbf a195 2d3a 1eeb b0bf
000007a0: c274 68fd f6a3 bcbf 250f 443d 7cbb a6bf
000007b0: 3a1c 378b 6914 9dbf 9851 dde0 c17c a83f
000007c0: 6169 394a 2dca a03f c78c b26f 0fa8 b8bf
000007d0: 8639 7042 a9e8 7b3f e905 cc97 02ff 8a3f
000007e0: 3257 bea5 fb53 bdbf 1a27 9a5b ec25 b03f
000007f0: 67db 9d21 0ba3 7e3f ee13 dd8c a323 a0bf
-0.11362178038078702 -0.061519182587573655 -0.08549754563435473 0.11260167744116245 -0.028985139761582013 0.029936558833497433 0.01307709604919033 0.020552063322482383
-0.01853558454300662 0.027431138564448197 -0.033834846101142284 -0.11735123636817733 0.06640154288293554 -0.031672631113734626 0.10174516080437444 -0.003623757507096403
-0.02417105843707879 -0.04230605340001982 -0.11572482613802731 0.007424473450451686 0.08841226275529726 -0.04182245689636275 0.06239143885927664 -0.08697215795817982
-0.07675617027774878 -0.007659994581233201 -0.07739173629085168 0.04728313663418965 0.026612864405489295 0.001736389689045566 -0.014589984298167243 0.02851589059973006
0.007006773938043561 0.06773200919039664 -0.0007027268222714972 0.10262217438393054 0.05456311483943656 0.0814341589715611 0.03602822528657131 -0.07761634675591329
-0.09268147593261092 -0.004041254512078831 -0.06719016341295382 0.023276297298562565 -0.09086911781843408 -0.04061010404863672 0.03251764026834608 -0.01872705876934654
0.07224612431842423 0.05787327328243269 -0.07623492885441091 0.11286285833061889 0.059871413001320435 -0.03804204493866677 -0.10247734841126872 -0.07872754647605837
0.008632853935432413 -0.10667517207438762 -0.054118947927281016 0.11568471003521638 -0.10493960725135384 0.07172245455548337 0.013046131443334946 0.04194801032960805
0.03234788332478323 0.04306050802960477 0.0223459932236167 0.10483951745575705 0.023278119360794616 0.028979690268974363 0.009217676013186526 0.0337463064992282
-0.02658550917058092 0.03448394886773113 0.11223566652908679 0.11118012798194657 0.036125949286397806 -0.11729750029809419 0.08557731816945398 0.02674183388583781
0.05114559501305164 0.029926372833716384 0.07123063708897034 -0.05020653544354255 0.10550353805064239 0.01899447390600344 -0.009874926979565655 0.060943526064891916
0.06181197224694278 -0.07384720991818401 0.09628990441362911 0.002505537232505487 -0.09510425364462062 -0.01987030100250869 -0.10568395285765156 0.07790199420866278
0.016006439775605095 0.05245267665041777 -0.06156869266564327 0.040535683981533226 0.0724522505828749 0.11121370209902501 0.01352517530669881 0.10032318100811562
0.10017218007885133 0.09652093528899533 0.08025692135194587 -0.029007512304881015 -0.0336920664712453 -0.0857156128955064 -0.043055175955711934 0.06138921119583813
0.058752116844190176 -0.09444991415974315 -0.0035242616303549083 0.08085972077115455 0.06860235512023749 0.10728631004455248 0.02157418831533717 -0.06531043222063318
0.046584153507573216 0.004078515361935393 0.05653012013793324 -0.06519871411199588 0.09211551529335307 -0.08372174103878388 0.06063320213401161 0.005092952931802226
0.0743364751747038 -0.05268722507909022 -0.11498557847294465 -0.10934531384021244 -0.11741014536663519 -0.021815249187561597 0.08705344726806456 0.09114722442746377
0.05778523893468594 -0.03529023945955276 -0.05448832225464359 -0.09313898502336719 0.06872426759344706 -0.02980471054959277 0.03468378410073855 0.053934923212681264
-0.04282551916764588 -0.02666611709803711 -0.03435572118581629 0.11420341799011435 0.03363069119944967 -0.036268664139325335 0.10896125114540041 -0.08761903967216268
-0.0657005072486385 -0.015345049559979585 -0.03456383495570573 0.10112980395359816 -0.08268400932979413 -0.11560650203902156 -0.026250723912971435 0.09357035585514886
-0.02713130401760835 0.033270989405584234 -0.010374273795668462 0.017636515423495355 -0.05076609869399572 -0.007997226715885396 -0.04737370488937683 0.06802972889910923
0.05733093751886351 -0.010489145841323053 0.08634790621701446 0.045028926494699466 0.03094811349333892 -0.024974621861857074 0.09665425730288099 0.02726830499772598
0.05935899864616319 -0.07648822473721144 0.0819685952302188 -0.004957500595384318 -0.05421118159954174 0.0464537785514806 0.034931673710399166 -0.05776801939581208
-0.0824345832330095 -0.05982382001211621 0.11004887890212908 0.11424847286011636 0.09949910976390597 0.013505348467705722 -0.003029650564830027 -0.015316337296408461
-0.05323029650807937 -0.0682807435734842 0.08331001492673593 -0.009152913121909665 -0.06550620967881253 0.10136848875926208 0.07406110088644867 -0.03396074501820157
-0.09815974980622168 -0.10899323052905695 -0.06992823229934207 0.10169192406258687 -0.08781644724277814 -0.07226131337352129 -0.027640409897465024 -0.1106877099649618
-0.08027711049311749 0.10157090891145514 0.07877871506618565 0.050198256861420126 0.10215479862361897 -0.04954892055514479 -0.02742155103744253 -0.09804412578580053
-0.05018661149082773 0.0857750960336271 -0.09655409864909549 0.10539129829990726 -0.061380032492273015 0.0035584628493579643 -0.06937037279962815 -0.04397064278169074
0.030324671717957653 -0.045335335843512 0.006207963194697545 -0.01795899427446486 -0.011899112948281157 -0.045620817872279805 -0.11140830674824712 0.10019967482806895
-0.03647989693367185 -0.008539741562117556 -0.033229082542594775 -0.015510008795530977 0.025484732898677684 0.09267595375078601 -0.06604427486593757 0.041294834304539015
0.06845513675972861 -0.0017991213663686601 -0.11357991283064842 -0.06608761711466694 -0.11187690436095735 -0.04439914939760418 -0.028398179170633343 0.04782682294777202
0.03279248744066155 -0.09631439663876327 0.006813679857272331 0.01318170572040152 -0.1145627288481961 0.06307866321926917 0.007479709130953838 -0.03152190298582257

bias_ih_l0 f8 [288]
00000000: f0e6 bba2 4ffa c43f e1ac 4af1 b551 c93f
00000010: a3ba ef12 ba38 cf3f 7b1f f50e bd45 b1bf
00000020: bea3 17ec b189 e03f d7e2 9d7f 11bf da3f
00000030: 0294 cb68 6c7b e2bf 4507 263d 8d39 bbbf
00000040: b549 23fa e433 dc3f f189 406d 3792 b23f
00000050: bbe3 350c 0edb c33f f1ff 7916 a07c d9bf
00000060: 1bf3 74b6 7729 ab3f 2fc0 d0ef 06a8 b33f
00000070: 58e9 bea1 e868 e03f 6f9b 4eb0 d916 c93f
00000080: ad25 3dd0 5335 d3bf c8ef 94f6 e4b7 ebbf
00000090: 8268 7a8e 9f65 7bbf aba5 c7d2 b8e4 a93f
000000a0: 4708 0e79 1de2 d7bf ffbb a87e 1acc d73f
000000b0: bf1a 574f c49b c23f 079b f6b8 c113 d63f
000000c0: e26f 023f 5375 b0bf 8f65 ece7 c7ae d73f
000000d0: 876a 6c70 c8b3 cc3f 1dda 4767 d35b d63f
000000e0: fff1 b878 524c d73f 0572 1c03 ff44 c73f
000000f0: 302f bf47 a158 cd3f 17dc 0264 c35f c33f
00000100: 95a7 7f0e 7604 cb3f 13c1 b992 8059 bd3f
00000110: 3fd5 3a2e 3404 d43f f8dd ad07 38c2 d13f
00000120: b8f7 3697 ff52 d9bf 5e92 a047 1217 ce3f
00000130: db9e f18b cd8f 90bf cebc 898d afb6 d13f
00000140: a9d0 7e40 6dab dabf d20d a99f e7c2 d53f
00000150: 5545 c909 390b bd3f d270 1c66 872a e03f
00000160: c5a6 4f7e 2ce5 d8bf 836b a134 0f0a c93f
00000170: 77af e781 cfec dcbf e876 c3be 9929 eb3f
00000180: ba14 a778 5cb1 c3bf 6326 7dd2 7e80 b93f
00000190: 4a5c dea1 96f1 9dbf 2f3f df39 cc44 d73f
000001a0: 72c9 6b15 9397 dcbf 6d55 b712 d008 c4bf
000001b0: 43f7 d125 95f6 d1bf 066e 4497 5786 ecbf
000001c0: 4386 e303 e4a3 b2bf b818 feaa 4529 e73f
000001d0: c943 c68b 4b53 dbbf f81d b6d1 0be6 cd3f
000001e0: 2938 e231 2b8a c13f 2526 dbac fead 613f
000001f0: 44b8 e285 4fa0 e03f 3e95 4af4 820b dfbf
00000200: ce5f c121 c396 b3bf 12ce 0a5d bf46 ca3f
00000210: 6926 fcfd 6f0e d9bf 1955 9f52 c9b0 e93f
00000220: 19ea 7f5a dbbd d7bf 95d8 dc35 498b c93f
00000230: 468f 0fca f82a e0bf d11f 1ef8 fd30 d23f
00000240: 107a 3018 7dcb b73f 5e8e cd6c a364 b7bf
00000250: 257b 18e7 19d6 a8bf 90f8 933f 3a5c a63f
00000260: 8574 84fa a4e4 a43f e512 9db6 7aec 973f
00000270: e998 d5bd 637d a33f 74b7 c6f7 c5ec a6bf
00000280: 56a6 9f28 5d1b 9f3f 50e7 7ed5 dd03 713f
00000290: 6c01 3132 5d33 9fbf 8ffb 406e 8095 a8bf
000002a0: ae1c 67da a248 b23f cc5f a4f1 ff74 aebf
000002b0: b1be 324c ea59 a73f 8f79 018d ff5a b93f
000002c0: a0b0 904e 3b76 b0bf 4e8d ee1c 939c b6bf
000002d0: c684 fcca 3e2b aabf 5340 1915 5c18 bcbf
000002e0: 3b89 0360 c601 a1bf 090c eb87 e23f b23f
000002f0: 2613 7c66 c6cb a73f b0e5 dd1f dae1 b63f
00000300: c69d bf04 8e95 a33f 0ed2 6d6a 34c4 963f
00000310: 369e e3df 6397 b5bf 2ee5 b50a 86cb b9bf
00000320: 13f6 f01f 8a5e 81bf 0b48 2176 1c17 b53f
00000330: c7ad 5386 f011 bd3f 1f52 8405 1e4d b03f
00000340: a283 6d7f 7dff b3bf d20b eb40 54ac bd3f
00000350: 4e99 f8a9 bff9 813f 5403 32ed 53fa 943f
00000360: 6dd5 39b3 c0e6 b2bf 828d cc1b ea1c b33f
00000370: 582e 0249 447a 9ebf a3f4 161b cb88 8d3f
00000380: 9cc2 d847 88e3 ad3f 67e8 7fb7 1f4f a4bf
00000390: f263 09a8 b2be 963f ccb5 3fbf 8aa7 bbbf
000003a0: 1992 c7cf b1ed b7bf 8b78 e0c9 9831 b73f
000003b0: 8d7e bc81 4fe1 923f 21e4 b708 531a b8bf
000003c0: 5750 897a e067 93bf 7e8f 0211 f925 a0bf
000003d0: f0e0 cd05 45fb 96bf 29d8 74c0 40a5 ae3f
000003e0: 1faa ef8c 20e4 ab3f 239f 85df 95ed b83f
000003f0: 11a9 7ed6 ebd7 b33f 0103 9e69 410f be3f
00000400: b136 6a76 3dfa acbf da05 ccd9 5918 bb3f
00000410: 601a ca27 da9a ac3f 03f1 991f 76b5 b53f
00000420: e79c 53eb 5f2d b23f 261c d799 c72a b5bf
00000430: 527b e72e 6b58 bc3f f0ad 2b39 5dd2 a93f
00000440: 65e1 4e6f c6b4 b93f 5a7f 2fd0 f290 b5bf
00000450: bd4b 42a5 e382 46bf 5114 ec0a 92d2 b6bf
00000460: 27f2 271b 9e90 7cbf b369 7006 7649 9ebf
00000470: eea2 070d 82b7 a53f b0f1 0d15 9872 b43f
00000480: 7ad0 278e 5978 c8bf 47b4 3b63 475e c1bf
00000490: 2f43 6909 9d06 dabf 59b1 f809 32f3 8f3f
000004a0: 9950 d560 b91e d4bf 7be5 7fae 0fbd bd3f
000004b0: 83ca b84c 26e9 993f 3bc4 ba9f 808b d4bf
000004c0: 2e8c 458c 9740 db3f 45bc a130 fd7e d23f
000004d0: 4ba1 461b f8dc e3bf 5c34 729d 9906 ba3f
000004e0: c0bd db32 8c95 bd3f edfd 6abf d06c dbbf
000004f0: 614a 7eb0 bca0 e13f fec2 a8a4 a90f c6bf
00000500: 66ab 4698 44b7 c43f 35b5 5bab 3b0f bc3f
00000510: 8ecd 457f 5fac bcbf b3e1 2471 8c07 d3bf
00000520: 9ea7 2751 9b13 d4bf 5d4c a355 3905 a0bf
00000530: 97f5 e8da 948e c83f 4c97 e22f b3b8 e1bf
00000540: a841 ea0a e5b5 d0bf 0383 6891 a939 d2bf
00000550: bb16 b55c 2097 c2bf c337 4db3 4bd6 e13f
00000560: 9681 7776 2c17 d43f 3bc9 68e7 c3dc b3bf
00000570: 1fb5 b9c7 cbff a1bf 7b4b eaba 7cf1 b93f
00000580: f4dd 8e2c b4f7 c93f 7a22 57fd dafe e1bf
00000590: 9573 2552 cb73 c93f 1ead daac 4197 d93f
000005a0: e277 856a f085 d1bf f5cd a46d ba36 d43f
000005b0: 62f7 70ca 3b91 cb3f 705e 517c a8cd c73f
000005c0: 6a60 9dcf da94 d23f b6e9 f568 14b9 d3bf
000005d0: 90bd 47a4 4505 d8bf 06b4 7be6 bbb0 e13f
000005e0: 188c 7945 7cd7 b6bf eef1 efa6 b585 c53f
000005f0: 3c56 9d3a de3d d3bf de26 2fac a57b d33f
00000600: 0d5d 29f5 a930 d9bf e01d 6202 2514 c2bf
00000610: f21c 5d08 cd92 d13f be9c 7dea ee6e dabf
00000620: c75f b612 0033 b33f 7eba 077a c20b 963f
00000630: 3324 0db4 bd96 91bf 6ef7 bf4a 5ff5 c63f
00000640: 982c 762c 5aab da3f f6b9 5cc2 89dc dabf
00000650: 6416 96fe 57b9 b7bf 0296 b78b e82d d23f
00000660: ec39 0c27 59fa d7bf 5d3e 1a39 087e c03f
00000670: ebff 825c 2f73 c13f 5698 f374 ad17 b33f
00000680: 3626 4933 ee09 aabf e575 a3e5 62d7 d83f
00000690: 2334 a957 855a d23f acbf 2524 8f5a d73f
000006a0: bef8 ff00 07d5 8dbf 1c2c b2f4 9b90 c63f
000006b0: 1898 b317 d658 b4bf 8180 48f1 aaf6 d23f
000006c0: 8394 618f 3ded aebf e77e 9154 34fc c53f
000006d0: d8ce 736e 4430 d33f 0020 626c 184b dcbf
000006e0: 4990 4954 4fb7 97bf 8f3d d9ca ca76 d93f
000006f0: 81ab 8f07 8369 bd3f 72a9 decc 6c6f 90bf
00000700: ed18 b7cf f3a4 d23f e538 6e99 56bc d13f
00000710: a42d 8561 0a68 d33f fbf8 99a5 3e2b d13f
00000720: 96d7 8cdd 8374 cd3f dfd0 23b3 33f4 cd3f
00000730: 2d91 b70d 5663 dd3f 358c ad23 f8ef c83f
00000740: 3ae9 9b0f e192 e9bf 120f b4c0 f681 ebbf
00000750: f0b6 3462 4e17 de3f 93a3 1d40 706f bd3f
00000760: fb3a 2208 689d dabf fa85 6a7e a73a d23f
00000770: 292f 5de0 0f09 d43f c26e 9f6f 127f e2bf
00000780: 0d56 e787 3eb8 d8bf 3460 306a e156 d23f
00000790: 3372 24d8 a7c8 d63f e08e 7052 424f d5bf
000007a0: 3349 e9c0 26c4 cc3f fb1d 1b4a 5182 ddbf
000007b0: ce0a e913 f988 c5bf 9861 d8cc a2a8 ef3f
000007c0: 32d2 a376 ce77 d9bf bc30 00e1 c025 b73f
000007d0: 7d67 68ff 417a db3f 72af 31ba 600f d33f
000007e0: 439c 4bbd 863d b33f 1e1e efa4 1728 cb3f
000007f0: e2f3 4aa5 7c88 ca3f 468d 1cb1 62fd ab3f
0.16388888784404498 0.19780611306973753 0.24391866612082422 -0.0674703752057421 0.516808472745758 0.41791188681194796 -0.5775663420469075 -0.10634691946873172
0.4406673853638055 0.07254358689582553 0.15512252422538872 -0.3982315272805855 0.05305074789291649 0.07678264002675016 0.5128062399956361 0.19600983723395468
-0.30012984596086306 -0.8661980453539337 -0.006688712375444552 0.05057313511845093 -0.3731759721923748 0.37183248871855307 0.14537862657581077 0.3449558550150162
-0.06429024017637588 0.3700427784802622 0.2242365406935571 0.3493546017265617 0.36403333463002235 0.18179309513006117 0.22926727298033134 0.15135996230466794
0.2110736437601274 0.11464694578331018 0.3127565814459849 0.2774791789047124 -0.3956908203798508 0.23507908341811662 -0.01617356459283213 0.27677525350641197
-0.4167130594098674 0.34002104369957664 0.11345249642297024 0.505191516338096 -0.38898765883514513 0.1956194884286014 -0.45195377050435276 0.8488281942224747
-0.15385013476603665 0.09961693419350008 -0.029241899137187034 0.36357408191269064 -0.44675137607477844 -0.15651894487261178 -0.28067520802857276 -0.8913991884650734
-0.07281327338162051 0.7237881030748872 -0.4269589295373036 0.23358295192541312 0.1370290750095944 0.002158162510430344 0.5195691695169065 -0.4850776086480727
-0.07651919912439029 0.20528404276920803 -0.39150619319170815 0.802830373164997 -0.370962942484455 0.199563170719277 -0.505245585107766 0.2842402384781027
0.09294874039230927 -0.09137936979601011 -0.04850846239081922 0.04367239023302816 0.04080691869806067 0.023363034625861884 0.038066021845951266 -0.04477518701183572
0.03037782249876949 0.004154078043876755 -0.03046937579006352 -0.048015607317657964 0.07142083961581377 -0.05948638748867516 0.04560787372736053 0.09904477303050484
-0.06430407207580169 -0.08832663971275176 -0.05111118533955898 -0.10974669947722875 -0.03321666643184292 0.07128730600656764 0.046476554880462026 0.08938372877118783
0.038250387267733596 0.022232836719426934 -0.08434128013652117 -0.10076177369582659 -0.008481101131219615 0.08238389858277644 0.11355498580422028 0.06367671618165403
-0.07811722146062874 0.11591078362384558 0.008777139067274089 0.020486174919372616 -0.07383350730545653 0.07465995005309448 -0.029763285595022587 0.014421068920336849
0.05837655903849745 -0.039666167402132406 0.02221182966818342 -0.10802523774301348 -0.09347068140738947 0.0906005375731828 0.018437616628146847 -0.09415167773103451
-0.018950946311022978 -0.031539710356155645 -0.022442892531643943 0.059854529851165524 0.054474847034573275 0.09737526614264573 0.07751344668091444 0.11742028072877632
-0.056596680359786496 0.10584031646069239 0.055868928296196385 0.08480013152615488 0.07100486274031291 -0.08268401628366515 0.11072416205523197 0.05043307612308101
0.10041465966685832 -0.08424298842100822 -0.0006869899321081324 -0.08915055052428157 -0.00697385559260203 -0.029577106612217196 0.04241568001800099 0.07987356676125645
-0.19117278519809472 -0.13568966241237687 -0.40665365141926463 0.015600577287010852 -0.3143752523076358 0.11616609583133723 0.025303457672814843 -0.321014553056617
0.4258173818436174 0.28900079487988634 -0.6207237751705547 0.1016632089033051 0.1155631660619667 -0.42851656621129913 0.5508712241301731 -0.17235298671723592
0.16184289393762724 0.10960743840742711 -0.11200520379298082 -0.29733573006844977 -0.31369669842990244 -0.03128985567459417 0.1918512410065147 -0.5537963805443069
-0.2611019713013101 -0.28476943206810307 -0.14523701216437765 0.5574091436371805 0.3139144093420553 -0.07758736037866225 -0.03515469372801249 0.10134105265960429
0.20287182021796435 -0.5623602817586992 0.19884625922250324 0.39985696678441396 -0.2737999954459821 0.3158403464069289 0.2153696764452731 0.18596368856627832
0.2903353717315499 -0.30817137003000583 -0.3753217796611006 0.5528239728570277 -0.08922554680025063 0.16814299250826487 -0.300651128044908 0.30442182364332193
-0.3935952085643784 -0.1412397634160092 0.2745850164105398 -0.4130208291957834 0.07499695259900739 0.021529234598285367 -0.01717659388967636 0.17936316633125265
0.41670851079897764 -0.4197105787342531 -0.0926718708561452 0.2840520252633213 -0.3746550446820993 0.12884619510849663 0.13632766740010935 0.07458004098188672
-0.05085701347395537 0.38814613748203747 0.2867749553741438 0.36490229158425325 -0.014566473691953848 0.176288122635328 -0.07948053434992663 0.2963054043084484
-0.060403751137337224 0.17175916795075993 0.2998210028301691 -0.44208345970446317 -0.023160209197513635 0.3978754979079548 0.11489123282050963 -0.01605005264688359
0.29131789478959896 0.27712025626614284 0.3032251312585805 0.2682644478990281 0.230118258646766 0.23401495215478627 0.4591879972415594 0.19482328168951005
-0.7991795830596751 -0.8596147311913873 0.47017249670430683 0.11498166623427002 -0.4158573226385866 0.28482997269938404 0.31305310164019545 -0.5780117206699844
-0.38624537727204783 0.28655276651398087 0.3559970484509762 -0.3329625897479058 0.22473606509681474 -0.4610789512339292 -0.1682425830095639 0.98933544167362
-0.3979374083130863 0.09041982167417734 0.4293370241372186 0.2978135889340968 0.07515756722897131 0.21216102174206325 0.2072902495473548 0.054667553062496085

bias_hh_l0 f8 [288]
00000000: 89a8 0e53 70b1 cd3f 1de8 ab9e 3b6f c23f
00000010: 2ec7 298b 08f4 cf3f aa44 fdbc 7bd4 d0bf
00000020: a58d d5e6 b449 e03f 90ed 0be5 4fe4 d93f
00000030: 7d2a d46a 3f11 dbbf e157 bdc0 fc61 b4bf
00000040: d3c4 f096 8971 d73f 1646 9328 dcce c23f
00000050: 6ef0 904b 8fc3 cc3f 3d56 76af 1bda d5bf
00000060: 870e 74ea 12c3 c63f 398f cd9e 9dad c43f
00000070: 0d35 09d5 5747 e43f 2f77 b45d 88df c23f
00000080: f725 dfc1 8752 cfbf 6b24 8b0a a84b ebbf
00000090: 9aff f764 eaf4 a63f d279 ad6c d67c d13f
000000a0: a182 ab01 0380 d3bf 7391 11e5 af9e d93f
000000b0: b761 ec9c 51fc d23f 2839 ac8f 7f39 db3f
000000c0: 4d97 ba77 3032 a8bf d4ef f66a d512 cc3f
000000d0: 0de9 1c87 c240 ca3f f580 01d5 b479 d53f
000000e0: 2832 691c ee0e c23f fa59 a704 e28e c23f
000000f0: 3cfc c7d9 c917 c53f facf a1f2 8d9f ba3f
00000100: a2a5 2a00 59bd d03f 5712 41be 790a 7e3f
00000110: 257e e8d3 64b2 d33f 7885 14d9 c815 da3f
00000120: 268b bb5b d8a1 d2bf 310f 1b0a 7cb8 cb3f
00000130: 693e d3d8 6463 523f 3894 7635 f0fe c93f
00000140: b9d7 2b93 9de3 d0bf 5a3c e197 381f d93f
00000150: 9f5e 992a 52c7 c23f 1f7b 36f1 93fd d23f
00000160: 404d b18a 7e4c e1bf a700 1471 2054 ae3f
00000170: fd97 f701 cc31 dbbf 5d0b 8816 4f3a ef3f
00000180: 0255 d320 a8f5 c2bf f963 6332 0ba2 d03f
00000190: 8f2c 2a14 bea3 6cbf ad40 9da1 56bc d83f
000001a0: 6ab2 42e6 0c30 d7bf 9299 7828 a4ea b4bf
000001b0: fff3 af4a 6d92 d1bf 88c3 187c d374 edbf
000001c0: 57db 5d35 d332 a9bf 432a 1df7 132b e73f
000001d0: 0fde c6d1 74b3 d6bf 8f7c c2af 12a6 db3f
000001e0: 359a 4721 2b67 b83f c46b ad96 fbc2 c33f
000001f0: 0c1c 248e cd56 e33f ae80 9f7c daeb ddbf
00000200: c152 f81f acce c7bf 68f5 fecf 3070 d53f
00000210: 8769 1f12 4907 d5bf fba7 bf16 195c e53f
00000220: 01ea 2277 4d76 d1bf 85d0 5413 a7d3 cf3f
00000230: a7ba aba8 9e2d d7bf 422c 3217 265f db3f
00000240: b524 287c 2a16 62bf b23a 0c74 773f b33f
00000250: 28b6 9596 344b 923f aaa4 d5b0 615b 9abf
00000260: 6fb1 245e e60d a9bf 488b 9abc ed8b a93f
00000270: 53dc 4679 48ca a1bf e04c d010 dae1 abbf
00000280: a670 cded 7e25 aabf 6ac5 b5fb bd96 b5bf
00000290: 8af1 32d7 08be aebf 05db e86c f492 a2bf
000002a0: 28b7 47ff 2250 b53f 447f cc29 2a69 b8bf
000002b0: 36c3 fd89 7f8c b33f 7478 b347 6800 993f
000002c0: fa90 c3a4 e956 b63f bcfe 7e18 773c a4bf
000002d0: 2a15 d5d3 c246 b53f 60f6 90df 0a31 b53f
000002e0: acc5 50f6 4c7a b03f 4760 7662 7b8c 9dbf
000002f0: 581a 1f05 6b20 b13f 1d41 ec72 a38a 88bf
00000300: 9a27 2c04 7603 b9bf 9cd5 108a 8b42 a4bf
00000310: 27ca 08b4 7bf5 933f 032b a4ba c6a1 abbf
00000320: 5e2f 27e7 41b6 a5bf 1316 ad21 642a 903f
00000330: a674 a39e 9c6b a9bf 03b0 4623 1a30 b53f
00000340: a16e 99c5 58ff a43f d900 e0ca 7276 ad3f
00000350: e632 cc9a ecb0 afbf 7773 ee7f c98e 963f
00000360: 41a1 4d12 7bee b63f 763f a27e 77b0 b03f
00000370: 6458 ca66 7435 bdbf c3f8 6fc1 1cd3 f23e
00000380: 2cbd db8c ddcc 683f e95b 43f0 6357 b93f
00000390: d0db ae1a a3e6 3abf 564b bfc6 8db9 9cbf
000003a0: c881 d62b f802 b0bf cb77 2a87 a217 88bf
000003b0: bb5b d806 1510 b8bf e9ce dad9 948e a23f
000003c0: 35fe 517c 0349 bbbf fbc3 0671 d26b b23f
000003d0: 890d d7bd c39e 9e3f 03dc ad40 f5b9 babf
000003e0: 36db 809e 57d2 aabf b323 60b7 86ff 85bf
000003f0: eb55 18aa 3769 a8bf df62 cab2 ed4a bbbf
00000400: 5daf f4d8 4b7e b2bf 256e 1487 68dd 5cbf
00000410: 594d 3060 4894 a2bf 078e 197c bb84 9dbf
00000420: acf7 ddd4 0e39 bd3f 57d9 a136 8279 b0bf
00000430: 5e75 e58d 7f8d b93f 1937 ad52 3127 b9bf
00000440: a9ef 8b99 5cac ac3f 2cb3 c807 2aba 893f
00000450: 22ca 8f72 7a7b b5bf ede0 71c5 de10 b6bf
00000460: 3d9a 8a6a e978 ac3f f2f3 47ab a349 7abf
00000470: 0e6d 1daa 59dc a0bf edab 30bb 1dd0 ae3f
00000480: bbf7 d680 4a9a b6bf 5ccb 89d3 6464 9abf
00000490: 3d42 9376 3aff dabf 6fbe 456d 7ecf adbf
000004a0: b59d ce69 a854 c5bf 32cd d4ad 06ab b43f
000004b0: 280a 35ec df21 b1bf 2a51 cc5a 0fe7 d2bf
000004c0: cac2 a383 e106 d03f aed6 752c 5506 d43f
000004d0: 201e 1216 ce94 e8bf f08e 5695 e450 c73f
000004e0: 7441 300a 7cd8 cb3f f832 9f1f 1498 d0bf
000004f0: 8c85 d78c cab8 e13f 3986 36c0 1818 d0bf
00000500: 187f 3276 2215 c43f 713c db2c 3469 c23f
00000510: a589 91e7 163a c7bf 223c a813 e042 c9bf
00000520: 943e 9a7b f91b d4bf 44ae 4d0f ec72 c8bf
00000530: 980f 658b eb81 d53f 3ec0 280c 3ba6 e4bf
00000540: d85f 51cc fa66 d0bf 23ac 0a61 2c0d b1bf
00000550: facc 19a9 beab b7bf bd49 ce12 7da9 e33f
00000560: 29f4 368c df32 c23f e73b 2e53 4b55 7fbf
00000570: 7e6b 962f e10e c43f 4bae d2cc ca6c bc3f
00000580: 16d5 7ed6 70d8 9d3f 4026 ff90 9c33 e0bf
00000590: 4001 8e70 8bdb d33f d61a 5a94 e7a9 d53f
000005a0: 921b a947 f225 cebf 58be 3519 6d79 d43f
000005b0: 0da9 f421 e285 d43f 6010 176b b958 d23f
000005c0: 58a5 45d3 ae0d d03f b4b2 f12e 6a4f dbbf
000005d0: d867 b9e0 0321 d4bf a098 bda1 a1a6 e43f
000005e0: d489 96b0 9389 c0bf 345e e5c2 bce3 d33f
000005f0: ac07 b3f6 30b2 d2bf 07eb 1edf d3f3 ca3f
00000600: 2450 e24d 5b23 d9bf 6c49 e11a ad71 c3bf
00000610: 5719 cb6a 3b44 d33f c61b e4a8 1854 d7bf
00000620: 7ea9 d99d c9df 8e3f 2953 24fc 504d aa3f
00000630: 5b41 b805 fc8e 8f3f 2554 29e1 0e1a b23f
00000640: 5f7c e8c3 d36f d13f d393 0a60 88eb d8bf
00000650: e040 59a6 22fe b7bf 38d6 ce2c 3312 d33f
00000660: 2a9c 27ee 007b d5bf 1fb6 7dd8 5753 bf3f
00000670: 9f22 c525 cd7d c03f c44d 385d eece 973f
00000680: a45c 4c1e 31dc c1bf 9e4f dd91 3846 cd3f
00000690: bcc3 7204 ad28 d63f 633a 51b1 c794 df3f
000006a0: f044 c977 4ad0 2bbf 6f37 3d1b 6562 d33f
000006b0: 7945 8147 f6af 923f d3b5 21c1 9e14 d13f
000006c0: db16 4f28 35d1 b9bf e521 bf25 44da c73f
000006d0: 47bf e575 e8a3 d73f d016 f960 34a3 dbbf
000006e0: 464a d812 3501 a7bf 171c 8664 7935 d83f
000006f0: 445e e1b6 9575 c23f be17 ee98 46ac afbf
00000700: b5ec fefc cccc d53f 1c85 2a56 d8f9 d43f
00000710: 466d a8b0 1ac8 d73f 8fb7 3af6 56ef d63f
00000720: f18e 5113 5c94 d53f 64fb 5e74 ed15 d13f
00000730: ed1b 3073 3323 e33f 50a7 7d6d 9c19 bb3f
00000740: 309d 1290 7c73 e3bf c54c 6d07 fb9e e8bf
00000750: 252a 0299 ee29 dd3f 1c51 e6a1 63cb d13f
00000760: 9853 2ef2 8a1a d0bf 93cb ae6d bd05 c63f
00000770: 64c2 9721 8b52 db3f 25f4 e31d 6b4f e1bf
00000780: 55cb bb76 c739 ddbf 325d 77dd bbef ca3f
00000790: d7b8 c664 652f d23f fafc 06a7 8547 d2bf
000007a0: c78e c307 1fb5 ca3f 20dd 3f3a c696 e0bf
000007b0: 65f5 b5db e629 b0bf 3a94 0f09 e178 ed3f
000007c0: bbed 17e3 1105 d2bf 5b97 3677 f9f9 bc3f
000007d0: 12ee f810 543a d53f 41da e5af aca4 d23f
000007e0: 8fca af73 7c94 a83f ea43 ae0a f5fd d13f
000007f0: 4ea9 0e15 a433 ab3f 6301 e18d c19f af3f
0.2319775014451049 0.14401955840713834 0.24963480753972916 -0.26296895462025793 0.5089973934631656 0.40456006400901234 -0.4229277175187816 -0.07962016778523619
0.36630477657588506 0.1469378660317921 0.22471800985102014 -0.3414372647760933 0.17782818267743414 0.16154833082247835 0.6337088738306719 0.14744667602001857
-0.2447061249388722 -0.8529854017189228 0.04483730776337254 0.2732444821648673 -0.3046882168110106 0.40031049127562496 0.2966503174261805 0.42538441687146866
-0.04725791417631218 0.21932475779419625 0.20510131451903427 0.33555336762766724 0.1410806311345294 0.14498543956024418 0.16478846677634518 0.10399710820803412
0.26155686393993893 0.007334209021852964 0.3077632970252771 0.4075796241687253 -0.2911282440019697 0.21656752103273783 0.0011223301728938934 0.20309259996898432
-0.2638925492495861 0.39253058273329133 0.14670779304536993 0.2967271667093189 -0.5405876835670043 0.05923558597896888 -0.42491436187844994 0.9758677902285445
-0.1481218490868415 0.25989036484457945 -0.0034960472560832743 0.386495263887819 -0.3623077629697834 -0.08170534122527887 -0.2745621899956063 -0.9205110000385597
-0.04921588922927949 0.7240085436290616 -0.3547031448938193 0.43201129116091236 0.09532422602169606 0.15438790185257123 0.6043460632507744 -0.46752035303326067
-0.18599463997875001 0.33497257530310387 -0.32856966752810773 0.6674924320516306 -0.2728456176224939 0.24864662593757117 -0.36215940925368745 0.42768242135270296
-0.0022078351769364243 0.0751871736831429 0.017865010920493557 -0.025739218156932843 -0.04893417262278176 0.04989569594660864 -0.034746422581002044 -0.05445748763318092
-0.05106732037413168 -0.084331392243049 -0.06004359843197722 -0.0362774260469703 0.08325403911996132 -0.09535468597868851 0.07636258238723034 0.024415616394314957
0.08726368210369975 -0.039523812999957525 0.0831109778565248 0.08277957876358633 0.06436615956842812 -0.028856208691280718 0.06690091013943211 -0.011983181900661105
-0.09770906068675203 -0.039570198634844206 0.01949113165228247 -0.05396863010726884 -0.04240613886540133 0.015786709361483697 -0.04964913784508811 0.08276522980912664
0.04101064121343013 0.05754431463719962 -0.06189669980640193 0.022029064591709138 0.08957642742973794 0.06519266931195297 -0.11409690389186405 1.7952592397556916e-05
0.00302737494973084 0.09898972144888742 -0.00041047555958634036 -0.028051581626481102 -0.06254530973683992 -0.011763829946456547 -0.09399539391630089 0.036244060128778184
-0.10658284936106883 0.0719577337211063 0.029902513944546825 -0.10439999417381789 -0.052386034105828136 -0.010741283866097939 -0.04767774535518384 -0.10661206831936053
-0.0722396282841919 -0.0017617722299466756 -0.03628755735567308 -0.02882664627976619 0.11415188500356405 -0.06435407480043885 0.09981534208551099 -0.0982542826506826
0.05600251554821451 0.012562111246631945 -0.08391537949481934 -0.08619491882734893 0.05560998368791956 -0.006417884189883859 -0.03293113900755361 0.0601815501216477
-0.08829179425717275 -0.02577359715582915 -0.4218279035531259 -0.058223677481575524 -0.1666460529934121 0.08073465103079938 -0.06692313687111862 -0.2953527819347693
0.2504199777168138 0.3128865179236112 -0.7681646758146066 0.1821561555089981 0.21754408357129373 -0.2592821415717448 0.5538075209444044 -0.25147074480819104
0.15689497729635415 0.14383556547406642 -0.18146024996810897 -0.19735337219069132 -0.314207430558761 -0.1910071444248037 0.3360546933438342 -0.6452918279155779
-0.2562853808681189 -0.06660725945646155 -0.09246436718403919 0.6144395224858311 0.14217752787036034 -0.007649702299103978 0.15670409034359162 0.11103503704605903
0.029145968524706488 -0.5063002426115375 0.31027494422598423 0.33849515426156296 -0.2355330324082528 0.31991126500995426 0.3206715900038411 0.2866653009225555
0.25083513862644713 -0.4267220934332656 -0.3145150847027458 0.6453407439228336 -0.12919851419890327 0.3107749846726364 -0.29212593166095746 0.21056602854317694
-0.39278299909460856 -0.15190662205220506 0.3010395567802297 -0.3645078324629448 0.015075278405863864 0.05137112691787699 0.015409439968636354 0.0707101154051349
0.272450391117621 -0.38937577609095547 -0.09372154771085972 0.29798583389069533 -0.33563254601762316 0.12236546550203585 0.12883915275803745 0.023250317039197346
-0.13953222255142805 0.22870547411241388 0.346232656806986 0.4934558135618429 -0.00021220120460666665 0.30288055095740324 0.018249366869274895 0.2668835531283921
-0.10084850534539262 0.1863484558400749 0.36937915337965815 -0.43183621854801135 -0.044931086111450955 0.3782638055494671 0.14421340398506477 -0.0618612348253431
0.34062504488583595 0.32774933256776406 0.3715883946585631 0.3583581356605174 0.33718015562611386 0.2669633518634582 0.5980469941868002 0.10585954354396887
-0.6078474821014535 -0.7694068093354863 0.45568432752830496 0.2780388909389033 -0.25162004137501404 0.17205016952138105 0.42691305428073734 -0.5409446319387184
-0.4566515597827466 0.21044109643728742 0.28414282647544326 -0.28561536132106335 0.2086523807439475 -0.518405069130413 -0.06313937057526216 0.9210057427377543
-0.28155944039437103 0.1131893077896086 0.33168508202990765 0.29130093743825475 0.04800785934630369 0.28112531703032906 0.0531283641533543 0.06176571709557057
