model/model_LSTM.pt (torch, 522967 bytes, 6 tensors)

weight_ih_l0 f8 [288, 150]
00000000: d61a a3e9 4ddf c43f b54b fd27 8e37 b63f
00000010: 46b9 8919 2907 b43f 1cdf f94e 150a cb3f
00000020: e42e 9aa8 67bb c73f 07de aac9 47ca b23f
00000030: 2c9b 848a 449d c23f 1ab4 4c89 b2c7 b63f
00000040: 8f07 7d62 8769 cb3f 93e1 8bfb dd12 9f3f
00000050: a96e 2b78 a1a3 b63f c65a a959 3ce6 c53f
00000060: 2d07 fbad 3927 b53f 699e d745 6aa4 b03f
00000070: 3191 9fb8 3bc1 8b3f 1543 36f4 97bc c13f
00000080: fe07 b4cd ea70 c13f 7e84 131c dde1 c53f
00000090: 6ed2 aef0 fecf a63f 6d03 bac0 c2f0 cc3f
000000a0: 508d 0143 4169 963f 891e f342 a186 cd3f
000000b0: 0573 4864 7884 b63f f044 779a 5c26 ce3f
000000c0: f6be e4dd e0a7 c13f 662e 80e1 cf2a b13f
000000d0: 2f7f c312 0757 c63f b7f0 dbac efba b13f
000000e0: 911e 9a0e 3c3a 903f 7ea1 339b da13 c43f
000000f0: b4a8 505c ef6b bf3f c910 143c e85f ce3f
00000100: 328a 50e0 3065 b43f 52c0 1712 35d7 ba3f
00000110: 34be cfa1 1bd3 a83f 7876 b5c6 92e5 c53f
00000120: dc22 5db0 6744 cc3f a211 9e69 b3a9 cc3f
00000130: d6ac dd80 5640 c73f 83a4 cc9d 58bf c43f
00000140: f3c4 c3ef 6b5f ba3f 69a9 1d1e 0944 c83f
00000150: ccc3 10a0 ead2 b73f 4c29 a7df 6b6a b43f
00000160: 9047 8e95 a1f1 953f f3f5 664e 85d3 c23f
00000170: 545e c594 dfc6 cb3f 0b74 58b7 36c8 a13f
00000180: 7915 c295 5eb7 c63f 7f71 38df 40a7 b63f
00000190: 2d03 8dcb c348 b33f 8e6a a356 758f 803f
000001a0: a27b f5d0 3cde bb3f e873 f562 a14e a23f
000001b0: 7bc1 7eec bfaf c33f 724a 6870 e77f cd3f
000001c0: f42c 6f92 d6e0 903f 5fd7 70d0 933c c23f
000001d0: 912e 78e3 e681 c93f b135 f7d6 b862 c53f
000001e0: e14f ad4c 37a3 9b3f 0564 5687 d28e b03f
000001f0: 6e56 ffe5 2c3b c53f 3f7c 8615 b836 763f
00000200: 1ed9 8835 1dc3 883f f368 f8fd f752 9c3f
00000210: 7346 1f8b 2589 9e3f 525e ced6 6356 c83f
00000220: 3112 0f16 aa0a c73f 76c6 23c1 314f 5c3f
00000230: 64c2 8290 e58f 913f 17f3 4bac 16d0 b63f
00000240: 55c7 09b7 bfe6 b43f 9b20 84ba 26b6 af3f
00000250: 4c69 e2f6 d3ef 96bf e21e 9b7c 9ad3 ab3f
00000260: e198 bb80 ff19 b93f b3a1 3b7f 2ef2 96bf
00000270: 599d 01e9 7d92 c43f 44d7 b7fd 71f5 b43f
00000280: b0d5 7188 7aab c63f fac6 56ff 32b4 b23f
00000290: b4db d6ba 3497 ae3f 7137 b28c 5329 c33f
000002a0: 4c0f 6522 626e c43f 2f90 efdd fa5b bc3f
000002b0: 0d34 136c e459 c43f f51c 734b 0f10 b83f
000002c0: a913 4715 6f57 c63f 68c3 e757 fa7d c13f
000002d0: 9af9 5ec3 e7f3 ac3f 4322 de6e 380b 623f
000002e0: 0748 3ef5 2b7a b83f b93a 4991 cd49 bb3f
000002f0: 565d bebc 9896 a73f 962b 7f5f 5519 b53f
00000300: b3bd 97de 4e12 993f 8a7d d658 fe8e c33f
00000310: 02f9 0328 a760 b43f 3f7f f0b0 a791 6bbf
00000320: 702c affa 8680 ca3f 2620 17b9 0b76 b93f
00000330: faf3 66fc 98b3 c33f 1692 f3f7 7b18 bd3f
00000340: c376 c2b6 3d2f c13f c4c7 8cf5 0a40 6cbf
00000350: 8212 b43c 723e c43f aeea 24ce 058c b23f
00000360: 348c 9675 e16c 9e3f c250 d40c 1f05 66bf
00000370: 1be9 0ebb 9f4d a73f 7b7a 5e42 70e0 683f
00000380: 5590 f035 4054 b33f 265d c99c 6050 be3f
00000390: abe3 87e3 ec8f 9e3f 0929 e668 2397 c53f
000003a0: 720e aad5 3f19 9e3f f181 7fa5 4ef2 b13f
000003b0: 1166 d7db b89e 873f 67b7 1197 a7e7 c13f
000003c0: a9da 0c80 3df4 86bf 1acb 705d 623f c13f
000003d0: 7dec 544a e02f c73f adb4 3432 fdb6 c43f
000003e0: 1cc4 65c2 ff87 c63f 34e5 c4f4 d55f b63f
000003f0: 5dbf b6ef 148e 9d3f 1951 e610 63dc ad3f
00000400: 8cd4 6f38 ad30 c9bf 905d 3453 b160 c93f
00000410: 11a7 7573 690a 8d3f 6305 721f a8a6 b6bf
00000420: 91a3 045a 75b0 c8bf f6d2 14bf 833b b1bf
00000430: 0b21 8a00 0ee0 b13f 8796 cb0a 9377 bdbf
00000440: 3249 720c 64da cfbf 3bf9 7763 7c11 b53f
00000450: b97a 5e9e 8f1d c03f 8343 1c02 6dc7 bb3f
00000460: a3ab 272c bcaa c13f be74 89b1 174c c83f
00000470: edcf 8dd3 5610 c63f 9b26 9bd8 a193 b23f
00000480: 0ea3 b964 c48e ab3f bd59 1e7a 41e5 babf
00000490: 06af 04ce 5712 c3bf 3ffc a4b7 3061 bfbf
000004a0: 0196 368e 1db1 ad3f a569 93ca e231 95bf
000004b0: 9739 565a e5d0 973f f4ab 00fb 4be7 bbbf
000004c0: 43f5 7efc 6eaf bebf 96f9 707a ed81 babf
000004d0: 887b 8006 f966 a73f 704a 3340 75b4 a5bf
000004e0: ad5c 67bb 252f a4bf 7bd6 57bb 168a babf
000004f0: 40e5 54a5 c88f c1bf e476 a4b6 87e5 bfbf
00000500: 8902 376a d7fa a3bf 02d6 a795 bbd3 7f3f
00000510: 1b15 8673 56eb bbbf d809 bf0f 4344 afbf
00000520: 8cd9 9e6c ffe9 c0bf 3f75 b837 5f69 aabf
00000530: 046d 2ebb ab94 a6bf c00f 3231 c401 aa3f
00000540: 3001 02f7 3e97 4bbf 0596 e2b7 ea77 82bf
00000550: a4da 1881 f52d 85bf 1c79 3814 3bf1 9ebf
00000560: 31ec 0da2 f36d bcbf a0ed d360 e6d4 903f
00000570: 8e27 0a9c 0b4d ae3f 1f67 6310 0c74 a63f
00000580: 53cb 6dae c073 c0bf 8eb9 38a6 b568 bbbf
00000590: e3c3 123e 8fc9 c0bf f0a7 5506 2f53 b13f
000005a0: 085c 3fee f5db 85bf 30d7 d006 b804 a6bf
000005b0: 54f5 9923 778f c2bf b6be efd8 a938 c1bf
000005c0: 8341 f7b7 792e 92bf b60b ddfa 1ec9 b7bf
000005d0: 5ee9 89f1 678b 603f d379 71d4 120c bdbf
000005e0: ee6e ac30 3135 bfbf 2365 9b9e 0897 673f
000005f0: aad5 b956 410b b3bf 81ef 689c 576c c0bf
00000600: d364 9816 b35c babf dd02 bfba b414 af3f
00000610: 0262 6227 cf2a 7dbf 25cd abf2 6052 abbf
00000620: 59b8 0093 7e48 92bf e1b4 5bf3 1d54 b13f
00000630: a3b9 2ed9 1d8f aebf f3fd e26b 69a1 a03f
00000640: 8f16 ca7e f065 a33f 8b6e 166a d65e bdbf
00000650: 0810 88a4 5d07 af3f 6781 5182 550f a8bf
00000660: 9294 646a f8c4 b03f 7a48 2e54 a086 b23f
00000670: fef9 c24f 7c42 a13f 2e08 826b 202a 4c3f
00000680: 3715 8317 befa bbbf 212b 9ba2 d4f0 bebf
00000690: 4385 3c98 2aef bfbf 23d2 b66b 99b0 b13f
000006a0: f41f c02d 009b b6bf c5f7 39d4 076b cf3f
000006b0: e4a0 c220 382b c33f bab6 d665 94d8 bb3f
000006c0: da0b 9783 f10b d23f add0 e6cd 9f18 ca3f
000006d0: 664f 45ef 86c2 ae3f 0017 a387 e4f2 d23f
000006e0: 1410 176c 6f09 ca3f 7a35 01e4 6fce a33f
000006f0: a6be 952c 247a d53f 0ee4 bdde 1b02 cb3f
00000700: 9acd f149 bed3 b03f 7e60 368f f48c d13f
00000710: 4685 ff08 bcef be3f 74a1 c4ff 433b 883f
00000720: 5df6 2467 4f24 d53f b0f3 3cb0 ca8b b63f
00000730: 0079 de6c 8a7c b43f ae2b c112 3cc2 bd3f
00000740: c4b2 36bb 1f9b b03f d7f4 02f3 1dc7 9d3f
00000750: 08d3 ff79 970f c73f cc55 9061 a463 a03f
00000760: cda0 56f7 d01e bd3f aeaf 2ce9 a617 d03f
00000770: 3532 159a ea14 9e3f e92a ef3b 04fd 903f
00000780: f380 7e24 e60a b03f 2fe2 82b5 173c ca3f
00000790: a978 0480 d37f afbf f706 c6c5 4d73 ca3f
000007a0: 8ac0 2029 932b c03f 20bb 2c81 7481 9f3f
000007b0: 3f55 f823 89fb c83f ef36 200e 3398 cf3f
000007c0: f907 4c9f 30a6 c53f 62b9 5116 bd4e ce3f
000007d0: ac87 ff87 dc07 d73f 283d ebd1 c310 ae3f
000007e0: d52c 0ff9 f2a8 b73f 1394 0092 9d33 cc3f
000007f0: 813d 02c5 138d a83f 113f 51d3 fc1c b03f
0.1630647078329363 0.08678520656876183 0.07823426125989838 0.21124521595242463 0.18540664417775254 0.07339905427476633 0.14542443049978127 0.08898464061776715
0.2141579848194479 0.03034540984933327 0.08843430694417499 0.1710887372780318 0.08262978074619971 0.06500877576001475 0.01355215699363352 0.13856791901027835
0.13625845951179366 0.17095531340513398 0.0445556324770323 0.22609743509749639 0.02188589068863439 0.23067107934024403 0.08795883606257966 0.2355457071521765
0.1379357417549653 0.06705950980556849 0.17453087249941165 0.06925867052263156 0.015847147361027828 0.15685589388091253 0.12274070743356696 0.23730185445322707
0.07966905094557644 0.10484630290716382 0.0484856257461356 0.17106852247791315 0.220837555995124 0.22392885834791537 0.18165093700677087 0.16208942132042034
0.10301851848250347 0.189576282219899 0.09306208045815295 0.07974886141088183 0.021429562333259933 0.14708010032875016 0.2170066334172015 0.03473063457588673
0.1774709922066611 0.08848958444327158 0.0753290531111019 0.008086125093929721 0.10885982610260084 0.03575615246766245 0.15380095527281043 0.23046582211152927
0.01648268955959238 0.14247367551586884 0.1992767916384435 0.1670752572667147 0.02698980718135136 0.06467929653298661 0.16586838941900645 0.005423277929735681
0.012090900608296592 0.027660250545616227 0.02982004796633082 0.19013641346531301 0.18001295163243605 0.001727865780193486 0.01715048498653217 0.0891126795431315
0.08164594858842851 0.06193657900627266 -0.022399246162060835 0.05434878130978206 0.09805294888392126 -0.022408224597627768 0.1607205760694608 0.08187019771852727
0.1771081129296994 0.07306212171422635 0.059747360045938974 0.149698680590912 0.15961863212043637 0.11077850263933507 0.15899329449749225 0.09399505226166467
0.1745432714361901 0.1366570405221197 0.056548349951742696 0.002202615948537352 0.0956141923655026 0.10659489438078652 0.04607083610533873 0.08241780835594023
0.024483902297957005 0.15280131662164492 0.07959980704251637 -0.003365352174583252 0.20704734077876052 0.0994574858551692 0.1539183838303016 0.11365485003950257
0.13425418304261968 -0.0034485067411873255 0.15815570796998563 0.07244907648866203 0.02971222191048302 -0.0026879888961365015 0.04551409872461162 0.003036708122592655
0.07550431553733124 0.11841396167561821 0.029845906627062806 0.1686748754694423 0.029393193641693967 0.07010356464844116 0.011533207139041076 0.13988203884531034
-0.011208038778574307 0.13474683344392063 0.1811485636661451 0.16183438254794194 0.17602536193911156 0.08739983774002696 0.02886231148812556 0.05832204419417248
-0.19679799323754243 0.19826332628938959 0.014180015407606857 -0.08848047988614875 -0.19288508315483147 -0.06731437125274539 0.06982505334065452 -0.11510581029468812
-0.2488522587560254 0.08229806354936368 0.12590213044037116 0.108511746421085 0.13802292018894233 0.18982216042323857 0.1723736317613879 0.0725651887725242
0.053823602004575574 -0.10506066543016508 -0.14899728354918568 -0.1225767563200728 0.05799190865517901 -0.0206981121199107 0.02325781215545816 -0.10899805906289811
-0.11986440338565267 -0.10354503859796291 0.045707494777381064 -0.0423924103612493 -0.03942220604556588 -0.10366956781202845 -0.1372004325183216 -0.12459610184711384
-0.039023143497165576 0.00777028346282327 -0.10905971832660948 -0.06106767241682903 -0.13214104465232557 -0.051585174133132565 -0.044103018378530506 0.05079472637683535
-0.0008420045324016075 -0.009017785774925189 -0.010341566087942518 -0.030217097386519773 -0.11105272966771974 0.01643714872350943 0.059181559369860456 0.04385411930134197
-0.1285324908927473 -0.10706649120468212 -0.13115110903666424 0.06767553238537949 -0.010673447926746973 -0.043004751998905966 -0.14500321615552514 -0.1345417317638657
-0.017755414822944637 -0.09291261314960661 0.0020195989748660733 -0.11346547781565812 -0.12190539778060458 0.002879635653567762 -0.07439049117404886 -0.1283063424797284
-0.10297698308604035 0.060704849048766475 -0.007120904154497955 -0.05336287462514581 -0.017854669306125313 0.06768977347720152 -0.059685642968690965 0.0324814743230454
0.037887111165258884 -0.11472835626630677 0.0606030715316877 -0.04699198928642794 0.06550552937967982 0.07236673407740737 0.03371036981251406 0.0008595140743781254
-0.1092947776224563 -0.12086228341938156 -0.12474313942631902 0.0691009414648041 -0.08830262295680297 0.24545381415003767 0.14975644683477818 0.10877349363610281
0.28197896814907397 0.20387647203245277 0.060077873905042975 0.2960749935704001 0.20341294076763516 0.03868436487446565 0.33557991365430906 0.21100185752928308
0.06573094659125048 0.27422822938525104 0.12084555835419505 0.011831790202067018 0.3303411967534425 0.08807055285156085 0.08002534063277622 0.11624503572345077
0.06486700363775372 0.029079883534667807 0.1801633210849547 0.032010208997387574 0.11375146902594509 0.25144360323860837 0.02937666478583108 0.016590181501480315
0.06266630545588096 0.20495888102392842 -0.06152211129868707 0.2066437926951534 0.12632979877662748 0.03076726950092301 0.1951762605319036 0.2468322581266231
0.16913421419309296 0.23677791204267878 0.3598548248393125 0.058721656203142125 0.09242170887516761 0.22032518033043455 0.047951333807868764 0.06294231566539234

weight_hh_l0 f8 [288, 72]
00000000: 06e1 9bd3 13e3 aebf c003 c2d2 015a b7bf
00000010: 13f2 783d 75b8 673f c014 1e00 e0a0 a0bf
00000020: c33d 1325 0a72 9bbf 3401 a66f c71d 8fbf
00000030: b4ce d623 d389 9cbf a9d5 2229 9e9f a4bf
00000040: 4c64 2eb8 833a a23f de87 feb6 c27e 833f
00000050: aae4 7904 fd9c b23f cb07 2b18 d359 b33f
00000060: e772 09c6 8c6b cabf 447b ef91 bd89 bfbf
00000070: c5df 1492 4a75 bd3f 78a4 6d0d ccbf a6bf
00000080: 9e08 86be 7c5a c3bf a340 25f4 1ad7 693f
00000090: ca4c 5856 71af b43f d466 d9d5 cea1 92bf
000000a0: d269 f129 dede bebf 0109 7a65 177b ae3f
000000b0: 13c4 f284 4ec0 c33f b507 d5d5 e8a6 b7bf
000000c0: 3d4f 42a9 7915 b83f 0d1e fd41 5f2e 983f
000000d0: c011 89fb bbfe 9bbf fbaa 0ca0 920d c8bf
000000e0: ca7f 5c67 9b4d cbbf 6999 19c3 c2ed c5bf
000000f0: 5c54 25b1 cc2a 6abf e598 a710 4f42 bfbf
00000100: efbe 00f3 b969 bfbf d4cb 8d72 8b34 c83f
00000110: ade9 4a89 1cef 95bf c375 7638 9f59 ae3f
00000120: af78 ca97 a644 a43f 214c c731 ae83 b1bf
00000130: fa73 3eb2 d495 893f 0392 f2bc 64f8 b1bf
00000140: 739c 676d 6bd9 c0bf d5a1 02e8 6a48 c33f
00000150: d139 562f 0aab bcbf 66e6 919d 10c7 cbbf
00000160: 8698 e1e2 e428 ad3f 3529 b1fa 6423 a8bf
00000170: c25e 77bc f8de b33f 2ee9 3875 78c9 913f
00000180: ee3f 65cc 0b84 98bf c24b 082c 5492 c8bf
00000190: 14de 210e 9c45 c03f 82ed f7af 621f c2bf
000001a0: 240e 6cb6 aa07 b23f e47d fc85 34ca bb3f
000001b0: 5e1f b25a fda5 a2bf 11b5 2037 551f bb3f
000001c0: f5bf b943 188f b53f ef78 cf98 e074 a13f
000001d0: 781a ca2c d666 9c3f 881d 6f5e 9904 c4bf
000001e0: f260 b0ae f54b a2bf 7b09 557b f11b 933f
000001f0: 06a7 b14d e0bf c7bf f0a6 f94f 73a4 b1bf
00000200: b2f7 ac10 9fec b73f ddaa 0732 3440 a13f
00000210: 7dbf 5b56 9ae7 b6bf 1421 e195 367e c4bf
00000220: 6270 ad52 f12a 98bf 4388 e41a 0189 afbf
00000230: a447 fb22 1e29 acbf 77ca e944 6840 c63f
00000240: ef88 142b 3cfe b03f 6066 2304 b118 ccbf
00000250: 352e 2141 a12a aebf 634a dde7 6a8c a63f
00000260: ea5e 8dae db98 b9bf 3947 a7c1 dd65 c9bf
00000270: 53c9 ef1c 6244 b63f b3f5 2a05 0ab7 c9bf
00000280: c2ad 9737 9758 c13f 4627 19f6 0fa9 af3f
00000290: 1363 7178 2693 b33f 5571 63ba d40c a43f
000002a0: 25fd 2a4a 70eb d93f 058d f28e e78a c23f
000002b0: 6017 fc4c 8458 bf3f b1e1 c918 fa7a b03f
000002c0: ba45 b25d 1010 c43f e9ce ca97 bfac ce3f
000002d0: aaee a981 215c a43f d809 804d f4f7 b1bf
000002e0: ed5f a182 2a8c 92bf 3c81 e054 aef7 cc3f
000002f0: 9312 172f 9f87 b63f 6c95 52a8 c827 a5bf
00000300: 405c 217f 9e1b b6bf d6fa 839f 3667 c1bf
00000310: 3646 d1d0 4009 c4bf 3161 23b5 de1b 8abf
00000320: a017 248f 4278 b2bf 8b97 4867 2a71 acbf
00000330: ae63 6500 f0f7 8fbf 38fa 9211 e465 853f
00000340: 884f 424b e28c a73f 00c7 737a 63a7 b7bf
00000350: 1ac2 1647 f41f ce3f 352b 39c0 0e77 a93f
00000360: 0f27 6ead a27f c13f d8fc 9489 a0a6 d2bf
00000370: f5f1 0240 d020 a6bf fe2f 558f 94f5 c73f
00000380: 7f46 0e28 f292 8b3f 7dc9 a159 e60a 9d3f
00000390: 7d22 9191 2d5e 9ebf d1a5 bba7 f593 b0bf
000003a0: 54d0 96fe d184 ab3f 2014 b85c dada b8bf
000003b0: 9b80 f413 9400 c2bf 0cc4 1087 6a02 a53f
000003c0: f1f4 f8a0 2781 bcbf 755b 2251 b521 733f
000003d0: da6d 801a e031 c2bf bc70 b9c9 9150 c0bf
000003e0: 9cc9 760e bb1b bd3f 5ffb a643 84f5 953f
000003f0: ccbd ef08 3ef6 c1bf 23be 9981 f2d2 d0bf
00000400: f116 2a8f 08e0 cc3f 1b81 26e6 6b75 ad3f
00000410: ed55 d162 513b ae3f 9469 358a 6594 b2bf
00000420: cdfc d242 db56 acbf d625 4b00 41dc d1bf
00000430: faf0 8c99 11e6 843f c625 afca 2619 c33f
00000440: 8109 0ba2 5725 c03f 9cd3 07fd 30ff b2bf
00000450: d3bd 4e34 2d5a b6bf f6ae 9229 9ea6 acbf
00000460: 54eb 5fc0 57c1 c53f 0754 febd f335 9e3f
00000470: fa9e 3b72 6af3 ca3f 40e2 46cd 02e3 c1bf
00000480: 860d 95b5 abc5 9dbf 09b3 dd50 a282 c03f
00000490: cd03 da31 49aa c43f 81d9 bb48 c037 a63f
000004a0: 8ba6 b32b 7bb9 513f 238f 48f4 9209 b2bf
000004b0: a94c fc38 4d23 b3bf 81f6 ec20 f7c8 783f
000004c0: abd3 8b49 9ca0 c6bf 1dcc 0b12 c0bc 993f
000004d0: 9d53 1a9e 2e8b b8bf dfba 0a21 714f 98bf
000004e0: a43e bd5d 71f1 ac3f 69e6 0ed0 47c7 c2bf
000004f0: 2bfd d340 1798 9dbf 374d 2e2a 9cd9 c53f
00000500: 03dd a147 aa2f b4bf 6ca7 6871 ddbc ac3f
00000510: 82de 9037 3406 8f3f c70d 0044 596a c1bf
00000520: 2e51 e47e e3fe 9bbf 42af 6f34 875f c6bf
00000530: 24e5 f3e3 f81d 9b3f 11e8 354c 49b1 af3f
00000540: 5a78 852f b70b d0bf 4fed a646 cc2f 9c3f
00000550: 8652 99de 3f43 c13f 8447 8956 e556 a23f
00000560: e464 323b ebaf c23f 7fbb 3f0b 8c69 973f
00000570: ef06 c00c af0b a73f b981 a0e3 cd1f 9dbf
00000580: c67a 35ce 70de bc3f 4eab 7aee ea14 c33f
00000590: dc67 fc55 2174 9abf 877b e613 9cf5 7abf
000005a0: 194a 64a6 962b c5bf 7a8a e101 f14e c03f
000005b0: 7d95 140a d17d a4bf 9e25 815f a5f9 c6bf
000005c0: 653a ae59 4f89 c03f a418 45db e118 b5bf
000005d0: 59c7 09fe e4c1 b23f c487 022c 0b1f b23f
000005e0: 73f7 a09f 4144 babf c85c 5c07 5623 853f
000005f0: 3949 ede7 97bc b8bf 2101 3bf9 d58b 893f
00000600: 376b caae 6266 c5bf a54a 1c03 e946 8ebf
00000610: d8d8 8a2a e656 c63f 4475 782b 58b2 b73f
00000620: 643d bd3c 25a0 a4bf 3b0c 626c a18e a1bf
00000630: e353 de63 45bd adbf a214 061a cbef 913f
00000640: eea2 5401 0a0e a1bf 3dca 2ac5 ad54 ac3f
00000650: d1d3 4805 4ed3 bd3f d970 6512 393b ad3f
00000660: 517c f138 a60f b7bf 0eb3 b467 c7f7 c0bf
00000670: 6ce6 f03f b463 9b3f a37b e108 df04 b83f
00000680: 2e64 a3b7 9b4d c5bf d494 78c1 ae9b b1bf
00000690: e62c d212 e7fb a93f 84ac f969 9c6e aebf
000006a0: 467f 7e46 0914 7d3f d5a5 7756 af22 993f
000006b0: 2bc0 069d df7a 913f d5cc 480f 5dcd b0bf
000006c0: 1240 972e 02b0 a33f 31a0 6d47 492d b6bf
000006d0: b093 1071 19ed bb3f db6d ca60 946a 933f
000006e0: 6794 fe02 07e6 bdbf 1876 9943 1ba0 a23f
000006f0: 0d82 a833 ce26 b8bf 9c8b 11dd 4271 b9bf
00000700: 791b fc2c 2bb4 81bf 0d1f 20cf 3d08 9a3f
00000710: d17e aed9 e327 c0bf d19c c096 f075 7b3f
00000720: 179a 28eb cfd2 bebf 5652 e0a0 745d c2bf
00000730: 3967 b9d2 f581 bdbf 68ac 2071 6fa3 c0bf
00000740: 0a55 1d79 35d7 c3bf c424 3796 1d8b a63f
00000750: 8d65 ee6b ebfb 9ebf 3267 f4ff 7e6f bf3f
00000760: e310 400a 1728 84bf 036a a27e 9001 61bf
00000770: a485 afd9 bbad c53f 8fd4 7190 3a60 9abf
00000780: bbce e964 b97a b43f 66b1 cfb9 d5ad b13f
00000790: 906e 4d9a b7d0 b63f 860c 42a1 a76f 9dbf
000007a0: f7cb 141b 5c12 943f 57d0 74f5 c0af adbf
000007b0: 01cb 2ebd 2256 b73f 994a bb4c e181 6b3f
000007c0: 6bf9 fb34 bcc7 a0bf 5f30 ea79 700e a43f
000007d0: c09a 5e80 cad6 ad3f 1336 51d8 f9bb ad3f
000007e0: a62e b24a a595 a7bf 7a0d 63a2 db95 a5bf
000007f0: c4ac d131 6784 c2bf 39c7 a72b 13e8 aabf
-0.06032621343723758 -0.09121714969116024 0.0028955736013627303 -0.032477378858894124 -0.026802214157951598 -0.01519351777528808 -0.027869509756512215 -0.04028028728627515
0.035602680428561045 0.009519120416204115 0.07270795211106199 0.07558936443368151 -0.20640716237803433 -0.12319550335767554 0.11507097307628474 -0.04443204559249464
-0.1511989527026047 0.003154328006679989 0.08080204351454082 -0.01819537334663475 -0.1205881931686357 0.05953286279420134 0.1543062352334635 -0.09239058704863974
0.09407768614101726 0.023614395525582355 -0.027338921763900847 -0.18791420760074815 -0.21330587908687298 -0.17131838346831366 -0.003194236554160441 -0.12210554272278136
-0.12270700628937069 0.1891035374970601 -0.021419950370480546 0.05927751125566829 0.039586263684428295 -0.06841553416533987 0.01249281090695752 -0.070196434144755
-0.1316351207926548 0.1506475098478989 -0.11198485999759746 -0.21701247876972046 0.05695262212320622 -0.047145038225226456 0.07762102700450682 0.017370111612970245
-0.02394121584921998 -0.19196560049075911 0.12712431612065755 -0.14158280937395423 0.07042948678650213 0.10855415602826884 -0.03642265064360005 0.10594685169117592
0.08421470311600372 0.034094828275316284 0.027736040576679305 -0.15639035330807993 -0.035735776495302476 0.018661282684897067 -0.1855430964818014 -0.06891556456107728
0.09345430523987266 0.033692961795017 -0.08947147949561259 -0.1601017219384252 -0.023601313277467624 -0.06159213498382645 -0.05500120331784267 0.17384055485634395
0.06637931873095558 -0.21950352384628768 -0.05891899032630158 0.04404005127311874 -0.09998867999581376 -0.19842121082052147 0.08698094564878049 -0.2008984112962203
0.135516073364995 0.06183671836022468 0.07646408501149109 0.03916039252519236 0.4049950336738724 0.14486402969223647 0.12244440917501498 0.06437647919836455
0.15674023222940808 0.23964686309556463 0.039765402868366564 -0.07018973247617255 -0.01811281606964592 0.22630862373717686 0.0880069246259814 -0.041319151446525065
-0.08635893443839482 -0.13596232212872533 -0.15653238483587167 -0.012748470213793968 -0.07214752192166296 -0.055550885303360685 -0.015609622013174587 0.010448247705764677
0.04599673432053836 -0.09239789714390767 0.23535016509187373 0.04973646255947132 0.1367076250865513 -0.29142011104336296 -0.043219096959976534 0.1871820163599977
0.013463870856671221 0.028361891956998776 -0.02965613556833312 -0.06475768418353957 0.05374771340157794 -0.09708943141602377 -0.14064265226716519 0.04103405855892825
-0.11134574584953662 0.004670818585643545 -0.14214707654978903 -0.12745878553221768 0.11370438674092614 0.021444384221236287 -0.1403272193560795 -0.26287520080856747
0.22558695784044105 0.05753647980168549 0.059046309769353524 -0.07257685302957945 -0.055350162417647654 -0.2790682318560277 0.010204446314326255 0.1492050637882995
0.12613959705602087 -0.07420641114715781 -0.08731348540344834 -0.05595869309885686 0.16996285336775918 0.029502685996323687 0.2105534608629041 -0.13974032424245486
-0.029074366529369587 0.128986634717329 0.16144671377335698 0.04339409721244448 0.0010818198050465435 -0.0704585882563689 -0.07475741044281627 0.006051030489116039
-0.1767764433967874 0.025134087659307015 -0.09587375030453278 -0.0237405468384918 0.05652956265714451 -0.14670655879108388 -0.02890049298457346 0.17070343074429115
-0.07885231255373885 0.05612842568764517 0.015148551889168308 -0.13605800457308545 -0.02733951055513833 -0.1747902875935044 0.026481522477273547 0.06189946227364385
-0.2507150615764481 0.027526084720858986 0.13486479157531422 0.035819212735659384 0.14599361792060173 0.022863567530233105 0.045011015230569267 -0.028441636102913146
0.11276917490384183 0.14907585758677516 -0.025833626626173486 -0.0065818878923938956 -0.16539271473500675 0.12740910140844958 -0.04002240417529899 -0.1794935909586401
0.12919036749777316 -0.0824109230353281 0.07327109529594845 0.07078618835887968 -0.10260400912463101 0.010321304416306978 -0.09662770664480015 0.01247374693718989
-0.16718705687238763 -0.01478368798010383 0.17452694966568205 0.09256506978313889 -0.040284312881903955 -0.03429130981478364 -0.058084648552870786 0.017516301596988477
-0.0333102347015649 0.05533354789567511 0.11650550488486934 0.05709246015132558 -0.09008253946511614 -0.13256161273729855 0.026747528460168743 0.09382432905975562
-0.16643091646872804 -0.06878177855886075 0.0507499895548678 -0.05943764489787731 0.007099186164765408 0.024546374943303768 0.017070287665490163 -0.0656335985484476
0.03845221346603024 -0.08662851327756084 0.10908659944887122 0.01896125641597544 -0.1167911894140886 0.03637776565731715 -0.0943421245688187 -0.09938447854214733
-0.008644425688101741 0.02542206360524717 -0.12621734742150761 0.006704273033427203 -0.12040423861672199 -0.14347703795705752 -0.11526428599009088 -0.12998765014467328
-0.1550051537875919 0.04403011759456768 -0.030257872068977277 0.12279504536527666 -0.00984209060698799 -0.0020759412919464384 0.16936443452054306 -0.02575770861263443
0.07999762262061953 0.06905875955971438 0.08912227170133691 -0.02874624177685494 0.01960128703394656 -0.057981519663741814 0.09115807646484698 0.0033578300843627004
-0.03277385851650901 0.03917266357629567 0.05827935044299215 0.05807476773825839 -0.04606358086411193 -0.04215895039808522 -0.14466562206812317 -0.0525518408575309

bias_ih_l0 f8 [288]
00000000: ec18 4312 9096 c4bf 68d5 656a 1c0e adbf
00000010: 1a44 b9d0 2ec6 7bbf 968e 6eae 5f73 c0bf
00000020: 999d 1dd8 54ed 933f fdac 6a3d f762 b63f
00000030: af8c 6d91 ed61 8f3f 5b62 919b 617a cabf
00000040: b74e 415e 3a1e a0bf 234c 6f3a 84a1 b53f
00000050: a0dd 5c89 f5b0 c63f d7ef 8df8 bb5e 81bf
00000060: 1564 c7d9 7a8b a0bf 52db 0caa 1e3d c1bf
00000070: f7dc 4048 d5cd 95bf ab50 bf92 ec38 ccbf
00000080: 8874 ceaf a667 c6bf d966 3ce8 5d0e 93bf
00000090: daa5 a003 ef7b b13f 0697 4f28 0790 a83f
000000a0: 02a7 a307 367a d3bf 630d f57b fba1 cfbf
000000b0: 70c2 1905 481e c2bf 5899 e12c 5ef2 803f
000000c0: aa5f f3f1 4fd6 ce3f 03ec ec22 7704 97bf
000000d0: ec91 9a0e 4ac5 d03f 68b5 360f 6775 c13f
000000e0: c810 7a86 9ed3 a03f 4446 ceb8 296f a1bf
000000f0: 411c 8018 52aa ba3f 7bad d2e1 c40c d23f
00000100: ecaf 2b98 3c2c 71bf 4bdd f17b 88f9 333f
00000110: af43 8f76 8e80 cd3f d411 f2d5 c766 c33f
00000120: 4940 50a3 9ad8 76bf 145c 7a7f b409 68bf
00000130: 111c 7b27 a19c 813f b416 99a0 eee9 d03f
00000140: 5e60 c333 54ce 8a3f 2aac 878b ae08 cabf
00000150: c1c1 9eff 1a61 bcbf 62f5 72f9 d96f c63f
00000160: 809e 79f4 458f cfbf cdcb 78be 2ece b4bf
00000170: b3d3 2973 23f3 ad3f 3de5 bcd8 16f0 99bf
00000180: ad72 b76a 4e47 c9bf 76d9 afed 6e84 c0bf
00000190: 778d b60e 5939 babf c801 4c9e 0ecf 9e3f
000001a0: 56d2 ce6d 7839 bcbf 20d3 d5ab 8865 bfbf
000001b0: 23ad ad84 02ec c6bf 88ab 2bd8 f16a adbf
000001c0: 4ea0 23ce a7f9 b63f 3fcd 5ef4 d180 c53f
000001d0: 2134 7973 5b87 d33f 0dd8 d849 5e41 a6bf
000001e0: 2fdc 9223 9760 803f 0280 95ca d15e 95bf
000001f0: 5e80 caa2 75f5 b63f 28d4 32e5 1e36 9c3f
00000200: e4b1 f558 a056 c03f 2a14 be7a 0319 bf3f
00000210: fba0 9923 88d8 ad3f dd4e 587e ec56 c93f
00000220: f409 7d12 92c0 babf 1b52 3856 fd4e ca3f
00000230: 85f3 a766 442f da3f 4d56 ac06 a8b5 b0bf
00000240: f5bf 055b 0ab3 b53f b830 e2cd 434c c23f
00000250: abaa 6d6b 76f0 a4bf 7947 5807 e78a 7d3f
00000260: ac8c e4ef c9bd c23f 5dd4 8d59 d622 c83f
00000270: 9768 7583 49cb b43f 46cb 5b8b 9313 afbf
00000280: 44d7 a83e 8961 a33f f153 348e 0876 a7bf
00000290: 4a08 f6e4 8e50 ca3f 93cb 0c2e e75a c6bf
000002a0: 126c f56d 5e7a d23f 8f93 8c37 9766 c6bf
000002b0: 9b8f ab77 606b be3f 17c3 c5bd fefc c9bf
000002c0: 10f0 24ff 47de c8bf 49fd 03a0 fe67 b03f
000002d0: dd4d dc53 ace4 babf fbe0 23a1 7866 adbf
000002e0: 5deb da5d d127 d63f b4a7 c867 248c b7bf
000002f0: 4936 96db 5b2c a3bf 8f24 ecbd 267a c8bf
00000300: 798f e9e4 5c4e d0bf a9ea a57f 75db c5bf
00000310: baaf e5ce eb53 bcbf c739 3f96 2457 d6bf
00000320: ce60 d8b3 8734 d63f de5c 4d22 731a 873f
00000330: 4885 e6d9 4788 b53f 1256 74db e591 aabf
00000340: cab5 95ee e489 c83f 045a 40ee 2a41 c5bf
00000350: 15de 7d54 c4c7 c33f ac67 378d 226a 85bf
00000360: 9117 c463 ab5d c9bf fb0e 075f 788e c13f
00000370: 03f5 47e2 e54c c83f c262 3afc 87b4 9b3f
00000380: 0900 1950 abc7 a0bf 95e0 eb7d 684a a8bf
00000390: 72d2 5299 8dae b2bf abb9 3799 b825 40bf
000003a0: dfb0 c53a 5e32 c9bf 64b6 24ec 9b20 88bf
000003b0: 070d d51e 716a c63f 9956 84bd ca9d c1bf
000003c0: 2a4c c0ff 8651 b3bf 24ff 764e f4f9 b83f
000003d0: 0007 76f7 02ff b3bf 672d 3cc8 6e00 c73f
000003e0: 103f 5d3b 01f9 9e3f 73e3 5c33 9d40 bcbf
000003f0: 5f58 8162 6458 bbbf 8ecb 8fcf cee4 ac3f
00000400: c055 f8b4 60de bdbf 3817 d32f 78eb d03f
00000410: 1dde 13c0 554f c3bf 8fdc 065c f782 a03f
00000420: 9b0b 1959 e54d 8cbf e700 8f68 fa3d b6bf
00000430: edf2 642a fb97 c63f 520c c3cb 14a3 c23f
00000440: 7d3e 691e 52ea b93f a155 9508 d2b7 c53f
00000450: 09dd d0e8 85bc cabf f4ee cfa4 27b0 ba3f
00000460: 5e4b c28b 3e6e c83f 7ad5 69d5 b30f b73f
00000470: d156 20ea ac65 b43f 532f 09e6 1664 a4bf
00000480: 19a9 7750 3920 a43f 7429 0ccc da92 a9bf
00000490: 567c 42fd a46f c93f 8c21 b198 8bc0 b33f
000004a0: f4da a997 1dfc b93f 23bb 741e 8712 993f
000004b0: 0d87 78df 7c60 a8bf 6f9a b0b3 4130 d0bf
000004c0: 4181 0d2e 4c96 a9bf 862d 6f75 531d c63f
000004d0: 3cd0 5f5b 72f3 bfbf b788 7444 8d19 be3f
000004e0: 86e7 df63 59a2 9cbf d00b 4b30 b12a ae3f
000004f0: 3216 3bff fb14 b73f 15d3 5331 aaad 8a3f
00000500: 81ed 663d 2c08 b8bf 09cc 8f91 5aa8 c13f
00000510: 8c98 17c3 91e3 b83f 25f5 b7e1 66ce aa3f
00000520: 8b53 309d 213c 8d3f f064 6901 1c43 b83f
00000530: 9e53 3043 4603 723f 09a0 74e6 b230 bf3f
00000540: 41f9 f135 f026 c2bf ca42 e38d 1553 abbf
00000550: 40c3 6412 11fb d4bf 7ad1 5265 6cf0 babf
00000560: 6d10 32a7 2243 633f ea9a 8d92 1eeb a33f
00000570: 8259 9f74 8b5a b5bf 5807 e2e7 3b4c afbf
00000580: 818b 2ee0 6fbd b43f b2fd a96c 9abb 903f
00000590: 1fdc 2319 4944 b6bf 63d1 bf10 fbbc a6bf
000005a0: fd70 c46d 1e56 c8bf c6e9 7649 58ec a6bf
000005b0: 1968 cd15 5e57 bb3f bdc8 80cb 6d73 9f3f
000005c0: c45f 0360 f306 82bf ab5d cbc6 57bc 90bf
000005d0: 1a45 c366 4fbd 97bf 5a30 becd 3075 a23f
000005e0: 0b40 968f 80e6 9f3f b9a2 7eda 5dd5 c2bf
000005f0: 2051 1c9a 733e bd3f 11d6 d439 d804 6fbf
00000600: 9a47 bdf7 cf5a c1bf 369e 715d 6ca8 d43f
00000610: a466 5f46 1e00 80bf c1bc ae8c d431 bb3f
00000620: 213e e780 f686 85bf 28cf 8448 e88a b5bf
00000630: 04e3 cb38 b995 babf ad13 6261 5cbb b4bf
00000640: 38c0 fbce 47ea 77bf 7574 e446 5f70 9fbf
00000650: a08a efc8 8606 d4bf 3317 3e67 255a 913f
00000660: 6ed1 c528 d2d6 c0bf 74de dcd7 6477 bbbf
00000670: 4955 97f5 4b62 bebf d8d2 bb4c 5a4d bf3f
00000680: c4ab f3ff 0f28 c4bf 1dc9 27f6 570e c0bf
00000690: ca6e 047a 4ead d03f ee2d ecd7 6166 c83f
000006a0: 7f62 a56d d8f4 c93f 46df f731 5af9 b3bf
000006b0: 753b 6440 3aa2 a53f 558b 595c b47f c8bf
000006c0: fcc0 f035 be25 c0bf 3d43 be80 fac1 c9bf
000006d0: b3dd b64c d0af ccbf e769 a8f0 0ed9 bebf
000006e0: 197c 851c c241 c7bf 744d 21e3 b1bc cabf
000006f0: 97f1 50d8 d58f cf3f 453b 27be 72a5 c33f
00000700: 330f 971f 3f5d dbbf ffb8 bf3f c26b db3f
00000710: f05c da90 20f3 b3bf 0830 c42e f604 d5bf
00000720: f33a 2140 a623 bb3f 34c2 e986 f4e7 a2bf
00000730: e52a 0d28 7c72 813f bfe4 ca65 7d12 b3bf
00000740: 0fec 85d7 421c c6bf 2520 ab20 8e95 cabf
00000750: 9670 d43f 6fe4 c3bf 1092 1318 6b3e bf3f
00000760: a056 5481 b28d d63f d130 4ac9 ae28 c3bf
00000770: a4a2 f489 aaf4 c9bf e8de 8082 35b1 bcbf
00000780: 19fd abca 0621 da3f cb8f ed7f cfec 85bf
00000790: 1006 7150 133c cc3f 610d 2954 872d ca3f
000007a0: e15c 088b 0fcd a63f d675 a19d b759 c0bf
000007b0: b6b0 3fb9 65d0 8a3f 6173 3ce0 118a cd3f
000007c0: 36c2 ced4 b73b d0bf 8ccb 8a1f 46fd b33f
000007d0: 16c3 7a02 94f4 cf3f 2084 83f8 3434 d4bf
000007e0: e915 4086 327c 95bf f53d 91c1 0475 b93f
000007f0: 5cca 4ed5 f76b cb3f fbd9 1dc0 a965 bbbf
-0.16084481136039785 -0.05674828337479704 -0.006780798790331688 -0.12852092759304828 0.019460035029081977 0.0874475979750748 0.015323501587494041 -0.20685978027428828
-0.03148062134337464 0.08449579645757459 0.17727536399045807 -0.008481472513942307 -0.03231414707597239 -0.1346777277301166 -0.021293003592487172 -0.2204871861018821
-0.17503818115520553 -0.018609492587620877 0.06829732740938912 0.0479738461215629 -0.3043341707803934 -0.2471308093318881 -0.1415491127877604 0.008274780029932913
0.2409152919196889 -0.022477971560174847 0.26204158235694197 0.13639534228188244 0.03286452666819312 -0.03405123120240863 0.10416138742594773 0.28202936223052405
-0.004192578026714227 0.00030479032643123256 0.23048573292774452 0.15157411524354691 -0.005577663473573643 -0.002934315238074978 0.008599528329240188 0.2642780845966215
0.013088853673636599 -0.20338994801508764 -0.1108567117760293 0.1752884357464764 -0.24655985295543204 -0.08127109670822037 0.058495624359160024 -0.025329930285100877
-0.1974885960652463 -0.12904154401594398 -0.10243755921560714 0.030086735164333495 -0.11025192910057888 -0.12264303393551446 -0.1790774486392844 -0.057456548345576286
0.08974694044775441 0.16799377853531358 0.30513654972748055 -0.0434674706597634 0.007996731541750261 -0.02086952017759814 0.08968291496648947 0.02755020402829103
0.1276436266301878 0.12147542711871098 0.058292631478993294 0.1979652039450376 -0.10450089408281099 0.20553557119332386 0.4091349604130346 -0.06527185595435832
0.08476319048145327 0.14295241883190157 -0.04089708386785181 0.007212545829604505 0.1464168950416015 0.18856315014605488 0.08122691592635288 -0.06069623066095757
0.03785351648222826 -0.04582239852803827 0.20558344058742 -0.1746491408208298 0.28871880281593676 -0.17500581943854995 0.11882594033846632 -0.2030332972167563
-0.19428348501412573 0.06408683210974177 -0.10505177543046025 -0.05742241828005664 0.34618028798620576 -0.09198215040001295 -0.03744780593397629 -0.1912277629237775
-0.2547828898880123 -0.17075985653703654 -0.1106555347557209 -0.3490687815909976 0.34695618212709867 0.011280917629547135 0.08411072797618602 -0.0518943624867171
0.19170819902085007 -0.16605126031272743 0.15453390241212675 -0.01045634263475733 -0.198171066011295 0.13716034545915776 0.18984674023514722 0.027055859346179607
-0.03277335503344154 -0.047442689296020614 -0.07297596925020303 -0.0004927779540915741 -0.1968496119474201 -0.011780946868920235 0.17512334828834517 -0.13762792829281947
-0.0754627584831701 0.09756400027890472 -0.07810991803674128 0.17970070626357001 0.030246752975755575 -0.11036093238807414 -0.10681750683701939 0.05643316539489894
-0.11667446535314863 0.2643719164883467 -0.150858610904593 0.032249193176022144 -0.013820449620771494 -0.08688321163845424 0.17651309556995134 0.1456018443041978
0.10123170130213484 0.1696722547446088 -0.20887826793634925 0.10425040982948613 0.19086438965004054 0.09008335075653476 0.07967644420599675 -0.03982612188391834
0.03930834872501716 -0.049948537262099274 0.19871961942860378 0.07715675809698136 0.10150322869035816 0.024484740480313804 -0.04761114337840242 -0.25294535205686136
-0.049974804517435086 0.17276995882125962 -0.12480845194642226 0.11757738991994669 -0.027963062973845897 0.058919465203437604 0.0901639459726418 0.013026551847795479
-0.09387470721315162 0.13795024974351147 0.09722243321411578 0.052355971387422685 0.014274847611923899 0.0947740081259274 0.004397654020995482 0.121836835158888
-0.14181330331843792 -0.05336825711277056 -0.3278238944649736 -0.10523107026785353 0.002351348573542514 0.03890319384554693 -0.0834128532145311 -0.06112849431612116
0.08101557944477912 0.016340649492574584 -0.08697945464869904 -0.04441055850466815 -0.1901281391118416 -0.04477191826613906 0.10680187256130615 0.03071376375755429
-0.00880231987723324 -0.016343471058318276 -0.023183098456518093 0.03605034362325972 0.031152733577585006 -0.14713643234906273 0.11423418533769736 -0.003786489788263799
-0.13558387371682273 0.3227797424828823 -0.00781272556553187 0.10622909960396766 -0.010511327561203267 -0.0841508080528085 -0.10384709965354594 -0.08098389985577965
-0.00583866167265517 -0.030702103330544312 -0.31289834616306145 0.01694544260637727 -0.13155581465583616 -0.10729055662238257 -0.11868738885762754 0.12227405904179578
-0.15747261045120642 -0.12543773192698718 0.26057779231790035 0.19062445681662105 0.2027845893269564 -0.07802356452873224 0.042253322944921935 -0.19139723309771264
-0.12615182527361657 -0.20123225485124321 -0.22411540742699074 -0.12049954772411518 -0.18169428246162125 -0.2088835104974397 0.24657700598062313 0.1534865787966401
-0.427566319322284 0.4284520742939008 -0.07792857681703302 -0.32842783515002383 0.10601271691960416 -0.03692592760933558 0.00851914403178484 -0.07450088248414753
-0.17273746036139 -0.207689062072178 -0.15540876976672696 0.12204617822460073 0.35239851598576344 -0.14967903927425266 -0.20277911888230904 -0.11207899509542651
0.4082657794205758 -0.010705586520721419 0.22058335712249333 0.20451442345993612 0.044533239099274764 -0.12773795315562947 0.01309279891571467 0.2307760567572599
-0.25364490301129494 0.07808340330193014 0.24965143319197897 -0.3156864573375646 -0.02098158783339513 0.09944181180730267 0.21423242488306726 -0.10702000561091289

bias_hh_l0 f8 [288]
00000000: 5406 08ae 8e45 a9bf d027 48dd 752b 9dbf
00000010: b3ac 0b47 14cd a2bf 4473 67b8 0b4b c2bf
00000020: 1171 cf3c d482 b93f 53ae f83a daa0 c83f
00000030: 9ea4 2937 3f53 b93f 8fa1 7e6d 34f9 b8bf
00000040: 42c2 b0d5 fc6b aebf 4aef 43d4 070a 813f
00000050: 0017 7a2f 148f ce3f 7563 7aa1 b74c b73f
00000060: 7349 519c 5535 8b3f 3059 bff5 1442 b3bf
00000070: 107e 2ccc a263 903f 0ff9 8d82 f075 c6bf
00000080: 3bc7 7c81 b72e 97bf 1e6b 0760 2efc c03f
00000090: 2f27 08ae dacd a23f 1c25 d697 f7e4 be3f
000000a0: 19e1 b057 10c1 dbbf ac68 fa97 843d cfbf
000000b0: 8453 5ae1 45d4 5ebf cdc7 4d71 d79f 95bf
000000c0: 565a bbd5 16a8 d33f 2865 60c2 d0df b4bf
000000d0: b2f8 6d8c a9fe d03f 9af3 f9c4 b1db bb3f
000000e0: 1cd9 7db3 250a ae3f 4f6c 96e5 3998 8f3f
000000f0: 1c29 a00d 4a6f aa3f d6df 4792 5f6a d13f
00000100: e2ad 6c0b 6d6e 93bf 093f 9fff bd32 8c3f
00000110: 89fa 3211 fa0f c93f db19 ea85 3d5c c03f
00000120: 2ba8 58dd bc98 c6bf 9564 c135 9681 af3f
00000130: 129a 371a 7992 c13f ceb8 dfe1 2029 c23f
00000140: 05c3 4ff5 aede 8a3f 4ba4 3120 0cec bebf
00000150: 1e43 df1e 3c54 d0bf 145e bef1 5a07 953f
00000160: 1f83 8aab 98cd c2bf 1847 7596 2fa9 c6bf
00000170: 65cf 39fc bb7e c73f f790 492f 24ee be3f
00000180: a060 14ae 635d cbbf 81e0 15e2 e0f3 b1bf
00000190: 6417 e736 165b d1bf 9c7a 8513 bb05 b73f
000001a0: 1af3 34b5 91e7 b33f b92e 364b 53ee c4bf
000001b0: e3da 550e 1467 bcbf 85b5 7a07 e214 b6bf
000001c0: 0dd9 1fd8 c28b 58bf 36b6 f8e4 d730 b83f
000001d0: b2d7 e91a 3ec6 d63f 97a0 9649 b22b c23f
000001e0: 7d41 988a ff6e bb3f c067 abd5 326c c23f
000001f0: 413a 20ef 63ee b83f 187a 1711 fd73 33bf
00000200: 74eb e3fe bde7 87bf ae31 5f59 be07 a83f
00000210: 217e 37fb 40d7 a13f 6b70 e590 3f9e c13f
00000220: e51d 6266 95c0 aa3f b355 ce80 abd5 b43f
00000230: 3898 5429 cbe7 d43f bb6f 3d81 c95f b13f
00000240: aaf0 f6e3 c9c4 83bf 3759 4e38 6140 9fbf
00000250: cb1a a4e3 ffc3 893f 130d d793 ee28 c0bf
00000260: db68 07c3 b455 c23f e9e2 934a bcc1 c13f
00000270: 3233 6e1c bdfa b93f b337 ceda 426d 83bf
00000280: 593f f37d 29a6 9f3f fbde 1940 0be5 b63f
00000290: 3e2e dd44 d56b ac3f c16b 69a3 f3a4 c9bf
000002a0: 2c43 de61 66de d13f b4b8 fdb2 9901 bdbf
000002b0: 7e7e 155a e5a4 d03f e48a 0c7e 2b71 89bf
000002c0: 14b2 2b9c f6a1 c4bf 929e 8e1d c85b b13f
000002d0: 089d 4e1b c7fe 96bf dc67 db65 a547 a93f
000002e0: 3bfe 6cfc f6e2 cc3f 4cb5 35f7 8340 c8bf
000002f0: 2482 475c 6594 babf 2a5d df16 8dfa aabf
00000300: b919 ebf9 fe37 b2bf 6697 3b25 be37 93bf
00000310: 0a09 a7ca 11b3 c4bf 2eb6 fd82 cd5b c6bf
00000320: 2d1f 36b6 f284 c03f 9684 ee2e 68fd c23f
00000330: 1924 7a98 31ef ac3f 43ff 521d ad77 90bf
00000340: 071e ae56 f036 c03f 6e61 1783 ecc7 c0bf
00000350: 61d7 51eb e983 b23f ed7f 9d53 d220 ab3f
00000360: 83a6 3eab 6ea5 d3bf c369 9248 5dd1 ca3f
00000370: 42c1 d003 eba0 d03f 8f1d 7ce9 41a8 c33f
00000380: 586d 5b67 8cc5 a03f c3ef e927 9189 afbf
00000390: 5b10 1b8b 3652 92bf faef 4e11 8e44 a83f
000003a0: f17e e330 24dd d3bf 2a85 860e 32c8 a93f
000003b0: 7fcc 1251 f512 ad3f e579 5241 99fd c1bf
000003c0: a0f3 4294 5b4c b4bf b7d9 fddd 23c0 bc3f
000003d0: 00af 2e60 0b06 b5bf b27d 376f 0fe8 b53f
000003e0: 427a 0453 8e06 b93f 7478 4543 7260 aa3f
000003f0: b799 5216 b84f bdbf c48c 65eb 10ed c43f
00000400: 613a d16c 805a cfbf c656 131f 706b d13f
00000410: af09 0601 b06f cabf 48de d3c4 ec0b c43f
00000420: f85f 40ee 49bd b53f 3cf0 b237 85c1 bebf
00000430: 1fb2 b857 c344 d33f 28a2 cd95 675d a83f
00000440: 97a8 bdbb f5eb 9ebf 863a c7e0 a276 b63f
00000450: ee70 1746 d8c1 b2bf 4ac5 8fbc 0112 bc3f
00000460: 13e7 bba8 8d85 b23f e99d 3ae3 fa2a ad3f
00000470: b2ee 717e a2f2 a93f 4d58 dd26 cc4a b23f
00000480: b6b7 ecf6 68b6 b43f 0223 f347 56a9 bbbf
00000490: 9475 e3bc 943c b13f 974a 8c35 8844 903f
000004a0: 4835 d3cb 6e13 9b3f 161f efe4 f0ba b2bf
000004b0: e3af 8330 ad33 b83f 5e0d ad55 1fa3 bebf
000004c0: a290 ec47 5e38 bbbf d011 dc24 d8ba bc3f
000004d0: 5a74 2dc2 6433 8dbf e557 7ecf c737 c13f
000004e0: 4891 0092 b6dd ac3f a59b d2a8 b3e9 c03f
000004f0: d6e9 06f0 4044 c53f 9a93 9400 0eb2 c23f
00000500: d16e 18b8 7c42 c4bf 485b 2d6c ef27 97bf
00000510: 29f2 daa2 a891 983f a7d6 6074 bd16 b83f
00000520: 1970 8319 6a13 a33f 1f89 7197 d925 c43f
00000530: a7cb d522 ce97 b03f cc58 c792 9ea8 c13f
00000540: 68d0 33ec 2a03 c1bf d092 1658 348a a03f
00000550: dab6 a222 457c d2bf 101a 86dd 1ae5 abbf
00000560: db87 5e98 2acf aa3f 0e19 0496 44f2 9fbf
00000570: 7481 f8b5 d72a b3bf 459b d4eb b1cc babf
00000580: 3a37 cf92 349e af3f a61a 1f6a 7f1c 563f
00000590: cd66 e618 363c a6bf d740 4258 aabb a2bf
000005a0: 4fa5 c623 f07b 7f3f 8c95 500c 2861 4ebf
000005b0: e7cf 523f e3d0 973f ad01 4dad 47f9 a4bf
000005c0: 406d 0b4a 952a b33f 2e31 fa3f 58c0 883f
000005d0: 2d0e 8a33 a5e0 293f ee46 f40a 0362 9c3f
000005e0: 2560 5db4 335b cb3f 65d6 e9e8 0e59 8fbf
000005f0: 75b7 0b39 95a4 c03f fc51 c762 5199 a2bf
00000600: 097f 6c7b 7db1 babf 4703 b6ea e2e1 d63f
00000610: 4ad2 c243 072d c53f d325 43d2 cd45 7b3f
00000620: ba38 82c8 0586 ac3f 1950 68df 5d83 c2bf
00000630: e37d f24d 9f23 9d3f a2ef e74a faf3 c3bf
00000640: 1ae8 cf97 6284 ac3f e9ff 7c36 80f8 87bf
00000650: f24f aac4 ae85 d0bf 3a04 e9b3 fd7e a4bf
00000660: 23ab 942a a8d5 afbf 3475 6a95 1cf8 b4bf
00000670: e237 66e3 d876 c6bf 306e ea44 c90c 92bf
00000680: eba3 6a8d 459b a33f 7f8b 705c 3d1c c2bf
00000690: ad10 c523 9ec2 c33f 90b7 e6fd 3c35 c63f
000006a0: 9d61 dfe0 f351 a53f 9fc6 ce63 8218 c4bf
000006b0: e12c 5ebc 8d3b c63f 2529 7b87 c623 a7bf
000006c0: 5dd8 f2e5 a617 ccbf 6752 6858 678c b2bf
000006d0: a862 882e d1ea cbbf 5f37 77b4 1421 c9bf
000006e0: 2a7b c397 ae75 b7bf c588 6c8e a8ea c2bf
000006f0: a2b2 e65f 8ad5 d43f 1f5e 7d96 1b13 b53f
00000700: 7e7d 1ac9 5a32 d6bf 072a adf3 dbe5 d43f
00000710: ccc3 0bf8 d779 d0bf dc65 9164 d440 d6bf
00000720: d5e7 2f46 a9f8 b33f b5dd 4163 5d16 cabf
00000730: 568e 878b 7aa0 943f e818 b3c3 0170 c1bf
00000740: 5ed6 527a de44 c2bf d217 1356 6b71 d5bf
00000750: 4038 16cd cb53 c5bf 6033 87d7 df79 cd3f
00000760: 5cb3 e631 5c05 c73f cfad 15a1 d865 b2bf
00000770: c945 9411 3a45 80bf 5d33 15fd e47c b2bf
00000780: 6781 85d5 8cb9 d33f f09d e7c2 8f67 a5bf
00000790: cf05 7922 f812 d83f aeb8 7dd2 9be5 d23f
000007a0: 2967 ba45 3142 9f3f 6cdd fd43 7af4 d0bf
000007b0: 255f 13ab b470 afbf 3446 dd6d c024 cc3f
000007c0: 4366 4305 0d57 bebf 332d 847b ac98 b1bf
000007d0: 8e2b cfbc 0dff c13f f8a8 9034 c74c d2bf
000007e0: 2425 e42f 1298 b53f 703e aa06 7085 cc3f
000007f0: 699a f80b 065f d63f 4b3e d6c2 d2ef c0bf
-0.04935880541235052 -0.028486100798580882 -0.03672088019615085 -0.14291521553141184 0.0996525429213231 0.19240882758582475 0.09892649742836787 -0.09755256341180128
-0.0594176302769296 0.008319913068127644 0.23874141996582665 0.09101436321578922 0.013285321076328604 -0.07522707938855855 0.016005080901889512 -0.1754742276643317
-0.02263914802387677 0.13269595803179696 0.03672679304516035 0.12068126160570042 -0.4336586815220627 -0.24406487866219118 -0.0018816645073560243 -0.021117559710041967
0.3071343505120344 -0.08154015298386652 0.2655433532126025 0.10882102068894853 0.058671167526812534 0.015427067107159824 0.051630319751057224 0.27211751256208794
-0.018975929090783945 0.01376865803095441 0.1958000740032342 0.12781495131294104 -0.17653618629384601 0.06153554350084637 0.13728250293861827 0.14188014058112802
0.013120047437014568 -0.12078929697021683 -0.2551412869916464 0.020535870556697658 -0.14689930320766906 -0.1770381436022539 0.18355512443269642 0.1208212485740353
-0.21378751754742087 -0.07012753982223964 -0.27118449555961477 0.08993119455906612 0.07775221513743383 -0.16352311298793668 -0.11094785070404671 -0.08625614817238698
-0.0014981653953306002 0.09449529018521549 0.3558497679545055 0.14195850938017848 0.1071624482503974 0.1439269583996161 0.09738754833254239 -0.0002968304480343311
-0.011672481862196916 0.0469340786072253 0.034845381418332495 0.13764185500156442 0.05225054621501694 0.08138534445455185 0.32664755855728655 0.06786784558556651
-0.009652688283374584 -0.0305190268150792 0.012580870756676707 -0.12624914377929794 0.14324054263017313 0.13872483865249954 0.10148221916297187 -0.009485742857375223
0.03090729552496838 0.08943243327109578 0.05551020112633552 -0.2003464267644102 0.27919921452944396 -0.11330566997432606 0.2600644473768411 -0.01242288568898204
-0.16119272828599718 0.06780672761544285 -0.02245627502602779 0.049374741252634385 0.22567641568638117 -0.18946885653296375 -0.103826842335828 -0.0526928034229804
-0.07116693116686336 -0.018767329237469176 -0.16171476740971286 -0.17467659851119904 0.12905725380937252 0.14835836688601906 0.056512403357437964 -0.016081528582389436
0.1266765998118304 -0.13110119248336666 0.07232534403905568 0.052984783846795704 -0.3069721863090324 0.20951429408598984 0.25982165691950254 0.15357231045366546
0.03275717508014492 -0.06159642803410705 -0.0178917429355042 0.0473980327728611 -0.3103723981312064 0.05035549571335658 0.056785265108737264 -0.1405517167049332
-0.079290126511252 0.11230682534901502 -0.0821234807796678 0.08557220902684184 0.09775628592294885 0.051517077171170295 -0.114497666787975 0.16348468297937846
-0.24494939149231512 0.2721824935409639 -0.20653343248347997 0.15661391840670746 0.0849195677441229 -0.12014038667524657 0.30107196394490815 0.04758762077000639
-0.03019699056987032 0.08774774539709015 -0.07327033721179863 0.10964976171068944 0.07235036248667041 0.05696853660384333 0.050679281172930316 0.07145381878703568
0.0809083559840634 -0.10805262810312047 0.06733064281021078 0.015886429088889455 0.026441317739956532 -0.07316499318323752 0.09453852114137322 -0.11967655030917032
-0.10632886177023917 0.11222601795095177 -0.014258181739643817 0.13451478606719927 0.05637903721097587 0.13213201278014455 0.16614543647831564 0.14605879810656291
-0.1582790278342743 -0.022613278367624973 0.023993143978019802 0.0940969857336663 0.03725749551242092 0.157405089327832 0.064816363815949 0.1379583565419068
-0.1329091695148492 0.032304416420890214 -0.2888348425138766 -0.054482306996806895 0.05236180410362553 -0.031197616249323316 -0.0748724765076128 -0.10468589789944101
0.06175388614756945 0.0013495678217495892 -0.04342812589602616 -0.03658802344682648 0.007686555906198335 -0.0009271092936883759 0.023257780780752937 -0.040964355378039975
0.07486851747255674 0.012085618450577398 0.0001974298154615457 0.027717635673133616 0.21372076327202297 -0.015306583865121579 0.13002267156064887 -0.03632597285073655
-0.10427078498150534 0.35753701134676813 0.16543665703433624 0.006658367147062322 0.055710011221081726 -0.14463399323051432 0.028456200726052826 -0.1558831086875872
0.05569751837897759 -0.011704446471071566 -0.2581593437728308 -0.040031364642807835 -0.06217694778236751 -0.08191088340614244 -0.17550192931633918 -0.01762690051201171
0.038294003975643275 -0.14148680699971902 0.15437676188060348 0.1734997024299756 0.041640874099985604 -0.15699796555923215 0.17369243333482756 -0.04519482044050197
-0.219471800117108 -0.07245489033113871 -0.21810354969126888 -0.1963220482998009 -0.09163943486371964 -0.14778620676322 0.32553347936008425 0.0823228113562142
-0.34682340277682744 0.32652949139142645 -0.25743674491155555 -0.34770688839998143 0.07801301921418198 -0.2038075194029553 0.020143427625852382 -0.13623067908901665
-0.14272671673613763 -0.3350475636074154 -0.16661975397113515 0.2302818109878002 0.17985107838230874 -0.0718665498040345 -0.007944539700960445 -0.0722182386281935
0.3082000813647227 -0.041805737058719816 0.3761577927253627 0.2952642016961232 0.03052594173514148 -0.2649217285138181 -0.06140675152135903 0.21987157215566955
-0.11851579073427225 -0.06873586669478442 0.14059612006380146 -0.28593616612728523 0.08435166997164295 0.22282219243469426 0.349549781504186 -0.13231882585067675
