model/model_LSTM.pt (torch, 522967 bytes, 6 tensors)

weight_ih_l0 f8 [288, 150]
000000 ef 35 ac 5a 72 b8 8d bf d1 69 62 67 42 73 bf 3f
       -0.014511960403548378 0.12285246871980539
000010 04 9f a6 bf 4a 35 aa bf 94 ef 93 ca 94 25 c1 3f
       -0.05118783559310994 0.1339593876981523
000020 14 81 48 30 2f e6 5d 3f 44 aa 23 03 62 71 97 3f
       0.0018248997522576959 0.02289345878754491
000030 4c 24 69 21 38 5c 93 3f 6f 89 fe c6 3e 2c bf 3f
       0.01890647605822364 0.12176887853869343
000040 01 8a 53 b1 b6 57 a2 bf c7 38 2c 65 76 cb ad 3f
       -0.03582545199039445 0.05819292054194274
000050 de 74 20 79 40 7a b4 3f c5 1b c8 a5 9e 6f aa 3f
       0.07999041516491753 0.051632840859432906
000060 6c 82 4d 7d fd 2c 9c bf 15 7b 2c b6 39 2b b0 3f
       -0.02751537396705077 0.06315956781007188
000070 a6 8a 3e bb bd 96 c4 3f fc 77 e8 9b 55 5c 8b bf
       0.16085025446689832 -0.01335970766109184
000080 82 d0 fa 57 0d 20 c5 3f ef cc 4a 74 78 e4 81 bf
       0.16504065318952504 -0.008736554192501049
000090 be 07 fd da 8b 5f a0 3f e0 00 b4 c7 ec 73 83 bf
       0.03197896049688563 -0.009498452991920592
0000a0 40 a2 d0 de b3 15 be 3f 60 0a eb 50 ef 52 b7 3f
       0.11751865567988151 0.09110923505344592
0000b0 f3 72 77 3d 3b ca a7 3f 63 50 8a ca 8c a1 b9 3f
       0.04646477818798713 0.10012130684691693
0000c0 63 6c 4a 42 4c fb b8 3f 59 75 ae f7 64 75 a2 bf
       0.09758450144220059 -0.036051898226314
0000d0 52 a4 a7 0d c2 e3 bd 3f b9 41 fe 79 1f a4 c6 3f
       0.11675656159754169 0.17688363510798213
0000e0 6a ba c1 bd 6a f7 c1 3f 9a 69 9d 49 fd d8 a2 bf
       0.1403630663439402 -0.0368117477762155
0000f0 36 4e d1 2f 64 17 a4 3f 1a 55 55 71 40 ac b2 3f
       0.03924096187315877 0.07294085280348775
000100 e2 37 bd 61 0c 07 81 3f 5e b5 db 69 de 9b b9 3f
       0.008314224941980034 0.1000346191828689
000110 6c 5b d5 57 ba 60 c6 3f f1 1c e5 f3 f1 df c3 3f
       0.17482690132848278 0.15527176293310377
000120 d9 ea 2e 1f 12 dd 94 bf 7e 4e c9 83 55 ea b5 3f
       -0.02037456813170988 0.08560690371933252
000130 87 47 00 c4 8a 42 b8 3f 5e 07 1a 8d 55 32 aa 3f
       0.09476535115416428 0.05116526935036235
000140 8c c1 7d 4c e0 17 a9 3f 73 12 91 06 5d 9b bd 3f
       0.04901028569918528 0.11565190706557775
000150 1e 9d dd 38 30 dd be 3f a0 85 74 25 c0 b4 a6 bf
       0.12056256664583428 -0.044347767421878403
000160 d0 05 21 44 7c bf b2 3f 4c 87 e3 55 7b 88 c6 3f
       0.07323433554940739 0.1760400933626961
000170 d1 a3 c7 80 b2 12 a6 bf 9a c2 17 8d ba 21 b1 3f
       -0.04311139890689442 0.06692090935372122
000180 fc 18 48 1e bb ae c3 3f d2 bb 22 d5 d0 15 bc 3f
       0.15376986483187938 0.10970788196094297
000190 fb 7c 70 0e 23 c2 8d bf a5 5e c0 91 c4 58 c5 3f
       -0.014530443075328572 0.16677147976655707
0001a0 37 b2 78 c9 6b 5e c1 3f b8 06 2f 97 97 12 b2 3f
       0.1356940015551957 0.0705961937046834
0001b0 08 0b 5d 87 dc a4 b3 3f 66 f7 dd c2 4d 50 59 3f
       0.07673433594485968 0.0015450248133385912
0001c0 b3 98 ba 1a 0b 87 ab 3f 15 b0 09 b7 b3 c0 c5 3f
       0.05376467419891764 0.1699432986964672
0001d0 dd 8a be 06 31 65 8c bf b1 ed 79 fa 33 21 b1 3f
       -0.013864882486648461 0.06691288819450027
0001e0 1e d4 8d a3 a6 38 a1 3f 62 96 5a 9d 75 b3 b1 3f
       0.03363533731945999 0.06914458362242606
0001f0 72 9f 29 59 2e c9 a4 bf 43 4b d0 f9 f5 2a 96 bf
       -0.0405973895875026 -0.02164825761071688
000200 e5 e7 13 ea d2 8f b6 3f 79 d2 5d 7f f2 ca af 3f
       0.0881320783118152 0.06209523968474157
000210 56 ba 7e ad 9d fb 9d 3f e4 30 eb 02 02 df ab 3f
       0.02928015109471923 0.054435789924896644
000220 4e fe 62 2b f9 d1 c3 3f 6d 9c b6 58 ab 5a bb 3f
       0.1548453771447264 0.106852254065062
000230 90 49 8e 23 0e e2 b1 3f f6 66 4f 55 7c 63 ca 3f
       0.06985557907163398 0.20616106191192046
000240 16 9e d7 f2 b2 1e ad 3f f7 57 7d 14 38 88 b5 3f
       0.05687483991988189 0.08410978794321965
000250 42 65 35 5e 86 35 c2 3f 6b 94 84 c1 1a 8f b0 3f
       0.14225844955471173 0.06468360161359647
000260 8e e1 e6 2e 6f 81 c5 3f 97 23 6c 06 e4 05 bf 3f
       0.16801252164965458 0.12118363529965702
000270 4d ee e6 29 a7 9c bb 3f db 44 5d c6 1c 68 96 3f
       0.10785908482551428 0.021881532294462196
000280 5f 21 38 76 61 be c2 3f 81 22 d4 b6 0b 63 c3 3f
       0.14643495819496885 0.15146013667278527
000290 7c e3 ab 6a 89 84 9b bf 06 d4 95 5b d7 d0 b9 3f
       -0.02687277520724106 0.10084291444748325
0002a0 63 77 12 cb 74 ec 73 3f d3 f2 97 25 01 87 9a bf
       0.004864174102434979 -0.02590562622025312
0002b0 da 8d f6 96 ee 95 bf 3f 14 cb 96 c7 6f a5 8e bf
       0.12338153062460525 -0.014963982847665792
0002c0 cc fa 2e c7 a1 8b a6 bf 86 d0 5c ff 20 18 bd 3f
       -0.044034057201761095 0.11364942774236128
0002d0 70 39 d0 bf f7 71 a0 3f c0 64 4b 86 7f ad 92 bf
       0.03211950508567696 -0.018239967891393816
0002e0 b9 59 10 b3 b1 4b cc 3f cb d2 e0 97 cf 9b c3 3f
       0.22106000178673726 0.1531924716561178
0002f0 71 75 8c 32 9a ef ae 3f f1 d3 ac b4 ad 8c c1 3f
       0.06042177073525579 0.1371056682779961
000300 2d e7 47 1f d8 19 97 3f f5 9a 80 f3 80 0e c5 3f
       0.02255952540324484 0.164505118272437
000310 6c ac 7d 05 fd 61 bc 3f 66 86 1c db 17 5a c3 3f
       0.1108701837926433 0.15118692587661825
000320 7a c4 aa 44 63 79 c7 3f 1b 80 16 fa 72 27 cd 3f
       0.1833919606483823 0.22776639186213363
000330 b0 67 cd 7a c2 3a 9c 3f 37 93 f1 8f 66 7e a3 3f
       0.027567900414716184 0.038073735305067684
000340 a5 f9 ec 57 ff 8a bb 3f d0 26 85 01 79 71 c3 3f
       0.10758968254683639 0.1519004113600233
000350 c5 4c 43 da 1b 78 a7 bf ff 40 a5 4a 60 db cc 3f
       -0.04583823241559907 0.2254448284607022
000360 38 c7 a5 a9 e5 c7 a8 3f 5d bf 5f 9b d8 60 b8 3f
       0.04840009399312212 0.0952277545291031
000370 13 cb d7 a5 75 30 b6 3f 29 af 53 87 7f a1 c0 3f
       0.08667693423175775 0.12992853267439244
000380 0b 6e fe d0 bf ab bc 3f 9f 0e 5b 49 75 2a c7 3f
       0.11199568607701609 0.18098321992703334
000390 dc 82 32 be 35 fc 21 3f af 63 da 1c dd 6b 90 bf
       0.00013721614877672858 -0.01603646744351622
0003a0 d6 4b 9f 6c ba 07 a5 3f f3 a6 a8 69 00 8c b1 3f
       0.04107458663897716 0.06854250506935582
0003b0 c7 9c 77 41 80 d3 b7 3f 6d 94 a9 a9 5e 64 78 bf
       0.09307099912949744 -0.005955095077841849
0003c0 b4 07 ac 82 72 4a c5 3f d4 bb 88 13 46 3f 80 3f
       0.16633445148914705 0.007933185073026573
0003d0 b5 79 3c 3a 16 08 c4 3f 0e 0c ad 88 a0 5e a9 3f
       0.15649679034772893 0.049550072368696005
0003e0 b2 eb 24 88 e2 96 a4 bf de 6f ca 58 f2 44 85 3f
       -0.04021366035382047 0.010385411581687206
0003f0 a3 dc bf 56 43 82 b7 3f ee 25 f5 ca 1e 6e c2 3f
       0.09183140628725765 0.14398560438193847
000400 f9 37 bd 48 3b 64 8f 3f d1 7c e7 93 0b f5 b3 3f
       0.01532789531452393 0.07795784340804636
000410 12 ec 6c f4 d4 48 b2 3f f2 0a 75 e2 f5 2f a2 3f
       0.07142382590693355 0.03552215947504135
000420 ec 27 c1 48 c7 3f a4 bf c1 76 2d 96 af 99 9b 3f
       -0.03954909098736423 0.026953452626335975
000430 be a8 83 2c ab 9d c1 3f bf 33 4b 96 68 c8 ad bf
       0.13762416528272142 -0.058169620844274565
000440 6e 3c eb 52 f5 9d a0 bf 46 1c 87 e6 ca e5 b9 3f
       -0.0324551261634206 0.1011626065074874
000450 c4 9b 58 04 f0 d8 b4 3f ed 90 9f cd e4 53 a1 3f
       0.08143520456415759 0.03384318361330139
000460 b5 ac 2f 20 08 d9 a5 3f fa 51 85 9d e8 7b 91 3f
       0.042671445778830565 0.01707423650198512
000470 b1 a5 e2 d0 58 1b 9d 3f 48 28 17 ec 80 e6 88 3f
       0.028424632787084018 0.012158400730999955
000480 01 0b e9 ad 7f ee c1 3f 68 9c 4b 41 5f 71 85 bf
       0.14009090415682837 -0.010470146351009471
000490 bb ba 22 ff 10 92 c4 3f bc 08 0a 1e 5f 5e ba bf
       0.16070759256168352 -0.10300249560717395
0004a0 83 8b 79 ab b4 45 c2 bf 07 60 c8 23 dd 08 b8 bf
       -0.14275225041191328 -0.09388525127030799
0004b0 5b 09 9b b2 b9 76 c9 3f 33 f5 b7 56 64 cf a5 3f
       0.19893571110703587 0.04259789999557952
0004c0 3b 06 87 dc 50 6d c9 3f fd a0 a5 10 1a 2d c9 3f
       0.1986485554498801 0.19668889820901106
0004d0 4d 31 f4 d0 45 98 9d 3f e3 8a c0 80 3c 76 c9 3f
       0.02890118682721381 0.19892078673100064
0004e0 03 8c 6c 82 ac 64 a4 3f 7a 30 c3 a9 02 de b1 3f
       0.039830580635928946 0.06979385990706702
0004f0 56 d3 86 b7 21 82 bb 3f eb 79 54 13 6e 9a c5 3f
       0.10745440226203348 0.16877532905432643
000500 e3 7a ba 4e a0 2c 82 3f 6d 10 b6 a9 b3 16 c1 3f
       0.008874180224038358 0.13350530420950993
000510 d3 09 c4 71 54 65 9b 3f 55 89 74 0f a5 7f 53 3f
       0.026753730243408057 0.0011901008527464747
000520 e3 bb 77 de 68 21 85 bf 51 01 bc 0a ec 40 89 bf
       -0.010317630089927426 -0.012330860211932889
000530 31 3d 2b 6d aa 20 c7 3f 90 12 16 33 13 3a 43 3f
       0.18068437891495528 0.0005867570636586984
000540 5c 4b f2 e1 c0 52 a7 3f 19 c9 d4 a4 25 53 c2 3f
       0.04555323370109107 0.14316244648359414
000550 ba aa 12 61 e9 df bc 3f b0 24 cf 7c 48 00 bc 3f
       0.11279162044472005 0.10937932059381938
000560 1d d8 38 d8 fe 00 c3 3f 33 6e 8b f0 49 5e 75 3f
       0.14846787984578294 0.005216873957319334
000570 96 67 dd 3c e5 58 c3 3f b9 ab ab 23 21 37 b6 3f
       0.15115037414471705 0.08677870865692129
000580 dd cf bf 74 70 44 a7 3f 5c 94 59 6b c1 7e be 3f
       0.04544402527963574 0.11912163611266763
000590 69 6d 06 f5 da 7f c7 3f ba 20 d8 ed 3b 42 a6 3f
       0.1835893341457038 0.04347407606479821
0005a0 50 07 41 40 18 c7 bd 3f 13 7e 23 14 39 d8 c5 3f
       0.11631919449521644 0.17066110118229058
0005b0 99 de d6 48 ea 6c 36 3f 80 81 be d1 55 9e b9 3f
       0.0003421852096283456 0.1000722539015495
0005c0 f5 cd d7 ff 21 dc aa 3f f9 32 71 c9 ef 62 c0 3f
       0.05246073005755739 0.12801930748027937
0005d0 d5 ad 69 e6 0c 8b a3 3f da 7f 30 3a d3 fc 5b 3f
       0.03817024529129368 0.0017082274214388266
0005e0 2d 23 16 a1 d2 04 61 bf 36 a2 75 31 19 ae c5 3f
       -0.00207749498867251 0.16937556185736619
0005f0 e4 be 26 3c c8 6e 84 bf 02 0e 65 6a 4a 0f a2 3f
       -0.00997692521636346 0.03527290867580392
000600 a2 b7 fd c2 4f 16 a0 bf 85 8d f8 47 43 50 bd 3f
       -0.03142022376310584 0.11450596339323312
000610 d9 be 89 c0 00 55 c2 3f 3c 1f c1 21 74 97 b9 3f
       0.14321908379814977 0.09996724914628613
000620 a8 1b 7f ce 97 da 9d bf 1c 48 8e 1d b9 95 7c bf
       -0.02915417859892569 -0.006978724581943065
000630 5a ad d0 bb 35 ed 70 bf af d3 d7 bc 5f a2 c0 3f
       -0.00413247098644417 0.12995526047566616
000640 be 4c 92 06 cf 64 a0 bf 2d 5c f6 6e b7 e2 b3 3f
       -0.03201910929888062 0.07767816981355287
000650 7e ea ee 2d 3d 1b 96 3f 26 20 93 2d ff 44 a2 3f
       0.021588283470672646 0.03568265372592831
000660 88 2c 69 c5 a9 1b c3 3f 85 62 4d b9 6c ba 81 3f
       0.14928171290589298 0.008656358151413865
000670 3e 9e 13 91 7c 08 c1 3f ce 9c 1a d7 68 b0 b2 3f
       0.13307149013347613 0.07300429584084897
000680 ca ea b1 81 0b d7 9d 3f b6 b9 6d 3e e9 92 bf 3f
       0.02914064387412444 0.12333543562065227
000690 e1 13 3d 4e a9 1f be 3f 72 a1 0b ee df 94 b6 3f
       0.11767061386224455 0.08820914804130611
0006a0 a4 be 08 78 63 93 b1 3f 9d fe c4 d6 4a af ba 3f
       0.06865522079965075 0.10423724883457415
0006b0 69 25 48 a9 d5 d8 bc 3f be c8 56 11 3d 6b c1 3f
       0.11268363364083246 0.13608516070013893
0006c0 42 b8 5b e8 83 93 c5 3f d7 39 0a 45 a6 29 c3 3f
       0.16856430860156207 0.14970854159442012
0006d0 bf 9f 49 56 54 b6 94 3f e2 86 e5 fa 6c 12 b2 3f
       0.020226781622483033 0.07059365392117514
0006e0 6b af 46 7f db 3e b9 3f 92 16 78 c0 1c 91 c3 3f
       0.0986153779728604 0.15286597631363869
0006f0 84 e4 b1 c9 65 7a bf 3f 6c 88 eb 53 e8 4f b8 3f
       0.1229613892954991 0.09496929215268474
000700 9d 5f 9c 28 0d 3e b0 3f 7b 06 71 67 9a be bb 3f
       0.06344682923770369 0.10837712312152263
000710 c0 e1 e3 95 1b 86 c2 3f 8c 16 d5 d1 1a d3 c5 3f
       0.14471764391761432 0.17050490613671732
000720 bc fa af cc 93 02 b8 3f 3d 61 47 cf e7 b3 c1 3f
       0.09378932711841065 0.13830278035198687
000730 3c 5b 5e 1a 6b 76 b3 3f dc 7f 57 db be 7a b7 3f
       0.07602567094577933 0.09171669821762357
000740 b6 92 78 a7 42 f4 bc 3f f2 6f bb 24 39 fc 9a bf
       0.11310211743018325 -0.026352780215219647
000750 68 eb 8d a6 95 6f 90 3f 84 ec 7d 5f e2 96 76 bf
       0.01605066136424274 -0.005514988202658281
000760 89 14 74 b6 f8 9d c2 3f 0e 89 f9 6e fe 0d 7d bf
       0.14544590863093657 -0.007093423729744209
000770 50 4a 03 f0 6b 7f b3 3f a7 be 8b 05 cb 2e c2 3f
       0.07616304979027544 0.14205301066202944
000780 79 59 cb 22 f4 93 bb 3f 7a 25 3e 81 85 b4 7e 3f
       0.10772634362669987 0.007496377471292498
000790 48 72 36 ae 77 46 c1 3f 86 d5 f5 cd 2e 05 c7 3f
       0.13496299749830798 0.1798456674256778
0007a0 8c ca 4e f4 de 9c c8 3f 0a f0 df 9a 90 f4 c5 3f
       0.19228732041445473 0.17152602731937378
0007b0 59 2e 3d 5c 82 fa c5 3f 9f 12 11 45 8a 9f c2 3f
       0.1717074346910177 0.14549377796551696
0007c0 e8 41 97 c9 f8 21 be 3f c1 50 0e 34 ff c4 89 3f
       0.11770586892749402 0.012582772995110127
0007d0 8e aa 0b 48 81 98 c5 3f e3 56 1f 0a 05 59 c1 3f
       0.16871658342218548 0.13552916521319167
0007e0 6f 79 c8 de 8c 5d b9 3f 87 74 20 c8 83 85 66 bf
       0.0990837139038143 -0.0027492116796695196
0007f0 fc a4 7e 11 3d 15 bd 3f 62 ab 70 f5 07 83 c5 3f
       0.11360532452694722 0.1680612514913618

weight_hh_l0 f8 [288, 72]
000000 cf 41 d9 46 6f 34 c2 3f 78 12 90 b5 c9 c6 b1 bf
       0.14222517928511855 -0.0694395130413542
000010 5d 57 ae 43 ef e9 a4 bf a9 93 39 ae c3 c4 c0 3f
       -0.0408472795599397 0.13100477225375798
000020 49 58 54 b7 de dd 8c bf 4b d0 e3 1a 10 27 b9 bf
       -0.014095058412333954 -0.09825230270854594
000030 ef a8 2d 4d ab d2 c0 3f bd 13 14 8f 51 db b4 3f
       0.13142911213373717 0.08147153609395637
000040 fe 12 59 7f 79 29 c6 3f 11 9d ab fe ae 07 b0 bf
       0.17314070432816914 -0.06261724202669351
000050 6f 16 37 1d 7c 3d a1 3f 9d f2 a4 7a 6b bf 79 bf
       0.03367221695547761 -0.006286067810205379
000060 2e e8 c1 60 89 e7 bc 3f 27 61 8d 89 22 21 bb 3f
       0.11290796863787086 0.10597434862336695
000070 11 8c 3d e0 17 7b b2 3f 6c b2 b6 4f 73 26 96 bf
       0.0721907541715583 -0.021631051769576734
000080 37 a9 07 fc 1b 91 b0 3f 24 aa db 0f a0 5e a3 bf
       0.06471419241976127 -0.03783130830364126
000090 fd 9a 71 49 a2 fa aa 3f d1 cc 4c d1 f9 f0 c7 3f
       0.052693435159019565 0.1870414993260057
0000a0 94 fd ea c2 d7 56 bb 3f 86 6c 26 bb d0 77 c9 3f
       0.10679386624086923 0.198968974477655
0000b0 1f 63 8e 02 41 6c a3 bf 0c bf 6d ce f3 46 cb 3f
       -0.03793528705791104 0.21310279445196334
0000c0 ab 2a 27 05 10 aa a5 bf 78 f6 81 45 85 e0 c3 bf
       -0.04231309950735825 -0.15528932470253998
0000d0 43 d7 d1 d6 fb 12 ca 3f cb 86 ad 50 68 42 a7 bf
       0.20370433797114104 -0.0454285238727273
0000e0 72 fa ff f1 8e fa 93 bf 07 66 7a a6 f6 d1 aa bf
       -0.019510491867544784 -0.05238314420894246
0000f0 2d 99 e7 7b da b9 c3 bf c0 a9 1d fc b5 fc a2 bf
       -0.15410929727586034 -0.03708428099237748
000100 2e 1b 9a 4d 40 55 ad 3f fc 94 30 d6 1c f9 b6 bf
       0.057291039917848216 -0.089738657276559
000110 c7 c9 b2 fa c8 86 a5 3f 26 ec 2a 8f 86 e2 c1 3f
       0.04204395351679895 0.13972551336868938
000120 71 cb 75 fc a0 09 c2 3f f4 3b c2 3f ec 9d c1 bf
       0.14091884925036482 -0.13763192284793002
000130 21 f9 e8 2e 86 f3 98 3f 7e 1f 17 19 dc 0a a6 bf
       0.024366470921671216 -0.04305160337713597
000140 de bd f6 20 6d 2e ac 3f 5d 4d ce b9 23 3f 48 3f
       0.05504170443907318 0.0007399486963656599
000150 25 60 84 b0 32 bc b6 3f 13 4d 2e e0 3e 96 7f 3f
       0.08880917367457693 0.0077116447527203645
000160 33 e1 88 b6 e3 03 a8 3f 5a 29 6f 22 31 86 b7 bf
       0.04690467456061 -0.0918913563793117
000170 ff 04 5a 21 2d e0 bc bf 69 91 c2 d7 69 08 b0 3f
       -0.1127956587242984 0.06262837903574837
000180 b4 f1 a1 e9 46 9b c8 bf 73 81 73 58 79 16 b8 3f
       -0.1922386780532982 0.09409292611554125
000190 2c 13 0e 80 99 db ad bf 9d ef 02 b8 9d cd 80 bf
       -0.05831603706523078 -0.008204681566318867
0001a0 38 ae 69 7a 11 a4 6b bf 9c 7b 44 56 6c 86 c1 3f
       -0.0033741322870833 0.13691477024346177
0001b0 c4 c6 0a 09 1c 0b cc 3f f6 3e a3 2b 5d a3 a2 3f
       0.21908903543003622 0.036402618004670304
0001c0 e1 cf e1 04 2b c0 a2 3f 5f 20 7e e2 c8 5b bd 3f
       0.03662237581821138 0.11468177346807938
0001d0 8e 2b b5 e1 1d d7 9d 3f 03 a8 26 1b 49 14 ba 3f
       0.02914091768370102 0.10187203324190368
0001e0 2c f3 9e 12 60 0e b1 3f 23 da 81 37 d9 fb ab 3f
       0.0666255994282891 0.05465582659319448
0001f0 a6 f3 48 c7 af 4b a0 3f 9b 26 10 48 fc 76 c7 3f
       0.031827443196085256 0.18331864851670762
000200 07 01 df 45 2d 50 5d bf 89 64 20 59 08 d9 a2 bf
       -0.001789135181283598 -0.036812077407554496
000210 6b 78 8f 52 ee 69 b5 3f cf 72 6c bb b7 6b ab bf
       0.08364762797961738 -0.053556195858822535
000220 a0 fb 0b 67 65 15 c2 3f 92 91 a0 99 66 73 a0 3f
       0.141277957263779 0.032130438092539695
000230 b0 e9 06 a1 54 99 a7 3f 13 be e7 5c 60 26 c6 bf
       0.04609169450437223 -0.17304615532292242
000240 a1 58 81 34 11 c8 bd 3f 40 67 b9 74 76 37 a8 3f
       0.11633403331629434 0.0472981469617495
000250 b8 83 a2 19 fb 48 c3 3f ff a4 75 71 ca d5 cd 3f
       0.15066469909382163 0.23308687725083385
000260 ab 25 a2 79 2e 2f a9 3f 41 5f 45 da d6 98 b0 3f
       0.04918809160978851 0.0648321421516558
000270 83 da 5d 54 fa ad b7 bf 43 2c 58 8d 69 14 a0 3f
       -0.09249844131213973 0.03140573358913248
000280 d2 0a c0 03 bb 34 d3 bf 12 09 1c d3 07 bf be bf
       -0.3000934158919054 -0.12010239509621481
000290 bf d1 60 d4 0c f7 b8 bf 2d f2 c1 a6 9c 6a b1 bf
       -0.09751968560232792 -0.06803301879148967
0002a0 84 16 a3 15 10 69 c2 3f 31 47 69 fb 1c 5a 89 3f
       0.1438312631273001 0.012378908560240017
0002b0 45 68 33 d0 00 ae 5d bf 6a 97 5f c0 66 32 ad bf
       -0.0018115051214438055 -0.0570251569586578
0002c0 9c bd cb 97 60 b5 c8 3f 69 16 76 87 cf 4a 9a bf
       0.19303519641787836 -0.025676005022907598
0002d0 19 dd 77 bd 3c d7 b9 3f c0 db a2 30 cb 0a b3 bf
       0.10094051004113104 -0.07438344895750415
0002e0 fc d2 68 63 95 83 bc 3f 70 56 04 51 f4 92 c6 3f
       0.11138280560482977 0.1763596911993548
0002f0 2d 62 ee 31 b6 cf c3 bf 00 74 30 51 5e d0 c0 3f
       -0.15477635801359338 0.13135889972991777
000300 15 c8 e5 00 31 2a cf bf f7 8f 7b 3c 3e 96 b6 bf
       -0.24347507995440823 -0.08823002792956901
000310 45 13 2c c1 ac 8c b8 bf 67 ce 73 83 bc 2f 90 bf
       -0.09589652744405182 -0.015807099841323693
000320 1b e7 9d 7c e7 c9 8b bf 4f a1 8a 8a 48 4b b3 bf
       -0.013568695536139644 -0.0753674829708235
000330 ea a8 8b 1d 95 61 b0 3f e7 8a ad ef 31 f4 b9 3f
       0.06398899051024257 0.10138237096320389
000340 f1 28 0f dd 41 cb c3 3f b5 06 60 33 9b b9 a9 3f
       0.15464041990191604 0.050244188329100416
000350 e2 85 89 fa e1 cf 86 3f 32 58 da 9f 18 d3 c4 3f
       0.011138692339218662 0.16269214444463526
000360 64 b4 07 1f c7 84 11 3f e4 b2 54 27 24 ed 6c 3f
       6.682839717316171e-05 0.0035310464978891443
000370 d8 36 90 b5 0d 94 c8 3f 11 bb 69 f3 7f 4b b4 bf
       0.19201823583028133 -0.07927703564358192
000380 b9 4e 22 12 45 0a 71 bf 5d 99 83 3b 41 ae c2 bf
       -0.004160184677079287 -0.14594283491096408
000390 93 8b 76 85 e1 16 6e bf b7 28 27 f4 7d 20 cb bf
       -0.003673019858710666 -0.21192907735377783
0003a0 ef dc 10 9c 56 f0 a8 bf f1 9e 3f 1a d7 bd a0 bf
       -0.04870863585568396 -0.03269836612144939
0003b0 af fc 6e fc f6 21 a4 bf fe e8 78 d9 05 bd b4 3f
       -0.03932163077797079 0.08100925979025317
0003c0 85 a9 46 50 8c 87 9d bf e1 3e 76 21 6b 33 ad 3f
       -0.028837387466106108 0.057032916865066736
0003d0 65 43 bd 73 be 83 b7 3f 5c c6 b5 2e 53 bc 93 3f
       0.09185400319735278 0.019273090101199805
0003e0 54 9f 82 60 17 5a b7 bf be ea cb bd f5 ee ab bf
       -0.09121843439299698 -0.05455749456264901
0003f0 6c e5 b8 83 fb b7 ca 3f df 7f 33 8a db 20 81 bf
       0.20873969966650507 -0.008363452105584144
000400 58 85 03 78 ff c8 a7 3f 21 1c ef da 92 8f b6 3f
       0.04645536746989859 0.08812826008862419
000410 fd 21 6b 83 c8 1b c6 3f 93 4d a9 ed 5d 91 bf 3f
       0.17272287766378716 0.12331187298086936
000420 13 13 01 01 75 e9 c1 3f 29 83 c2 8d 03 da a3 3f
       0.13993704365761825 0.038772688917794014
000430 96 3a 7e d1 a4 c0 a5 bf 50 65 3a c0 4a 63 ae bf
       -0.04248538071907608 -0.059351287808747544
000440 01 70 67 5a d8 45 62 bf 04 31 0d 01 7d b0 4b 3f
       -0.002230570378044306 0.0008450136539095714
000450 a2 24 b3 97 b1 01 ae 3f ff cd 9e ff 55 e4 c9 bf
       0.05860667206577232 -0.2022807596346041
000460 3d c4 49 f5 5d c0 c8 3f e5 76 66 5a b2 57 c1 3f
       0.1933705756851242 0.1354887906463126
000470 3e 75 00 21 fa 93 d3 bf 9b 3c c3 d9 e4 84 c6 bf
       -0.30590680334883646 -0.17593060143415049
000480 35 06 52 a9 05 a2 a2 3f a5 b0 e1 49 93 ab a9 3f
       0.036392380637164136 0.05013714100718517
000490 5e 87 10 12 0d 89 c4 3f 36 98 49 fa 02 37 c5 bf
       0.160432466335858 -0.16574132176464368
0004a0 73 72 96 d1 f2 d0 bf bf af 96 4e d0 b2 ce ab 3f
       -0.12428205124747098 0.05431135933694741
0004b0 2d 1f e0 c3 db 97 bb bf d2 4d 6b 54 3f 07 b4 bf
       -0.1077859261714564 -0.07823558627142482
0004c0 d7 c6 3f 28 79 2f c6 bf 03 91 ab 75 9b 27 c3 3f
       -0.1733237692383713 0.14964621778120354
0004d0 c9 9d ec 31 02 8f c7 3f c8 03 3d 35 bf 7f c2 3f
       0.1840517753382598 0.14452352618721265
0004e0 07 44 13 1f dd a6 b8 bf 4d 83 64 e4 1a ad c4 bf
       -0.0962961388461424 -0.16153274681075871
0004f0 8c 85 aa c2 52 d6 c3 bf 71 fe 2a a9 1d 07 86 bf
       -0.15497812752896 -0.010755759930702187
000500 2e 37 58 9e a7 d5 cc 3f 6d 64 17 2e 91 fa c0 3f
       0.22527022582692652 0.1326467013412044
000510 e4 f4 0d 4a 75 27 cb bf d3 a2 a4 23 35 a5 d0 bf
       -0.21214166751807462 -0.2600834701611749
000520 af 26 cb d7 4b 50 9b bf 6c d3 38 93 fd dc c5 bf
       -0.02667349342917785 -0.17080659569333123
000530 4d e1 ed a5 f4 5e c3 3f 24 ff 0d 93 a1 86 ce bf
       0.15133531667721414 -0.23848361664203666
000540 95 5b fa 5f c6 57 ac bf 13 88 1a 40 af dd d4 3f
       -0.05535716935735661 0.32603055248375873
000550 da f2 40 5d f1 5b c3 3f fc 59 b9 a3 05 cf b2 3f
       0.15124337247279734 0.0734714054791325
000560 eb 6b e1 b0 65 69 cc bf b2 22 d2 a5 d2 48 d2 3f
       -0.22196646820779561 0.28569475358430474
000570 fb 25 1e 18 29 69 a7 bf 45 6d 3c ce 1f 58 b8 3f
       -0.04572418612867676 0.09509466919955852
000580 5f 49 1d bc 3a 61 d6 bf f2 9f 75 19 b6 0c 93 bf
       -0.34968441362902597 -0.018603177360461083
000590 2c a4 75 d8 2c eb 80 3f 21 f3 6c f2 f6 dc 9a 3f
       0.008261061054058848 0.026233538195117426
0005a0 3e ec eb 2e b1 f7 ad bf 73 81 f1 58 84 13 a9 bf
       -0.058530365922671454 -0.048977027757021306
0005b0 25 ae df 18 96 47 9e bf 66 61 95 e2 2f 42 d0 bf
       -0.029569955127881315 -0.2540397370080626
0005c0 73 f3 e0 7c c4 4d bc 3f c6 86 eb 80 15 7b bf 3f
       0.11056163834378001 0.12297186276876024
0005d0 18 17 8b e9 c5 e2 b0 3f 2f 97 0d 48 de 3e c9 3f
       0.06596028281918753 0.19723108785836405
0005e0 4d 0a ae fc 8c a4 ca 3f 64 fb b7 09 96 62 c1 bf
       0.20814668977625886 -0.1358211085752955
0005f0 80 e1 e5 cf ee 41 bd 3f 86 3b 78 98 11 fe 9b bf
       0.1142873055995377 -0.027336382800111213
000600 2f 46 3b be 58 dc c8 bf 2c 6d 73 1e f8 c1 c4 bf
       -0.19422444618844412 -0.1621694706617317
000610 45 21 c4 92 cf 13 7c bf 3b 95 9b 4b 79 17 86 bf
       -0.006854830582831821 -0.010786960239281931
000620 07 8d 52 8c 13 5c a8 3f ca 8f ed 53 c4 f6 93 bf
       0.04757748687668522 -0.01949602854018887
000630 6b b0 64 c3 12 16 c1 bf 12 99 9f 8a ef 72 b1 3f
       -0.1334861234730654 0.06816002973900862
000640 51 57 78 55 b2 61 d4 bf 90 5a ef 2c 0f 06 be 3f
       -0.3184629282635472 0.11727995726628593
000650 e4 9e e3 fd 7a 6b b1 bf 60 c2 12 15 2f 15 be bf
       -0.06804627130952273 -0.11751074089512192
000660 1f 5e cd bb 96 ed c4 bf 87 d3 1c f6 f7 b4 b0 3f
       -0.16350063486127994 0.06526136168106521
000670 01 33 40 48 24 5c a0 3f ce 94 39 f8 b0 ea 9f bf
       0.03195298559157856 -0.03116871371311874
000680 93 8e f3 ff 04 8d ba bf 6f 8b 55 67 5a a7 b8 3f
       -0.10371428726971947 0.096303606250826
000690 74 4a 63 c0 d3 f0 c5 bf 6c 0e 67 16 39 a4 9a 3f
       -0.17141196149767135 0.026017086021751387
0006a0 76 49 21 c6 d4 27 ca bf 5e eb a5 fe aa 58 c7 3f
       -0.20434055017774327 0.18239343103399625
0006b0 a1 03 d2 91 53 8f c9 bf 1f 24 78 4d 34 21 b9 3f
       -0.19968647594580793 0.09816290751781807
0006c0 29 57 55 2e be 9c c6 bf 3a 72 99 0e 43 24 bb bf
       -0.17665841352816727 -0.10602206331663747
0006d0 4f 46 84 7c f9 9e b5 bf 18 77 b2 03 74 7c c4 bf
       -0.08445700921972697 -0.16004800968669808
0006e0 02 11 05 a0 5b d9 bb bf 29 f8 00 42 4d 8c 81 3f
       -0.10878536850674794 0.008568385674262729
0006f0 af ec 0c 57 ac 49 8f 3f a7 d8 39 7f 02 27 b0 bf
       0.015277239233560584 -0.0630952416048297
000700 7c 7f 11 23 e1 3c c3 bf b1 af 16 9d 67 73 c8 3f
       -0.15029539310762263 0.19102187319128697
000710 10 c1 83 2a ab 09 c0 bf 12 4d 86 5b ca 12 c0 bf
       -0.12529506278907165 -0.1255734393022086
000720 1a 49 2d 2b ca ad 9b 3f 78 5d 54 28 e9 3a b2 bf
       0.027030142674740444 -0.07121140703781303
000730 94 3d 41 0e cf cd bd bf 97 27 e1 36 e6 29 a4 bf
       -0.11642164323824594 -0.03938216609874628
000740 a8 59 37 93 26 5c bb bf 2d d4 4b b5 4c c6 aa bf
       -0.10687485784669681 -0.05229415619934517
000750 be 3c 7b 31 3c 92 b1 bf dc 37 2a 3d dc 70 a1 3f
       -0.06863762100259671 0.03406418081895854
000760 9b db db db 28 7a a0 bf 47 f5 f4 38 fc 24 8c bf
       -0.032182003820643255 -0.013742418754754694
000770 bd d6 1e 66 2e e9 c4 3f 99 53 80 91 e4 9a c3 bf
       0.16336612688399113 -0.15316445450357888
000780 e0 d1 2a 09 4f c3 a9 bf 17 52 ad ad ae 3a 82 3f
       -0.050318212384272476 0.008900990176393937
000790 2b 67 c3 f3 b4 78 ae bf b6 10 f1 ae 68 d3 b9 bf
       -0.059514670139561986 -0.10088209410702373
0007a0 bb c6 35 2a 27 06 c0 bf 94 7f f5 08 1f ba c4 3f
       -0.12518777428663505 0.16192996919107527
0007b0 30 79 ee 44 c3 88 be bf ae 0c b8 60 ba 01 a5 bf
       -0.11927433426760525 -0.04102880888606229
0007c0 31 22 87 76 3b aa b3 bf 51 70 ec 4b 02 9d a0 bf
       -0.07681628841158596 -0.03244788338472005
0007d0 4e 06 47 42 0f 14 71 bf 87 ae c4 38 ed e5 c1 3f
       -0.00416952095514629 0.13982930442704264
0007e0 33 98 e4 d7 6c a5 c7 bf d3 4e 14 c6 b5 12 a9 bf
       -0.18473587552688428 -0.04897087138138336
0007f0 bb 41 6e 77 c9 b5 b6 bf 2c 2b 31 32 ec 8f a7 bf
       -0.08871134916103689 -0.046019917609177646

bias_ih_l0 f8 [288]
000000 72 70 87 07 f5 7a b9 bf 27 82 cf 12 83 b6 a4 bf
       -0.09953242715659075 -0.04045495609875998
000010 cc 4c 2f 72 77 8a c9 3f e1 65 41 ca 08 13 c4 3f
       0.19953816485813147 0.15683088184122965
000020 34 64 ef 1f 02 1c a4 bf 55 f8 43 87 c7 f3 b4 3f
       -0.039276186369257365 0.0818447785604531
000030 29 d0 6f c3 ad 02 9e 3f 35 75 ae 93 cb 99 b2 3f
       0.029307093671335025 0.072659228854225
000040 93 08 e5 17 5e 61 d5 3f 19 08 57 a7 57 06 c1 bf
       0.33406784375632376 -0.1330060546006855
000050 2c 17 4a 38 95 df cd bf 19 da 01 f5 c7 ea c0 bf
       -0.23338570831782002 -0.13216495002025466
000060 0d 69 22 8b a4 71 c1 3f 8e 4c a7 2a 38 d5 c1 3f
       0.13628060144112233 0.1393194397229291
000070 76 17 80 cc 5c 74 61 bf 39 cc 7f 92 8a 54 a4 bf
       -0.0021306812741412285 -0.039707498915867175
000080 70 91 60 87 7b f3 c6 3f 65 78 ae 23 af be a2 bf
       0.1793054972669199 -0.03661105452123151
000090 a9 77 d1 9a 54 0b 99 bf 96 04 54 7a 50 ed 9c 3f
       -0.024457284879069317 0.028249032465286726
0000a0 64 0a f5 5c 7d 5b a6 3f 3d ce a7 21 f5 b3 b6 bf
       0.04366676101428338 -0.08868343421618703
0000b0 11 df 2f 04 3d 89 b8 bf e8 38 ed 21 cd ae b0 bf
       -0.09584409095975512 -0.06516725614821761
0000c0 d1 28 10 27 ec c6 79 3f ae 1a 54 6d 65 f1 bd 3f
       0.006293222876602126 0.11696466368821731
0000d0 9b 9d 7a 4a b3 3e 9f bf fc 1f e0 06 b7 5e b8 bf
       -0.030512620373568927 -0.0951952354226932
0000e0 c7 55 a7 bd fd ec b1 bf b7 b7 1f 2e 33 9c c5 3f
       -0.07002244835106018 0.16882934333938035
0000f0 3e 24 01 7e e0 d9 c2 bf 71 0d e7 12 18 3a a7 bf
       -0.14727407600938308 -0.04536509733909611
000100 2f 38 89 93 a5 56 95 3f da fd 6f b9 22 2f b1 3f
       0.020838343744166984 0.06712548281938471
000110 01 b5 0c 78 97 9f b5 bf 0b eb b0 fe 66 0c b2 bf
       -0.08446642571353281 -0.07050174444240669
000120 cc 4e 22 62 6a 94 8d bf ec 0e 0a 97 ed b1 92 bf
       -0.014443236465275254 -0.018256866782862355
000130 94 7b c3 66 57 71 c5 bf c5 a5 14 1f eb 77 c4 3f
       -0.16752140538934823 0.159909620452977
000140 ab e8 a1 72 a7 fb a9 bf a1 6e 74 87 54 bb c7 bf
       -0.05074809336015681 -0.1854043637657599
000150 8d c0 06 92 79 8b c9 bf af e1 50 a9 71 ea b5 3f
       -0.19956893568224068 0.08560858138742476
000160 c7 58 e5 09 35 73 bf 3f b5 c3 21 b4 91 11 c1 bf
       0.12285167209242608 -0.1333486680555588
000170 cb b3 2e 11 1a 33 ba bf 98 d3 d7 83 b8 3f d0 3f
       -0.10234225196354811 0.25388920665073433
000180 f0 4d f6 02 9e b7 c3 bf 45 2c ba 0c 8e d2 b8 3f
       -0.15404105324397177 0.09696281252597412
000190 d7 db c0 dd 46 8d 89 3f 1a 73 3c bb a7 2f 8a 3f
       0.01247649540174038 0.012786207581990495
0001a0 4a 26 a3 57 4e 0e 93 3f e5 b6 75 85 cd 42 b2 bf
       0.018609260653454286 -0.07133183010384021
0001b0 9f fa 1a 94 19 55 d1 bf ad 4f 39 7e 3c bf b0 bf
       -0.27081908667961757 -0.06541803437840939
0001c0 37 1b 10 1f a2 d8 b2 3f 98 55 a8 9b b2 b8 b0 3f
       0.07361806162235217 0.06531826305611899
0001d0 48 ca 13 2b e9 bb c6 3f 5e 44 bc 4f 41 fc a7 3f
       0.17760958293327378 0.04684642885525457
0001e0 69 37 58 92 58 6e c1 bf 7a eb bd cb 44 e3 c5 bf
       -0.1361799921582432 -0.17099819134076794
0001f0 dc 8a a6 1f a8 50 b1 3f 08 64 55 50 e5 88 c7 3f
       0.06763697407454167 0.18386522696053498
000200 98 f1 11 ea 06 92 d0 bf 2b 50 6f 61 f8 10 c3 3f
       -0.25891278131873596 0.14895539052543091
000210 63 09 99 e7 06 13 cd bf 78 67 60 bb d1 0c 46 3f
       -0.22714315708624175 0.000672914894269668
000220 c2 81 ed 63 3c 5e 8a bf 6a de 71 93 e1 43 a7 3f
       -0.01287505321460081 0.04543976712096483
000230 e9 0b 2e 43 00 f2 a5 3f 3b 2a cd a6 d4 65 c7 bf
       0.0428619462973286 -0.18279512543297635
000240 ba a8 84 1b d5 7c 99 bf 5d 92 af 8f 30 ca af bf
       -0.02489026051004182 -0.06208945993401891
000250 3b f6 d5 b8 f3 8c c3 3f 04 2b ea 5e 3c c7 b7 3f
       0.15273901486573202 0.09288384740117911
000260 cc b5 af e0 db f7 b0 bf 24 35 b2 42 5c 70 bd 3f
       -0.06628202662951493 0.11499573353122067
000270 8f 83 07 b9 a7 2a c2 bf 13 79 95 76 1b a8 c6 3f
       -0.14192673239361084 0.17700522699573948
000280 a2 09 e8 1f 4e 5e c5 3f c8 14 10 83 c9 4d d0 3f
       0.16694046552590885 0.25474775122740967
000290 9a 69 05 8c 6c d5 c2 bf 8d ae fa e5 11 62 8b 3f
       -0.147138183946322 0.013370647269162173
0002a0 fc 4b c2 95 84 b5 c2 bf fd a2 34 95 e3 ff c4 3f
       -0.14616448700380136 0.1640591124098804
0002b0 83 36 27 ca b6 ec be bf 14 6a ca c6 85 e5 be bf
       -0.1207994693315531 -0.12068973639762987
0002c0 9b 4f 52 9d 53 a8 bb 3f e6 06 77 6e 4b 96 bd bf
       0.10803721037728879 -0.11557456442735833
0002d0 87 40 40 01 93 cd c2 3f bf fb 79 c1 0a 3f c0 3f
       0.14689862786372407 0.12692388960928544
0002e0 72 44 c7 70 ac 33 98 bf 87 b1 07 ca e5 ea b9 bf
       -0.023634619124838392 -0.10124050314306575
0002f0 b5 15 af e5 c0 98 97 bf 7d 78 62 c4 35 54 98 3f
       -0.02304364587668824 0.023758735762946948
000300 69 e0 b2 05 fa 96 91 bf cd cb 1a 57 a6 fe c9 3f
       -0.017177492711852347 0.20308379414708924
000310 94 0a 0b aa c3 69 b8 3f 18 74 c3 4c ea d2 a9 3f
       0.09536383534854515 0.05043728053144764
000320 63 24 0d 3a 62 e6 a3 bf 4e b6 2c ff b1 59 c1 3f
       -0.03886706312784651 0.13554978332233464
000330 94 0f 8c 74 fa f1 c4 bf 60 9a 9a 01 6d 14 b4 bf
       -0.16363459292199123 -0.0784366730609718
000340 10 43 83 12 ef a3 b2 3f 68 89 1a 23 f8 ff 94 3f
       0.07281393243762246 0.020507695334012338
000350 28 ca 4d 4e 79 13 ae bf bb e4 60 6b 93 1c bb bf
       -0.05874232369287241 -0.10590478297753496
000360 0f e8 08 69 e1 34 8f bf e6 e5 a7 df 48 07 9f bf
       -0.015237580316455305 -0.03030122628294931
000370 d1 fa 74 a3 68 41 a7 3f 6a 11 f7 a6 bc 57 b4 3f
       0.04542090411495326 0.07946375919624918
000380 f6 f2 92 3a d6 31 bb bf 42 3d 80 a4 92 8f 8a bf
       -0.10622919969587116 -0.012969155926866652
000390 f8 1c 2b 55 b9 0d ac 3f 6c 8d d2 44 45 1e 7b 3f
       0.054792205473455924 0.006620665151021537
0003a0 61 39 9f 3d b6 d8 c2 3f e7 61 cd f2 bf 5f a7 bf
       0.14723852166066378 -0.0456523879899498
0003b0 6b 17 63 21 20 e1 a0 bf cc 70 9b 46 22 2d ac bf
       -0.03296757133061486 -0.055031844252626166
0003c0 00 d9 61 10 84 85 9a bf 59 1c b7 3a aa f6 96 3f
       -0.02589994764317627 0.022425327142425597
0003d0 35 fc eb 40 27 a9 9c 3f 77 16 5a bf 7c 5c c4 bf
       0.027989018762124302 -0.15907248824457884
0003e0 81 3b 08 de 99 91 9a bf 0a eb d7 e1 7e 5e b0 3f
       -0.025946048905150846 0.06394188894038791
0003f0 8a a1 19 df 66 ae c7 bf e4 10 a3 05 71 28 a2 3f
       -0.1850098218303738 0.03546479409991024
000400 77 d6 51 49 97 d5 95 3f bf d1 3c 8f 7e 9b a3 3f
       0.021322597360685393 0.038295702920013046
000410 5f 7c 02 1e c7 14 b8 3f e8 b8 13 26 73 3e c7 3f
       0.09406704409274046 0.1815933166430519
000420 fc 4f 45 77 d6 66 c7 3f 29 cd fd 79 95 db b3 3f
       0.18282585929648565 0.07756933430009795
000430 8b a0 dd 2e ff 57 b3 3f 36 db 7b a0 23 72 be 3f
       0.07556147474463352 0.11892912548124177
000440 ee 22 b6 db ba 5e a8 bf d7 a4 07 46 e6 28 b0 bf
       -0.04759773189568316 -0.06312407693589549
000450 8c fa f5 aa 16 15 b1 bf a6 62 64 d9 66 e7 db 3f
       -0.0667280356774233 0.4359986422510168
000460 f5 7c 5c b3 32 5c 75 3f c4 65 26 0a b6 3a c1 3f
       0.0052148800366744645 0.1346042203484058
000470 21 29 8d 61 d9 9c c3 3f 24 c7 7e b5 20 c2 ad bf
       0.15322415602924713 -0.05812170234220407
000480 aa 36 fa 90 f7 7d c0 bf 2e c6 94 7a ab 9a b5 bf
       -0.12884420947050518 -0.08439132445052941
000490 ba f0 16 8b 7e e0 a8 bf 5a 0b fe d2 47 70 30 3f
       -0.04858775565978264 0.00025083306808697736
0004a0 0e 1e 4a 72 f6 c5 bf bf 57 60 74 e0 e4 04 c0 3f
       -0.12411442079803 0.12514935455033324
0004b0 b0 0b 58 09 18 b8 c4 bf df 5b 87 2d 21 69 c1 bf
       -0.16186809974905492 -0.13602080081065446
0004c0 18 dc 6b b9 e9 f4 c7 3f 84 23 d1 ff 94 b3 c0 bf
       0.1871616511704992 -0.13048040858327792
0004d0 92 c6 3e 57 ed 20 ba 3f 77 95 d2 fb 60 46 be 3f
       0.1020649278641719 0.11826139591228989
0004e0 d4 31 45 03 11 d5 a1 bf d3 61 a5 94 16 71 a6 3f
       -0.034828693055348886 0.04383154453779849
0004f0 6b 1e 00 9f f9 b6 cb bf 6c 13 3c fe 38 87 b0 3f
       -0.21652145637220896 0.06456333357716709
000500 9a 9d f7 64 e4 68 b6 3f ff 4e b1 73 e6 e0 b2 3f
       0.08753802742977826 0.07374420475508357
000510 62 52 97 e3 fd 88 c5 bf 93 57 8b 61 10 fe b6 bf
       -0.16824315655562133 -0.08981420880749473
000520 a1 7c 1b 4d d8 21 b4 bf 8e b5 d5 ef c2 bb 86 bf
       -0.07864143259529267 -0.011100314087083143
000530 d5 ac 44 3c 02 55 a1 bf c5 04 d5 73 c6 fc be bf
       -0.033851690155950166 -0.12104454353267886
000540 29 4f 29 a2 72 bb c2 bf 80 42 d0 69 4c 5f c0 3f
       -0.14634545248065337 0.12790827910113833
000550 e9 8e 15 e6 54 32 93 3f a8 92 15 c3 36 98 c0 bf
       0.01874668745348532 -0.1296452000198276
000560 77 45 b3 39 b3 8f c7 bf a9 29 69 03 08 28 b7 3f
       -0.18407287900349065 0.09045457919379508
000570 bb 56 58 90 b0 91 aa bf 0b 3b cd 10 58 12 ad 3f
       -0.05189277421974966 0.056780578661905855
000580 9f 70 09 23 47 0f c2 bf 11 70 c4 c0 52 5b b7 bf
       -0.1410912438467493 -0.09123723226770176
000590 0f 1a f9 26 14 dc a0 3f 24 1f b7 b2 0b a7 90 bf
       0.03292906738038336 -0.01626222875873319
0005a0 97 68 9f 4c 45 28 bf bf eb 06 f7 3b 46 79 82 bf
       -0.12170823212309965 -0.009020374970421815
0005b0 20 54 5d 12 b3 af c2 bf 24 29 01 ea 86 10 87 3f
       -0.14598692318637152 0.011261991516353272
0005c0 9a d8 54 f8 dc 81 b5 3f a4 38 dc 3b 2d 0d 9b 3f
       0.08401280463007979 0.026417452601031358
0005d0 50 b8 c5 5c 32 ca c4 3f e0 3b bd 5d a4 c0 b3 3f
       0.1624205544462165 0.07715823448710024
0005e0 89 a4 4c 88 95 54 b1 3f a8 aa 3b 63 67 9b b6 3f
       0.06769690110799521 0.08830877468759957
0005f0 e5 9d 99 37 5a 66 c1 3f 41 19 4e c8 79 59 80 3f
       0.13593604769560766 0.00798316137821742
000600 7b 0d 98 f1 38 c2 c4 bf 9c 24 4b bd 33 0e 98 bf
       -0.16217719837741726 -0.02349167673927309
000610 d2 68 da 7d f1 69 c0 bf 4b ac ad 3e 81 85 a0 bf
       -0.12823313374685213 -0.03226856126897156
000620 a9 8a 08 75 c5 9c c4 3f 9e 58 9a 46 d9 e2 a1 3f
       0.16103428091544927 0.034933843487281666
000630 f6 94 e5 6c 03 ad a3 bf bd 53 29 60 46 e6 c1 bf
       -0.03842936233812992 -0.1398399323976757
000640 55 13 91 5a 97 53 b6 bf f1 56 11 89 5a 78 75 bf
       -0.08721300088025193 -0.005241731313693641
000650 76 7f 98 5f e6 45 a2 bf 2c 81 82 d4 e3 74 a0 bf
       -0.03568954388560901 -0.032141799632201845
000660 d4 91 a4 95 a4 61 30 bf df 9b d7 1e 0c 1e c0 bf
       -0.0002499605958681515 -0.12591697221725348
000670 27 d5 d5 09 e8 db c1 bf 84 d1 f0 c6 35 11 b0 bf
       -0.13952351074446165 -0.06276260477972612
000680 48 39 9e 5a 23 09 9a bf aa f8 1f cc 86 f1 e8 3e
       -0.02542548409069781 1.1893970057738217e-05
000690 26 f9 09 13 c7 fd a8 bf c6 00 63 1c 6e d4 a3 3f
       -0.04881116969498782 0.03873008820073802
0006a0 dd 15 de 95 9e aa bf bf cc f7 4e 5c a3 70 52 3f
       -0.12369719656825091 0.0011254878347552897
0006b0 62 78 a9 f1 da f8 c7 bf 1a c4 22 15 93 22 b6 3f
       -0.1872819595327569 0.08646506563197001
0006c0 76 4d f1 6e fa 2e b0 3f 66 11 37 14 73 0d 88 bf
       0.06321683128890307 -0.01174440293733232
0006d0 a6 9c 1a 75 79 5c 9d bf c7 aa d7 07 9f 22 b0 bf
       -0.02867307450528913 -0.06302827779260688
0006e0 90 6e 2f 1c dc 03 87 3f ed 7c e2 36 c0 b1 ae bf
       0.011237830743929395 -0.05994988126735188
0006f0 bb f9 e5 ab 92 1f a9 bf 7d a0 b3 43 7e 62 b7 bf
       -0.04906900738113814 -0.09134663727638954
000700 2e ea e5 40 01 3a c5 3f c1 93 7c 70 ef 08 c4 3f
       0.16583266896107446 0.15652268402587136
000710 9f 7c 52 09 65 b0 bb bf b1 51 7f c7 8a fb c6 bf
       -0.10816031911461942 -0.1795514558895213
000720 cb c4 18 d1 e3 45 a6 bf 45 d9 e0 e9 15 39 a5 bf
       -0.04350196769190403 -0.04145115356407073
000730 91 c8 6a 0b 30 dc aa 3f 88 d1 84 86 ac 5d a7 bf
       0.052461148637477646 -0.04563655035090891
000740 98 49 7b 07 ee 25 d0 3f 8a 7c 90 fd 6f 88 8d bf
       0.2523150513708514 -0.014420390058204075
000750 e1 0f ba 07 ba 1e c7 bf 3b 1b 72 b0 f4 5a 92 3f
       -0.1806252038696803 0.017925093907730654
000760 1e 44 65 b3 f4 44 a4 3f c0 e0 62 fe 1b fd af bf
       0.03958859147918069 -0.06247794609356694
000770 1a 56 d7 5a 97 75 a9 3f 28 00 e0 f7 8e a3 a4 3f
       0.049725274886139384 0.04031035209482098
000780 82 97 a3 a0 2f d7 bd bf 65 09 bf 3f f2 7b b6 3f
       -0.11656472846843083 0.08782877022080056
000790 3e 60 35 0c fb 8a b5 3f d2 dc a7 4b d9 af b6 bf
       0.08415192649897649 -0.08862073990882216
0007a0 45 c5 5f a5 e5 3f c4 3f c8 d3 2a 00 15 43 a6 bf
       0.1581999833575002 -0.04348054530183948
0007b0 e3 aa 20 1d a2 5d bd bf f2 7f f5 5f f2 91 aa bf
       -0.11470998011706572 -0.05189473554014502
0007c0 70 7e e7 7e b6 a6 af bf 05 79 73 c6 7f 0a b7 3f
       -0.06181879328846385 0.09000395388600076
0007d0 b1 2c 22 38 c1 69 91 bf 94 7c 99 28 84 fb 9f bf
       -0.017004984904400448 -0.03123289583015472
0007e0 3d 61 dc 49 e5 57 ab bf 63 5e af 7c 8d 23 cc bf
       -0.05340496565458117 -0.2198349818051951
0007f0 c3 f0 d7 26 bd 24 d5 3f 14 d0 6d 84 c5 fa d1 3f
       0.3303673629122949 0.2809308808566595
