model/model_overfit.pt (torch, 55967 bytes, 4 tensors)

fc1.weight f4 [96, 138]
00000000: ded6 333e 0ab2 52bd fc59 2e3d 47fb 0c3e
00000010: 52fc fc3c cc72 453d 751e 0c3e 717a 223d
00000020: 919b 9a3b 6821 243e 426e 3cbc 5073 b43d
00000030: 691f 39bc 028d c33b bd7c 403d a8a0 f43d
00000040: 047c b23d 842f 883d 4b71 133e 06a9 733d
00000050: b494 61bd eb49 073e 3bc9 4a3d 1061 bf3c
00000060: 46ea 4c3d 6407 6c3e 5063 6e3d f4e2 093e
00000070: b05c b0bc 9301 4abd 34c4 093e 7252 a6bd
00000080: 618d fc3c 612b 243d 4471 883c 47b3 a2bd
00000090: fc4c 9c3c 4399 5dbd aeda 343d 68a8 c93d
000000a0: f9e6 383c 3ba6 87bd f1f5 c9bb bc69 01bd
000000b0: 5cb6 9bbd 0d1b ea3d 1f0d efbd 9238 b8bd
000000c0: cec3 983d e366 24be ab5c e9bd c19f 173e
000000d0: 58b1 213c 96f5 e13c 30b9 b53c bb94 053c
000000e0: bfc2 b2bd f640 ba3c 859b db3c 39d7 a4bc
000000f0: 305f 1d3e c90c 02be 54c7 52bd 5c7b 463d
00000100: fdcc 18bd ad70 6abd abf6 d23d 0d37 9b3d
00000110: b005 5f3d 9f34 ba39 852d e7bc 355a ac3d
00000120: 5ded 953d 1f79 8b3c 4108 e13d da27 f63d
00000130: ba3d 8b3d 406a 713d 59d5 d43d a7b4 1a3d
00000140: 1194 b93d 40f7 f53d e49e ee3d ff65 8f3c
00000150: 0735 803d 11e8 9a3d 1567 f63c 7d4c 953c
00000160: 8c15 393d 4e9b a0bc 25d3 e73d 6915 9b3d
00000170: 0b93 05bc 8d41 133e 624b eabc 5a62 4e3d
00000180: 719c a03d 30b9 853d 36e1 98bd fd92 063e
00000190: 8378 e1bd 111f fcbc 8a4e 89bb 5d44 05bd
000001a0: 95b4 943d 20f4 7b3d 1230 dd3c 7ca6 46bd
000001b0: 9fd1 0a3c e248 1e3d 16b6 933d c6a0 f63d
000001c0: 74f3 88bd ebef acbc a45e 103e a1d7 10bd
000001d0: a2d4 84bd b272 1c3d adde ec3c 9269 a1bd
000001e0: f8ef 69bc ffd2 34bd 1b40 69bd ff74 a93c
000001f0: d0ad 2bbd c00e 15bc 6b5e b93c ea8f f73d
00000200: 78c1 27bc bc7b 613c 8c46 9cbd 555a 843c
00000210: 75b2 e03d f9d2 e63c 8e81 aa3d abce be3d
00000220: 365c 053c bace 74bc 49af e93d cf1c 493d
00000230: 1bce 7fbb 5f99 233d 7ee5 b1bd 12ea a03d
00000240: 8d97 953d 457d b0bd ca88 713d 35c7 9d3d
00000250: 12bc d4bc 69af e03c 1cc1 f03d 6894 c4bc
00000260: 15d9 bf3d 63d8 a93c 4922 debb 6655 8e3d
00000270: a624 103d d276 5ebd 5ab4 3f3d 9961 f33d
00000280: 10d7 99bd d4c6 d13d 5957 383a aa4d 633c
00000290: c15e a53d 22c5 303d 2f3b 943b 8c46 e63d
000002a0: 4e77 5a3d f37b 84bd 5113 a23d 3437 b93d
000002b0: 1dc0 883d eab9 b13c d955 e5bb 0dfc 543c
000002c0: b8ba a53d 8cde e43d dafe 20bd 1ca0 d53d
000002d0: 6f66 cfbc 0c7f 093d 9f72 0f3e b037 c03d
000002e0: 728c 6b3d 9815 1b3d 8721 e23d 8168 233e
000002f0: 4924 e33d 8540 043e 0c04 e4bc 0cad cf3d
00000300: ee88 8a3d ff5e 2b3c 0218 a03c c359 f63d
00000310: 05d6 053d 712e 363d aa94 e13c c25b f93d
00000320: 1f05 9a3d 8ac7 653d 8d6b 753c 7c16 8f3d
00000330: 1031 c13d 0edc 013e 5488 f53d c071 adbc
00000340: 6598 0c3d f7e7 7d3c f8c8 003e c0e0 423d
00000350: 9ddc 5e3d 713c 9a3d f04f d43d 155f 913c
00000360: 5e33 893d abfc 0a3e 0af1 043e 4793 48bc
00000370: 839b 173e f839 9f3d 2070 843d d61f d43b
00000380: 278b c23c 22cf 793d 076f e33d 40f2 a43d
00000390: ec66 c03d 5ba1 5c3d c2a3 193d 8ef1 5b3c
000003a0: aceb 35bc e74d 5b3d 32cc 563d bf12 dcbb
000003b0: a82f 8b3d 48b2 85bc fc8f 443d 1d6b ef3d
000003c0: f065 b83d 7129 b03c 2894 273e 670f 35bc
000003d0: 3edd 6f3d af17 d23d 2e36 653c d24c 663c
000003e0: a1be 123d 2c83 a53d d930 a33d fe57 293d
000003f0: cecf 98bc 7fd6 1e3c 2ce3 c13d a7c0 d73d
0.17562434 -0.051439323 0.042566285 0.1376773 0.030882034 0.048205182 0.13683493 0.03966755
0.004718252 0.16028368 -0.011500897 0.088110566 -0.011298993 0.005967737 0.04699396 0.11944705
0.0871506 0.06649688 0.14398687 0.059487365 -0.055073455 0.13211791 0.049508315 0.023361713
0.050028108 0.23049694 0.05820018 0.13465482 -0.021528572 -0.049317908 0.13453752 -0.08121194
0.030829133 0.04008043 0.016655572 -0.07944351 0.019079678 -0.05410124 0.04415386 0.09846574
0.011285537 -0.06623503 -0.0061633517 -0.031594977 -0.07603142 0.11430941 -0.116724245 -0.08995165
0.07459222 -0.16054873 -0.11394628 0.14807035 0.009868942 0.027582925 0.02218303 0.008153136
-0.08728551 0.022736054 0.026807556 -0.020122157 0.15368342 -0.1270019 -0.051459625 0.04845749
-0.037304867 -0.057236362 0.103009544 0.075788595 0.054448783 0.0003551589 -0.028219948 0.08415643
0.07320664 0.017025528 0.109879024 0.1201932 0.06798883 0.05893922 0.10392255 0.03776994
0.090614446 0.1201005 0.116514 0.01750469 0.06260114 0.075637944 0.03007845 0.018224949
0.045186564 -0.019605305 0.113195695 0.07572443 -0.008152734 0.14380474 -0.028600398 0.050386764
0.07842339 0.06529462 -0.074648306 0.13142009 -0.11009314 -0.030776532 -0.004190271 -0.0325359
0.07261006 0.061512113 0.02700046 -0.048498616 0.008472829 0.038643725 0.072124645 0.12042384
-0.0668706 -0.021110496 0.14098603 -0.03536189 -0.06485869 0.03819532 0.028914774 -0.07881464
-0.014278404 -0.044146534 -0.0569459 0.02068567 -0.041913807 -0.009097755 0.02262803 0.12087996
-0.010238998 0.013762411 -0.07630643 0.016156355 0.10971538 0.028176771 0.08325492 0.093167625
0.008139661 -0.014941866 0.11410386 0.04909974 -0.003903276 0.039941188 -0.0868635 0.07857145
0.07304297 -0.08617643 0.058968343 0.07704011 -0.025968585 0.027427392 0.11755583 -0.023996547
0.09367577 0.020733064 -0.0067789895 0.06949882 0.0351912 -0.054312535 0.046802856 0.1188385
-0.07511723 0.102430016 0.0007032059 0.013873497 0.080747135 0.04315675 0.004523657 0.112439245
0.053336434 -0.06468954 0.079138406 0.09043732 0.06677268 0.021695096 -0.006998759 0.012999547
0.080922544 0.1117526 -0.039305545 0.10430929 -0.025317399 0.033568427 0.14008568 0.093856215
0.057506986 0.03786239 0.11041551 0.15957834 0.11090905 0.12915237 -0.027833961 0.10140428
0.067643985 0.010459661 0.019542698 0.120288394 0.032674808 0.044477884 0.027536709 0.121757045
0.07520508 0.0560985 0.014979255 0.069867104 0.09433186 0.126816 0.11988893 -0.021172404
0.034325022 0.015497199 0.12576663 0.04757762 0.054409612 0.075310595 0.10366809 0.017745534
0.06699251 0.13572948 0.12982574 -0.012242145 0.14805417 0.077747285 0.06466699 0.0064735217
0.023747994 0.060988553 0.11105161 0.08054018 0.09394631 0.053864818 0.037509687 0.01342429
-0.011103552 0.05354109 0.05244083 -0.006716102 0.06796199 -0.016320363 0.047988877 0.11690352
0.09003818 0.021504136 0.16365111 -0.0110510355 0.058560602 0.102584235 0.013989968 0.014056401
0.03582633 0.0808166 0.07968301 0.04134368 -0.018653776 0.009694695 0.09467158 0.105347924

fc1.bias f4 [96]
00000000: 19d4 11bd d8e1 c4bd b0c7 f5bd c261 a9bb
00000010: c277 c5bd d22e c7bd 06d1 73bb 1c46 0ebd
00000020: 5833 0fbd 9a8f 413c 2d74 583d 621b 0dbd
00000030: 19da 1fbd efe3 f33c b6de 49bb 222e e3bc
00000040: 445a be3b 3ab6 75bd b4ea 07be d6ce b5bd
00000050: 6eb0 6fbd e874 05bd 3db5 f3bd fdd6 773c
00000060: e740 1ebe bc9d dd3c b011 063e 7553 19bd
00000070: b390 febd d76d 9fbd 60e1 fabd e012 95bd
00000080: 6f59 b0bb 415a aebd 6163 bb3c 9c23 9ebb
00000090: fa90 293c 04e4 adbc 6445 43bd 402c b1bb
000000a0: ddc8 163d f76a a2bd d7ea b3bd 441e 1ebe
000000b0: 91a0 013d b3e6 d3bd d3c5 27bd acba 6dbd
000000c0: adc8 10be 020c 79bd 79b9 ab3d 656d b4bd
000000d0: a9c0 debd 1bc6 f9bd 578e 6f3d 3ec7 7ebd
000000e0: eee4 05be ce56 babc f95d b9bd c109 8a3c
000000f0: 264e b43c 6289 36bd 5018 113d b6f4 fdbd
00000100: 3672 043c 6dc0 063b 61b8 f23c bb8d 01bd
00000110: d10e e4bd 4b34 6ebd 12b8 863a 9978 9bbd
00000120: d305 093d ba11 b1bd 19d5 febc 7c4f f5bc
00000130: 7787 753d 221b d5bd 6477 11bc 82fc 2d3d
00000140: 3db9 1bbd b99d 373b 71b5 00bd 4da5 5fbc
00000150: 2ead 1f3d ca65 8dbc e912 20be 33fd 4c3c
00000160: 6804 eabd 28d4 babd 7ad9 0abd afc3 ed3c
00000170: 3dfa 19be bcea 233d fff5 65bd e22f a63d
-0.035602663 -0.09613389 -0.12000978 -0.0051691243 -0.096419826 -0.09725727 -0.0037203445 -0.03473483
-0.034961075 0.011814022 0.05284517 -0.034449942 -0.039026354 0.029771773 -0.0030802912 -0.027731959
0.0058091003 -0.059988238 -0.13273126 -0.088773414 -0.058517866 -0.032582194 -0.11899803 0.015126941
-0.15454446 0.027052753 0.13092685 -0.037433106 -0.12429943 -0.07784622 -0.12250018 -0.07278991
-0.005381755 -0.08513308 0.022874536 -0.0048260223 0.0103495065 -0.02122689 -0.047673598 -0.0054068863
0.036812652 -0.07930558 -0.087850265 -0.15441233 0.03164727 -0.10346737 -0.040960144 -0.058039352
-0.14139052 -0.060802467 0.083849855 -0.08809928 -0.10876591 -0.12195989 0.058485355 -0.06220173
-0.13075611 -0.02274647 -0.09051127 0.016850354 0.02200992 -0.044564612 0.035423577 -0.124001905
0.008083871 0.0020561472 0.029628934 -0.031629305 -0.111356385 -0.05815534 0.0010278246 -0.075913616
0.03345282 -0.08645959 -0.031107472 -0.029945128 0.059943642 -0.10405566 -0.008878563 0.04247714
-0.038018454 0.0028017594 -0.031423036 -0.013650251 0.038983516 -0.01726045 -0.15632214 0.012511539
-0.11426622 -0.09122497 -0.033898808 0.029023973 -0.15036865 0.040018782 -0.056142803 0.08114602

fc2.weight f4 [3, 96]
00000000: 4bc0 b1bc 603e f53c 821c 0bbc d41b 41bd
00000010: 72b7 f63c bca7 6abd 47d5 e73c 5bd5 993d
00000020: 949a aebd 4aa4 733d 1253 863e 136f bdbc
00000030: 26f7 433c 99f5 893d 6022 003c b83d 293d
00000040: 2c3c bbbd 6e34 603d 3748 12bd 0787 40bd
00000050: 84e4 4e3d 8c46 82bd 02a9 99bd 7c1f 113d
00000060: c921 943d f96e 043f 16d8 13bf db18 c0bc
00000070: 1e62 c23c eb00 00bc 9be7 953b 28f6 5d3d
00000080: 4018 1dbe 8503 f1be b533 883c 29ec 6f3b
00000090: 6892 e5bc b682 173c f2ae c23d 67e4 ac3c
000000a0: aaf6 f2bb 51f5 cebc 9b9c bebc 47af 0bbc
000000b0: b0e3 2abd eaac 08bc b197 d1bd bf99 813d
000000c0: f3e1 583d ae9b 57bd c061 afbe aac0 2a3d
000000d0: 21d4 91bd 2fc0 70bd 60ab 9f3d fa16 0e3e
000000e0: 9619 52bc d5a0 8a3d de70 93bd eb3c 54bb
000000f0: bc6a d4bc d82a 4f3d 9b71 893c d76b 553d
00000100: c863 a03d ea3b 0f3d 09ca 633f 9493 d8ba
00000110: 6444 01bf 58e3 82bd 488f 943d 67ec 983d
00000120: ffea 77bc 2d84 7e3d c3d1 07be 1895 3d3c
00000130: 320a 173f 2d24 65be 6a0e b33c 1b82 38bb
00000140: 8e26 61bb d970 0ebc 7616 543d a3e2 a6bd
00000150: 7012 093f 18a7 c9bd 90ef 81be 22d0 c93d
00000160: efe5 5ebd a6ae 0b3d 9765 ba3d b6ed 2cbd
00000170: 9ced ec3c e23a 89bd 1b7b 8bbd b3c7 68bc
00000180: 0fc5 1bbd 97f5 e9bc 52e4 0dbd 7997 8bbc
00000190: 78f1 41bd b3e5 533c 367e 20bc cc4d 803d
000001a0: d185 243d 4f69 343d 8856 a93d 9726 11bd
000001b0: 48b7 a13c d6e8 623d 6d8b aabd a59b 323c
000001c0: 36c2 9b3d d9cf 8fbc ce1a b33c 5a66 60bc
000001d0: 9eb2 283d 830f 423d bd8d 97bc 5367 da3d
000001e0: 6156 803d 9c1b 09bd ee16 06bf bf60 81bc
000001f0: 85dd f73b a874 843d a089 103d d32d 6ebc
00000200: 894c 103e 2287 463e 09e9 c33c 9329 4dbc
00000210: 3df1 c13d 2838 ae3b 56c4 a63d 8fd1 103d
00000220: a520 933d c910 b03d d4ba f4bd c57b dfbc
00000230: db51 b1bc 8c11 90bd 2ed7 fbbd 90fa 553d
00000240: b095 f3bc f2fe 0f3d 7193 b93c bbf5 82bd
00000250: 3749 903c c18a 9a3d 61c2 8abd 28a1 25bb
00000260: a58a c13a 4c9a 893c 26b6 e83c ce6d 753c
00000270: 16b6 07bd 7eba 0b3d a663 e93c 50e0 6d3c
00000280: be4d c33c 9b78 7b3d ee67 51bd 8ba0 a23a
00000290: ef5d 243e 7227 c33c b2b6 7c3e 1042 683b
000002a0: d189 cfbd 4e5d 433d 5ccb 90bb 8f74 7bbd
000002b0: 363b 4abd 1dce 103f 9e07 943d 21aa 893d
000002c0: a67a ac3c 9a19 0cbb 594a a83d c84b e4bc
000002d0: 1756 c0bd cac1 cc3d a38e bbbc ee00 383d
000002e0: 3d2a 86bd 3a0e acbc 4a80 833c 2498 d7bc
000002f0: 25b4 1c3c 4dba 2dbd d634 bdbd 89bf d53c
00000300: 1180 913d e08e 4dbc a522 763c 03fb 49ba
00000310: a8bd 90bd 187d 423d c182 8b3d dcb3 3bbd
00000320: cc1b 933d 6634 15bd 0308 0bbf 265d 323d
00000330: 0756 41bd cc4f 65bc 4b83 f03d 984d fe3c
00000340: 70a4 b5bd 19a2 92bd 46ed e13d 52ab f2bb
00000350: 54bf 8abb 8de2 bb3d be1d 1bbb a3b4 4d3d
00000360: 8254 f53c 3e36 4dbf dbe6 6a3f 1655 cabb
00000370: 5017 bebc f0ab cd3c e620 89bd 19a8 9d3d
00000380: 43ea 0ebc d6bc 8b3e d16a 043c b51a 663c
00000390: d6a5 4abd cf36 f53c b41d bf3a f425 cbbc
000003a0: 7c9a 2e3d 6d13 283c b24f 7ebc bd36 31bd
000003b0: 3021 01bd 633c 8abd 6ee4 a5bd 22de 12bd
000003c0: 47e9 6d3c 58a1 813d 0bae f53e 45ee b9bd
000003d0: 2b11 00bd adbb 9d3d a14a 3c3d 395e c9bd
000003e0: eecf e43c 2d42 563c 2380 053b 1a3c fa3c
000003f0: 0a84 98bd 529b 13bd 9d68 553b 8a17 2f3d
-0.021698138 0.02993697 -0.0084906835 -0.04714568 0.03011677 -0.05728887 0.02829994 0.075113975
-0.08525577 0.05948285 0.26235253 -0.023124253 0.01196078 0.06736297 0.007820696 0.041318625
-0.09142336 0.0547375 -0.0357134 -0.047003772 0.0505109 -0.06361112 -0.07502939 0.035430416
0.072330065 0.5173183 -0.57751596 -0.023449352 0.023728427 -0.007812719 0.0045747287 0.05418983
-0.15341282 -0.47072998 0.016626218 0.0036609268 -0.028023914 0.0092474725 0.095060244 0.021105004
-0.0074146586 -0.02526346 -0.023268035 -0.008525676 -0.041721046 -0.008342007 -0.10234011 0.06328153
0.052949857 -0.052638702 -0.34254265 0.041687645 -0.071205385 -0.05877703 0.07796359 0.13875952
-0.012823483 0.067689575 -0.07199262 -0.0032384943 -0.025929801 0.05057797 0.016777804 0.052104797
0.07831532 0.034969248 0.88980156 -0.0016523474 -0.5049498 -0.06391019 0.07253891 0.07466965
-0.015131711 0.06213777 -0.13263611 0.011571191 0.5899993 -0.22377081 0.02185746 -0.002815372
-0.0034355256 -0.008693897 0.051779233 -0.08148696 0.5354376 -0.09846324 -0.25378084 0.09854151
-0.0544185 0.034102105 0.09101408 -0.042218886 0.028921895 -0.06700684 -0.0681059 -0.014207768
-0.038029727 -0.02855949 -0.03464157 -0.017040001 -0.047349423 0.0129331825 -0.009795716 0.062648386
0.04016668 0.044045743 0.08268458 -0.035437193 0.019740716 0.05539783 -0.083273746 0.010901366
0.07605402 -0.017555164 0.021863367 -0.0136962775 0.041185968 0.047378074 -0.018500203 0.10664239
0.062664755 -0.033473596 -0.5237874 -0.015793202 0.007564249 0.06467563 0.0352875 -0.0145372925
0.14091696 0.19387487 0.02391483 -0.012522119 0.09469841 0.005316753 0.08142917 0.0353561
0.07183961 0.085969515 -0.11949697 -0.027280698 -0.021645477 -0.07034597 -0.12296902 0.05224091
-0.029734462 0.035155244 0.022653313 -0.063945256 0.017613037 0.075459965 -0.06775356 -0.0025273059
0.0014766051 0.016797207 0.028407168 0.014979793 -0.033132635 0.0341134 0.028489899 0.014518812
0.023840781 0.061394315 -0.051124506 0.0012407465 0.16051458 0.02382252 0.24679068 0.0035439767
-0.10133708 0.047696404 -0.0044187736 -0.061390456 -0.049372874 0.56564504 0.07228015 0.06721903
0.021054577 -0.0021377564 0.08217306 -0.027868167 -0.0939142 0.099979 -0.022895163 0.04492276
-0.06551025 -0.021002878 0.016052384 -0.026317663 0.009564434 -0.042414 -0.09238593 0.026092308
0.07104505 -0.012546271 0.015022908 -0.0007704945 -0.07067424 0.04748258 0.06812049 -0.045825824
0.07183036 -0.036426924 -0.543091 0.043545865 -0.047201183 -0.013996076 0.11743792 0.031042859
-0.088692546 -0.07159824 0.110315844 -0.007405677 -0.004234234 0.091740705 -0.002366885 0.050221097
0.029947523 -0.8016089 0.9175851 -0.006174694 -0.023204476 0.0251064 -0.06695728 0.07698078
-0.0087228445 0.27292508 0.008082108 0.014044453 -0.04947456 0.029933361 0.0014580996 -0.02479837
0.042627797 0.010258538 -0.0155219305 -0.043265093 -0.03152579 -0.06749799 -0.0810021 -0.035856374
0.01452095 0.06329602 0.47984347 -0.090786494 -0.031266373 0.07701812 0.04596961 -0.09832425
0.02793118 0.013077301 0.0020370565 0.030546237 -0.074470595 -0.036036797 0.0032563575 0.042747058

fc2.bias f4 [3]
00000000: e16c 55bd baea ff3d 8e09 bfbd
-0.05210579 0.124959424 -0.09327994
