model/onnx_model.onnx (onnx, 97926 bytes, 4 tensors)

fc1.bias f4 [96]
000000 f2 15 dc be 64 3c 4b be cf f8 66 be 72 be 0f bf
       -0.42985493 -0.19847256 -0.2255585 -0.5614997
000010 4e 9c b7 bd 40 c2 81 be 58 22 b4 be da 32 11 3f
       -0.0896536 -0.25343513 -0.35182452 0.5671822
000020 57 98 60 be e2 cd b4 be a8 8f 18 be d2 b5 99 be
       -0.21933113 -0.35313326 -0.1489855 -0.3002153
000030 d4 09 0a bd 3d a7 42 bf 86 bd 71 be c0 79 53 be
       -0.03370078 -0.76036435 -0.23607454 -0.20651913
000040 7c 24 0b bf 1f 6b 9d be 66 7a ce be c2 61 99 be
       -0.54352546 -0.3074579 -0.40327758 -0.29957396
000050 43 1b 96 be 40 7f 1f be ae 94 76 be 01 5a fe bd
       -0.29317674 -0.15575886 -0.24080154 -0.12419511
000060 85 73 c6 be d6 fd 6f 3f e4 d1 1e bf d4 f1 a1 bf
       -0.3876001 0.937467 -0.6203902 -1.2651925
000070 d7 4d f3 bd 6e 11 de be 22 7d b6 bd b3 c5 eb bd
       -0.11880081 -0.43372673 -0.08910586 -0.115123175
000080 c3 9c e3 be 8f a5 21 bd 62 63 15 bf 1c 8e f8 be
       -0.44455537 -0.03946453 -0.5835477 -0.4854592
000090 dc d0 e9 be 3f 04 a2 be d8 d1 08 be 1e 29 bc be
       -0.4566716 -0.31643865 -0.13361299 -0.3675012
0000a0 b7 d9 15 bf 67 03 09 bf 16 27 83 bf e3 19 d4 3d
       -0.5853533 -0.53520817 -1.0246303 0.103565
0000b0 19 69 a0 be 3e 74 7f be a9 e9 a1 be 8c 35 4d be
       -0.31330183 -0.24946687 -0.3162358 -0.20039958
0000c0 0b d0 d2 be ca ba 56 bf 67 6e d3 be 16 77 4b be
       -0.4117435 -0.8387877 -0.41295168 -0.19869646
0000d0 31 f7 4b be 3f 45 11 bf 83 ff bd bd e6 14 b2 bf
       -0.19918515 -0.56746286 -0.092772506 -1.3912628
0000e0 18 fc cd bd 7d a0 df be 75 b1 8a be 82 9f bb 40
       -0.10057849 -0.4367713 -0.27088514 5.863221
0000f0 8d c6 ec bd 28 40 42 be 58 de 3c bf 87 a4 86 be
       -0.11561308 -0.18969786 -0.7377677 -0.262974
000100 9e 8b 01 bf 9c 3e c9 be fe c1 a1 3f 4b e8 9c be
       -0.50603664 -0.3930558 1.2637327 -0.30645975
000110 71 7d fd bd a9 16 36 be 10 02 26 be 62 38 12 c0
       -0.12377442 -0.17782082 -0.16211724 -2.2846913
000120 fc f3 f0 be 14 26 1a bf cd a3 b6 be ef a4 36 be
       -0.47061145 -0.6021435 -0.35671845 -0.17836355
000130 0c c9 1d bf c3 9c 6b bf 90 bf 1b bf 23 4e a1 bf
       -0.616349 -0.92036074 -0.60839176 -1.260197
000140 5c 9f e5 be 2a 57 3d bf 4b 72 2b be 35 c9 e7 be
       -0.44848144 -0.73961127 -0.16742818 -0.45270696
000150 a3 a9 ed be 4f a8 2c 40 04 2b 21 be 6d 12 d3 be
       -0.46418485 2.6977727 -0.15739065 -0.41224995
000160 59 b7 9c be 90 c1 13 be 05 63 f6 bd 26 10 26 bf
       -0.30608633 -0.14429307 -0.12030605 -0.6486839
000170 12 2c 17 bf 00 44 45 be 1a 5e 4a be 17 d5 0e bd
       -0.5905162 -0.19264221 -0.1976246 -0.034871187

fc2.bias f4 [63]
000000 ca 94 f8 40 88 69 5c c1 1a d3 b9 40 4c 34 93 c0
       7.7681627 -13.775764 5.807019 -4.600134
000010 3f 34 6d c0 f6 21 13 c1 e2 4a ed 40 1a 7b f7 3f
       -3.7063138 -9.195791 7.415391 1.9334443
000020 9d ba 27 c1 95 6f 15 41 16 ba f7 40 f4 15 41 41
       -10.48306 9.339742 7.7414656 12.06786
000030 94 02 2b 41 89 d3 34 40 49 61 88 40 34 25 03 c1
       10.688129 2.825411 4.2618756 -8.196583
000040 ca 97 19 41 e7 f0 38 3f 03 e3 9e bf b5 91 89 c0
       9.599558 0.7224259 -1.2413028 -4.2990365
000050 fa c9 37 c1 9a bf 35 40 ae 7d e6 bf 65 d8 73 c0
       -11.486811 2.8398194 -1.8007104 -3.8100827
000060 9c a6 60 40 8e 8b 47 bf 23 ed ee 40 2b 73 c0 40
       3.510169 -0.7794732 7.4664474 6.0140586
000070 15 13 61 c0 35 b1 ca 40 13 35 8b 40 b7 71 16 41
       -3.5167897 6.3341317 4.350229 9.402762
000080 95 48 0b 41 d6 54 4e c0 2b 24 51 c1 45 d4 04 c0
       8.70522 -3.223928 -13.07133 -2.075456
000090 c1 0e f5 bf 16 48 3e c1 b5 f9 d3 3f bc 95 c0 bf
       -1.9145128 -11.892599 1.656058 -1.5045695
0000a0 ed ef 42 3f 98 ca 41 bc 17 ab 5f c1 2f 30 ba c0
       0.7614735 -0.011828087 -13.97927 -5.818382
0000b0 38 41 d1 3f d0 5e bb c0 17 cf f3 40 a0 bd 9d 40
       1.6348028 -5.855324 7.6190295 4.9293976
0000c0 c7 6b e9 be be 11 d1 c0 b4 96 29 c1 13 be a8 3f
       -0.4559004 -6.533416 -10.599293 1.3183006
0000d0 68 a5 13 bf a0 67 20 bf 8d 2d 16 c1 74 2b 07 40
       -0.57674265 -0.6265812 -9.386121 2.1120272
0000e0 35 25 17 bf 48 31 08 c1 c1 d8 3c c1 4d ad 95 c1
       -0.5904115 -8.512032 -11.802918 -18.70962
0000f0 72 fa c3 c0 68 57 ef c0 d0 c6 04 c1
       -6.124322 -7.4794197 -8.298538

onnx::MatMul_12 f4 [150, 96]
000000 36 11 6e 3f fa bf 63 3d ef a1 0c 3e cb 3f 42 3e
       0.9299501 0.055603005 0.13733648 0.18969648
000010 04 7f 05 be 4e 56 ab 3f bd 68 5f 3d 8b fb 33 bf
       -0.13036734 1.3385713 0.054543246 -0.703057
000020 8b 34 6b 3f fb 43 38 3f fa d2 d4 3d 16 ee e1 3d
       0.9187705 0.7197873 0.10391803 0.110317394
000030 7a a8 10 3d 07 9f 82 3e 43 82 7d 3f 81 8d aa 3d
       0.03531692 0.25511953 0.9902689 0.08327771
000040 7d 3b de 3d 0c 66 bb 3d db 4f 01 3e b3 72 90 3d
       0.1085119 0.09150323 0.12628119 0.07053127
000050 19 9d b3 3c 9d 8b 4f 3d 9c 0a 9c bd fb 9e 6f 3d
       0.021925496 0.050670255 -0.07619211 0.058501225
000060 ef b1 f7 be 19 32 98 3e 96 02 89 3d e3 d6 96 3e
       -0.4837794 0.2972572 0.06689946 0.2946082
000070 d9 98 30 be d3 c5 d7 3d be 62 59 3d 2b cf b8 bd
       -0.17245807 0.10535779 0.053072684 -0.09023889
000080 a3 40 34 3e 53 8e 07 3e 0b cd 95 bd 82 4a 8c 3f
       0.17602782 0.13237886 -0.073144995 1.0960238
000090 aa 3e 7f 3e 76 db e4 3d c2 39 a6 3b c1 4c cf 3d
       0.24926248 0.11174671 0.0050728032 0.101220615
0000a0 97 9f 33 be cc b3 c9 3e b3 7b e1 3e c7 51 c4 be
       -0.17541347 0.39394987 0.44039688 -0.3834364
0000b0 5a b9 a1 3e 80 30 72 3f da 91 c7 3d a8 d8 de bc
       0.31586725 0.94605255 0.09744616 -0.02720292
0000c0 5f 97 05 3e 7d cf d0 3e 64 3a fb 40 b5 04 81 3d
       0.13046025 0.407833 7.850878 0.06299726
0000d0 30 71 bc 3f b7 a8 16 3e 2d 28 eb 3c 46 e4 af 3e
       1.4722042 0.14712797 0.02870568 0.34353846
0000e0 b9 46 db 3c da dc 39 3e bd 4c 3d bd 77 33 22 40
       0.026767122 0.18150654 -0.04621576 2.5343912
0000f0 29 14 fe 3d de 31 44 3c c7 2e f2 3e 30 94 81 3d
       0.12406189 0.01197478 0.47301313 0.06327093
000100 06 b8 af 3f 69 e3 52 3e 7e ad 52 3f 29 62 17 3e
       1.3728034 0.20594563 0.8229598 0.14783539
000110 17 40 83 3c a1 5d 28 3e 31 29 95 bd 20 81 f9 bf
       0.016021771 0.16441967 -0.07283247 -1.9492531
000120 a8 e9 8e 3f 73 95 57 bd 1b 37 38 3e 3b ef f1 bc
       1.1165056 -0.05263276 0.17989771 -0.02953302
000130 c6 b2 8e 3f 9c ad 1d 40 28 ce 2e 3e 38 64 5e 3d
       1.1148307 2.4637213 0.1707083 0.054294795
000140 6b f1 a7 3d 2b d7 8e 3d 1e d6 de 3c 9b 30 83 3f
       0.08200344 0.06974634 0.027201708 1.0249208
000150 58 93 71 3f d7 87 7d 3f 48 82 38 3d 85 da 77 3e
       0.94365454 0.990354 0.04504612 0.24204452
000160 c4 98 c2 bd 45 91 1e bd 14 da cc 3d df 05 54 3f
       -0.09501794 -0.03871276 0.100025326 0.8282146
000170 56 be b4 3e 1f 7e b0 3b 80 c6 cc 3c 9d 80 dc bc
       0.35301465 0.0053861286 0.024996996 -0.026916796
000180 81 3c 38 3e 40 aa 30 3d 5c af 92 3b 2e 33 2f bd
       0.1799183 0.043131113 0.004476471 -0.042773418
000190 ee e3 07 3f fb 34 2b be c6 95 3d 3d 0f b5 2a 3f
       0.5308217 -0.16719429 0.046285413 0.66682523
0001a0 72 3e fe 3d 60 ba 35 3d 76 fe 22 bd bc 6d 0f bb
       0.12414254 0.044367194 -0.039793454 -0.0021885475
0001b0 f3 dc 81 3c 10 90 5a bd 02 bc 79 3d 89 e6 73 3d
       0.015852427 -0.053360045 0.060970314 0.059546027
0001c0 94 0e 85 3d 26 0c a4 bb 0a 52 b1 bc b7 15 20 3d
       0.06496921 -0.005006331 -0.021645565 0.03908321
0001d0 56 14 91 3d 8c 8f 6a bd 3b 29 80 bb ca ca ef bc
       0.07083957 -0.057265803 -0.003911165 -0.029271502
0001e0 ae 48 92 be 1f 5c 9b bf 58 f6 ca 3d 99 02 7b bd
       -0.28571075 -1.2137488 0.099102676 -0.061281774
0001f0 99 10 c0 3e a9 a5 b3 bd fc 9e a8 bc 6d 4f 3e 3d
       0.37512663 -0.087718315 -0.020583622 0.046462465
000200 4c a1 9a 3d 9d 7d 3a bd fd 86 12 3d f5 65 66 be
       0.07550296 -0.04552995 0.035773266 -0.22499831
000210 62 66 19 3e 1c 2b bb bd 85 c3 8e bd 66 80 0f 3d
       0.14980462 -0.09139082 -0.06970886 0.03503456
000220 d7 c7 f4 be 83 60 77 3d 39 6a 1c bf b1 29 44 3e
       -0.47808716 0.060394775 -0.6109958 0.19156529
000230 f8 18 94 bd d3 4f f8 3c 0d b3 03 3e 4d 59 25 3d
       -0.07231325 0.0303115 0.12861271 0.040368367
000240 2c 52 80 3d 28 cc 4b 3e d5 51 28 41 11 1b df bb
       0.06265673 0.19902098 10.519979 -0.0068086465
000250 3b b3 cf bd 81 a5 f2 be 8f 39 af 3c ba d7 8d 3e
       -0.101416074 -0.47391894 0.02138975 0.2770365
000260 97 f5 4e bd bf d2 63 bd 14 d9 bc ba 6c 27 2e 40
       -0.05052718 -0.055620905 -0.0014407956 2.7211561
000270 25 f4 d9 3c c3 49 56 3d d5 88 67 be 20 e9 89 bc
       0.026605675 0.05231644 -0.22610791 -0.016834795
000280 47 9b a5 bd 22 a6 34 3d e8 71 ac bf 99 1d 3d 3e
       -0.080862574 0.04410375 -1.3472261 0.18468322
000290 b6 0d 33 3d 2d 97 a4 bc 3f d4 0a bd 72 eb 5c c1
       0.043714248 -0.020091617 -0.03389382 -13.807482
0002a0 f7 de 7f 3c 07 28 91 be 6d 37 5f bc b6 d2 60 3d
       0.015617124 -0.2835085 -0.013624054 0.05488845
0002b0 9d 30 1c 3d 21 01 38 be d7 60 c1 bd 31 27 35 be
       0.0381323 -0.1796918 -0.09442299 -0.17690732
0002c0 82 12 d4 bd a8 65 63 3e 7b cb b5 3d e3 b2 a1 3e
       -0.103550926 0.22206748 0.088767014 0.31581792
0002d0 99 80 e1 3c 74 57 8e c0 76 cd 5d 3d ac 4f bc 3d
       0.02752714 -4.4481754 0.05415102 0.09194884
0002e0 ae 3f ac be 85 3a 7b bd 61 75 5d 3d 74 3c 71 3d
       -0.33642334 -0.061335105 0.05406702 0.058895543
0002f0 30 5f 6d 3e b8 4c e9 bc de 00 50 bc cc eb 8b bd
       0.23180842 -0.028478965 -0.012695519 -0.06832084
000300 35 8b 5d 3e 5e 5b 88 bc 7c 7c f1 3d d0 38 66 3e
       0.21635135 -0.01664513 0.11791322 0.2248261
000310 7e 4d ba 3e dc 30 55 3e 3f 6f 88 3e 0d 6a 87 3d
       0.36387247 0.2081942 0.26647374 0.066120245
000320 ad 82 93 3e 46 c7 5f 3e 51 ca 37 3d f3 04 0d 3e
       0.28810635 0.2185336 0.04487068 0.13771419
000330 f8 50 73 3d ab f7 85 3e 6f 9c 6a 3e 9e 1a 48 3d
       0.05940339 0.26165518 0.22911237 0.04885351
000340 87 a1 a7 3e 36 dd 39 3d 31 3a 66 3d 63 32 c4 3d
       0.32740423 0.04537698 0.05620784 0.09579923
000350 80 ba 8e 3e 03 ad 2b 3c 53 9f ab 3d 3d 8f d2 3d
       0.27876663 0.010478261 0.08379998 0.10281227
000360 28 43 2b 3e 9f c4 ec 3f cb ba b3 3e 50 64 a6 3e
       0.16724837 1.8497504 0.3510345 0.32498407
000370 85 49 a8 3e b0 1e 06 3e 4c 3f 15 3e f8 60 02 3e
       0.3286859 0.13097644 0.14574927 0.12732303
000380 f1 1e 82 3e 41 b8 b0 3c 6b fa a8 3d 04 4b 5b 3d
       0.2541423 0.021572234 0.082508884 0.053538337
000390 7a e3 87 3e 02 63 8b 3d 6d 41 f2 b9 b8 fe 2a 3e
       0.26540738 0.068059936 -0.00046206583 0.1669873
0003a0 72 a6 ae 3e df 7c 90 3e ef 1e 43 3e 9d 0c 8b 3e
       0.34111363 0.2822027 0.19054769 0.2715806
0003b0 b2 bd 88 3e df 9c cf 3e cd 75 a0 3d f8 13 39 3e
       0.26707226 0.4054937 0.07834969 0.18074024
0003c0 57 1e 25 3e f6 20 e8 3e e6 48 3b 40 a6 45 06 3e
       0.16124855 0.45337647 2.9263244 0.13112506
0003d0 dc 88 ba 3e bf 2f d3 3e a5 ac 71 3d e3 bc ad 3e
       0.3643254 0.41247365 0.059002537 0.33933172
0003e0 b4 c7 2f bc 16 ee 9e 3e 29 bd f4 39 dc c2 5d 3e
       -0.010728765 0.3104102 0.00046680242 0.21656364
0003f0 c8 19 58 3d 18 63 90 3d b1 24 94 3e 87 66 96 3d
       0.052758962 0.07050151 0.28934243 0.07343774

onnx::MatMul_13 f4 [96, 63]
000000 b2 51 b4 be ec 5b 5c 3d 8a b9 a2 3e 77 8b 77 3e
       -0.3521858 0.0537986 0.3178218 0.24174295
000010 2c 1c 74 3d b4 ae ba be f5 64 39 3d 6d 5b 57 be
       0.05959718 -0.36461413 0.045262296 -0.2103097
000020 38 c5 c2 bc 91 d5 31 be 94 4e 04 bf 86 61 d0 be
       -0.023775682 -0.17366625 -0.516824 -0.40699404
000030 0d 2d fc bd b1 21 0d be 00 05 25 3e 6e 03 25 3e
       -0.1231328 -0.13782384 0.16115189 0.1611459
000040 77 ed 27 3e 4f df 18 bd bb 94 8c be 42 c0 7f 3d
       0.1639918 -0.03732234 -0.27457222 0.06243921
000050 9c 47 ec bd 4f 52 3b be 24 02 28 be 3a 48 8f 3d
       -0.11537096 -0.18293117 -0.16407067 0.06996198
000060 62 5d f9 be 70 f0 8e be 1d be e2 be 7c 74 f6 bc
       -0.48704058 -0.27917814 -0.4428567 -0.030084841
000070 13 79 17 be 37 33 22 be 17 89 7d 3a 09 34 f4 bd
       -0.1479228 -0.1583985 0.0009671612 -0.119239874
000080 05 16 17 be ba b5 1c be 81 6d 59 be a9 65 0a be
       -0.14754494 -0.15303698 -0.21233179 -0.13515343
000090 41 85 d4 3d 76 7e e4 bd 01 7f c4 bb 5b 57 81 be
       0.10376979 -0.11156933 -0.0059965854 -0.2526196
0000a0 dc a5 c7 bd 5a 8e 2d bd cf 15 ad bb 62 3e 17 bd
       -0.09748432 -0.042372085 -0.005282141 -0.036924727
0000b0 c5 6b c3 3d 13 f4 97 be 1f 2b 69 bd f3 5b 2c bd
       0.0954204 -0.296784 -0.05692589 -0.042079877
0000c0 be 85 e7 bd 51 df ac bd 60 8b 36 bc 2e ee e2 3d
       -0.11304806 -0.08441032 -0.011141628 0.110805854
0000d0 c4 3c 22 bd 4e ad 5f 3d 8f 87 4c 3c 00 de 7e 3b
       -0.039608732 0.054608636 0.012483492 0.0038889647
0000e0 d7 4f 05 bd 04 aa 57 bd 4e bb 3f 3d f2 bf bc 3d
       -0.032546844 -0.052652374 0.046809487 0.09216298
0000f0 38 01 12 be 04 63 9a bd a0 35 2d bd 7c 94 f7 3c
       -0.14258277 -0.07538417 -0.04228747 0.03022217
000100 23 00 ea be b7 1f 04 be d9 6b 9c 3d 93 e5 32 be
       -0.4570323 -0.12902723 0.07637758 -0.17470388
000110 9e 8d 87 be 4a 97 b6 be 98 38 be bd 75 82 2f be
       -0.26475233 -0.356623 -0.09288138 -0.17139609
000120 31 9a b1 3c 73 28 c3 bd cc f7 9c bd e6 6c fa 3b
       0.02167997 -0.095291995 -0.07664451 0.0076423762
000130 0c 8f 1f bf 85 40 d0 bd a8 8d b3 bd 13 c5 0d bd
       -0.6232765 -0.10168556 -0.08767253 -0.034611773
000140 0b 4e bd 3c 7f 54 d4 bd 92 f5 2b be 8d 13 11 be
       0.023108503 -0.10367679 -0.16792896 -0.14167614
000150 e8 ef 7f 3d 2c 10 9a bd 76 2c 86 bd 12 dd 5e be
       0.06248465 -0.07522616 -0.06551449 -0.21764019
000160 eb 0b 60 be 1f f7 59 3c 78 64 5c be d9 d0 16 be
       -0.21879546 0.013303547 -0.21522701 -0.14728107
000170 de 8f 48 be d1 aa c2 bd e4 5b d5 bb 22 c0 8d bc
       -0.19586131 -0.09505237 -0.0065111984 -0.01730353
000180 37 e7 19 be 48 58 0d bd 0e 5d b0 be a9 97 14 be
       -0.15029608 -0.03450802 -0.34445995 -0.14510979
000190 90 39 d5 be 74 27 5c bd a6 16 43 be 0e 55 02 bd
       -0.4164548 -0.053748563 -0.19051608 -0.031819396
0001a0 d5 80 11 be f9 d2 81 be fb 3a 2e bc 50 1a 0d be
       -0.14209302 -0.25356272 -0.010634179 -0.13779569
0001b0 56 a3 fa be 71 e0 fd be 72 48 01 3e ca 1a 13 be
       -0.4895274 -0.49585298 0.12625292 -0.14365688
0001c0 ab 55 47 be a7 43 bf bd f8 62 70 3c d1 ef 81 3d
       -0.19466273 -0.093390755 0.0146720335 0.063445695
0001d0 02 41 42 bd 88 bb 67 be a4 2b 9d be da ec 52 be
       -0.047425278 -0.22630131 -0.30697358 -0.20598164
0001e0 4e b9 aa be 96 06 2c be aa 8e d7 bd ca 7b ab be
       -0.333445 -0.16799387 -0.10525258 -0.3349288
0001f0 87 ae 82 be 42 09 87 bb fe 8c 0e 3e b9 20 02 be
       -0.2552378 -0.0041209767 0.13920972 -0.12707795
000200 6a ed fe 38 5b fa 27 bd 11 5f c1 bd 36 8c b4 bd
       0.000121558856 -0.041010242 -0.094419606 -0.088158056
000210 ec 9d 3a be 81 b6 29 3d 20 62 dd bd 98 af 88 bd
       -0.18224305 0.041433815 -0.108097315 -0.06674117
000220 4b e0 12 be 84 21 20 be 2a cc 01 3d 6f 48 3e be
       -0.14343373 -0.15637785 0.031688847 -0.18582319
000230 a9 29 ba be 14 f5 01 be 88 3c db bd 32 d5 44 be
       -0.3635991 -0.12691146 -0.10704905 -0.19221953
000240 60 2d e1 be 77 f1 6b 3d 9a 67 7a bd 64 ad 19 bd
       -0.4397993 0.057603326 -0.06113396 -0.037518874
000250 5e dd 63 bb f0 e9 8b bd ea 8c 40 bd 3b f4 a7 bd
       -0.0034769396 -0.068317294 -0.047009386 -0.0820088
000260 fd 76 d9 bd dc ad a2 3d ea 25 f0 bd 6e f1 6d bd
       -0.10618398 0.07943317 -0.117259815 -0.058091573
000270 da 38 15 be e9 bc 15 be 01 91 03 be c6 23 3e be
       -0.14572468 -0.14622845 -0.12848283 -0.18568334
000280 55 96 82 bd 07 02 4f be 09 0f 46 3b 57 90 51 be
       -0.0637633 -0.20215617 0.0030221364 -0.20465218
000290 e2 c1 db bd d6 91 f3 bd f1 00 21 be 48 56 05 be
       -0.107303396 -0.118930504 -0.15723015 -0.13021195
0002a0 6f 65 ee bd e6 ab 57 be 55 0b 9b 3d 51 b6 d2 bd
       -0.11640441 -0.21061668 0.07570521 -0.1028868
0002b0 f5 15 a8 bd b9 2d 83 be 53 94 69 be e2 e6 63 bd
       -0.08207313 -0.2562082 -0.22810487 -0.05564011
0002c0 a3 86 09 bd f5 ad 4f be 6c 21 9a bd 9e 45 e1 bd
       -0.033575665 -0.20281203 -0.07525906 -0.109996065
0002d0 3e eb 83 be 57 bd 80 be 35 f4 2f be c8 f9 26 be
       -0.25765413 -0.25144455 -0.17183001 -0.16306221
0002e0 87 c2 68 be 29 0e 3a be 1e 30 2b be d9 ea a0 3d
       -0.22730456 -0.18169464 -0.16717574 0.07857294
0002f0 f8 ad 28 be ff ae c8 3d 24 66 05 bf 18 76 93 be
       -0.16472614 0.09799003 -0.5210898 -0.28801036
000300 c9 8a ac be cb 10 b1 bc 64 91 a1 be ca e1 bf be
       -0.33699635 -0.021614453 -0.31556237 -0.3747695
000310 37 bd f4 be e0 d5 25 bf 52 7a 91 3d 91 ff 9d be
       -0.4780061 -0.6477947 0.07103409 -0.30859044
000320 54 12 39 3e 41 42 12 bf 4e 7d db be f9 11 f0 be
       0.18073398 -0.57132345 -0.42869037 -0.46888712
000330 3e 77 cc be e8 04 d5 be 15 7c ef be aa a3 f8 be
       -0.39934725 -0.41605306 -0.46774355 -0.48562366
000340 93 17 d2 be 3f 33 90 3d e0 1a 9b bd 0c 8b 10 be
       -0.4103361 0.070410244 -0.075734854 -0.14115542
000350 f3 ee f7 bd c6 a8 fe be cc 96 39 3a 02 76 22 bf
       -0.12106123 -0.4973814 0.00070796604 -0.63461316
000360 f0 03 4b 3e e2 e3 e0 be ac 5f 0d 3d b0 81 14 bf
       0.19825721 -0.4392386 0.034515068 -0.5801039
000370 91 96 b5 3d a4 e9 3a bf ec 73 fc 3d ba 01 ae bb
       0.08866609 -0.7301276 0.12326798 -0.0053102644
000380 86 81 d8 bd d8 f8 37 3e b4 df b2 be 44 8c 34 bf
       -0.1057158 0.1796602 -0.34936297 -0.7052653
000390 36 52 0e bf 45 64 cc be dd cf 10 be c5 f6 1c bf
       -0.55594194 -0.3992025 -0.14141794 -0.6131404
0003a0 78 81 09 bf bd 1f 05 bf 3f 6f bd ba d0 51 03 bf
       -0.5371318 -0.52001554 -0.001445271 -0.5129671
0003b0 b4 ae 04 bb 0b 50 19 bf b3 4d c2 be fc ff fe be
       -0.0020245733 -0.5988776 -0.37949905 -0.49804676
0003c0 7d 8b 22 bf 14 9c 17 bf 3e 82 f4 be 37 1d 83 3e
       -0.6349409 -0.5922253 -0.47755617 0.25608227
0003d0 4b 4b 17 be 90 58 98 3e 5e 67 96 3d 11 41 ea be
       -0.14774816 0.29755068 0.073439345 -0.45752767
0003e0 54 93 14 be 0a 7d 16 bf 80 32 09 be ef b3 96 3c
       -0.14509326 -0.58784544 -0.1339817 0.018396346
0003f0 79 4f 13 3f b2 7a 24 bf 45 5a 32 bf a1 b0 71 be
       0.5754314 -0.6424972 -0.6966899 -0.23602535
