model/onnx_model.onnx (onnx, 71601 bytes, 4 tensors)

fc1.bias f4 [96]
-0.03996917 -0.104382 -0.02310103 -0.064707816 0.017014232 -0.0049937363 -0.0944894 -0.10243024
-0.018743537 -0.019083442 -0.027253099 -0.02009171 -0.016221002 -0.08278482 -0.8367127 -0.042387303
-0.092805885 -0.01729523 -0.034549296 -0.05927199 -0.08515921 -0.017458556 -0.1228819 -1.4837506
-0.14433867 -0.037348486 -0.12175121 -0.06115702 0.008164735 -0.07488552 -0.0098421 -0.60672534
-6.7095666 -0.02064382 -0.10732057 -0.062102024 0.002348019 -0.151059 -0.12488803 -0.016166318
-0.0072723315 -0.0032602982 0.023152264 -0.026470762 -0.37619314 -0.13755377 -0.059536606 -0.101462215
-0.03626496 -0.044542547 -0.09979967 -0.55309355 0.062405806 -0.23697798 -0.1594204 -0.050752852
-1.5530909 0.035736278 -0.042806257 -0.1314098 -0.076803274 0.0021515822 -0.021158218 0.032046933
-0.023849264 -0.03493907 -0.021511838 -0.0036909461 -1.7165166 -0.0775038 -0.12570794 -0.14326866
-0.13306281 -0.061385408 0.014920284 0.014219958 -0.07700843 0.007976928 -0.15106307 -0.041001316
0.009547956 -0.07485778 -0.028689368 -0.06499352 -0.06250532 -0.14179567 0.0014673978 -0.077714875
-0.054036353 -0.28404126 0.010112833 -0.090629295 -0.083987884 -0.17986156 -0.014496275 -0.017871287
00000000: b6b6 23bd 3bc6 d5bd 5f3e bdbc 8885 84bd
00000010: 6e61 8b3c 7fa2 a3bb a983 c1bd f2c6 d1bd
00000020: 0c8c 99bc e154 9cbc e441 dfbc 5f97 a4bc
00000030: e8e1 84bc 168b a9bd ce32 56bf 4f9e 2dbd
00000040: 0311 bebd baae 8dbc 9083 0dbd 30c7 72bd
00000050: f467 aebd 3f05 8fbc 81a9 fbbd 8aeb bdbf
00000060: 84cd 13be bafa 18bd b358 f9bd c97f 7abd
00000070: 61c5 053c 945d 99bd c240 21bc 5a52 1bbf
00000080: c5b4 d6c0 3a1d a9bc e3ca dbbd b15e 7ebd
00000090: 39e1 193b 36af 1abe 4cc5 ffbd 3a6f 84bc
000000a0: bd4c eebb baaa 55bb d1a9 bd3c 36d9 d8bc
000000b0: 639c c0be e5da 0cbe a8dc 73bd 6ccb cfbd
000000c0: 918a 14bd 3f72 36bd c563 ccbd 8a97 0dbf
000000d0: 3b9d 7f3d 5baa 72be 1a3f 23be 39e2 4fbd
000000e0: afcb c6bf 3460 123d 9d55 2fbd 4a90 06be
000000f0: 094b 9dbd 8f01 0d3b 0054 adbc a543 033d
00000100: 885f c3bc 451c 0fbd 9839 b0bc cde3 71bb
00000110: d1b6 dbbf 50ba 9ebd 95b9 00be 05b5 12be
00000120: 9e41 08be 446f 7bbd 3574 743c d4fa 683c
00000130: 99b6 9dbd a9b1 023c 47b0 1abe fff0 27bd
00000140: 086f 1c3c 094f 99bd f705 ebbc 531b 85bd
00000150: ca02 80bd e232 11be b355 c03a fa28 9fbd
00000160: 3955 5dbd db6d 91be 4cb0 253c da9b b9bd
00000170: d701 acbd a12d 38be c981 6dbc ce66 92bc

fc2.bias f4 [7]
1.3967116 2.8869739 3.0009384 -2.0472932 -1.2850055 -12.166643 1.6995493
00000000: 72c7 b23f 2ec4 3840 600f 4040 da06 03c0
00000010: 0f7b a4bf 92aa 42c1 d58a d93f

onnx::MatMul_12 f4 [138, 96]
0.08167846 0.013983442 0.08289666 -0.012058031 -0.020049702 -0.027791789 0.021156577 0.051280398
-0.073819555 0.12434222 0.011605399 0.09746682 0.108828984 0.02874159 -9.370765 -0.00022498619
0.13415572 0.11084818 0.117286325 0.11467182 0.10377189 -0.018879514 0.18386166 -1.4119241
0.017286446 -0.039794274 0.032231163 -0.014468121 -0.0101288175 0.12755623 0.04206834 0.38561776
0.107895106 0.07320662 0.10867071 0.07725432 0.077077955 -0.02306321 0.0018406812 0.03892173
0.107354835 0.016152937 0.0072011566 0.029459704 0.092120714 0.023045799 0.03185489 0.17426199
0.13743506 0.013010291 0.091751456 0.0052464465 -0.057253223 3.17248 0.13082555 0.035135735
-0.0058128866 0.10024541 0.073952965 0.018990777 0.05689367 0.036082115 0.033659123 0.13043766
0.038226996 6.348206 -0.0011080556 -0.0151276775 0.21021117 -0.024960786 -0.013524295 0.03373717
-0.04333088 0.0013410886 0.057202294 0.035234034 0.015391977 0.055006437 0.11344727 0.0944112
0.08376157 -0.01851099 3.5409505 0.018861294 -0.0045371586 0.012539729 0.06346509 0.10047774
-0.063518256 0.07561227 0.08973857 0.054793432 0.043684814 -0.082275055 0.068029575 0.117408164
-0.052828807 0.05582222 0.09907742 0.012970785 0.04093429 0.06187179 0.0418584 0.1116008
0.034435764 0.10787992 0.07368452 -0.096128926 0.04012688 -0.03367599 -4.2443657 0.044243664
0.102832474 -0.038599953 0.037544567 -0.05931122 0.015236161 -0.0024365506 0.070106335 -3.4662182
0.04721642 -0.022757296 -0.09311814 -0.015074504 0.08790522 0.10569111 0.056509897 0.15718038
-3.8701274 0.04599665 0.06949377 0.057172347 0.119178645 0.00029019246 0.087590285 -0.05384539
0.0908214 0.04075036 0.13699946 -0.03912657 0.17968546 0.009872451 -0.021746283 -0.021894993
0.00847887 -0.11251612 -0.05828788 -0.12018253 0.019457728 0.3438157 0.0023638147 -0.0029862826
-0.6603015 0.05030525 0.0004621066 0.047886252 -0.012888109 0.015866332 0.11484591 -0.010004146
0.16517968 2.0033252 0.098668784 0.12327744 -0.5716338 0.06737677 -0.052907318 0.018204195
0.04526224 -0.08112458 0.111384995 0.056844275 -0.0072721024 0.082387835 -0.024512304 0.021374859
-0.058196962 0.10126884 1.7568941 -0.07638003 -0.008856048 -0.050950646 -0.012656318 -0.078306526
0.0063204463 -0.04866203 0.10402308 0.043619003 0.082620524 -0.059746195 0.05153379 -0.056088474
0.058052678 0.013977907 0.119311295 0.05264188 -0.022147529 -0.041204806 0.08876772 0.018708892
-0.013073736 -0.0147795435 0.029271744 -0.012416481 -0.0018345935 0.035288326 1.6376667 0.053621408
-0.0092727 0.08855716 0.07377672 0.008218231 0.037562177 -0.008034063 0.059012946 2.0894327
0.048055112 0.07949817 0.13742349 -0.012403261 0.14529583 0.027318787 0.13185725 0.33039546
1.7182258 0.005333605 0.112776406 0.09133603 0.10057731 0.10065397 0.08674674 0.05302427
0.076681525 0.062763125 0.060566593 0.037941925 0.13408694 0.00048868987 -0.014721368 0.12176068
0.12122906 -0.011078602 0.046935834 0.049546085 -0.017786887 0.2750928 -0.00880398 0.0006899437
0.18846507 0.055297464 0.06608894 0.0030207664 -0.018193025 -0.0041046483 0.037666082 0.021608928
00000000: 0947 a73d cf1a 653c b9c5 a93d 0c8f 45bc
00000010: 463f a4bc 9bab e3bc 8f50 ad3c 650b 523d
00000020: b52e 97bd 22a7 fe3d 9224 3e3c af9c c73d
00000030: bbe1 de3d 7c73 eb3c a7ee 15c1 45ea 6bb9
00000040: 1e60 093e 5f04 e33d d033 f03d 0fd9 ea3d
00000050: 5b86 d43d 36a9 9abc 3b46 3c3e eeb9 b4bf
00000060: 4e9c 8d3c 52ff 22bd d304 043d b30b 6dbc
00000070: 57f3 25bc 1a9e 023e da4f 2c3d b16f c53e
00000080: 1cf8 dc3d 5aed 953d c08e de3d 8337 9e3d
00000090: 0cdb 9d3d 0fef bcbc 0343 f13a 646c 1f3d
000000a0: dadc db3d 2a53 843c aef7 eb3b 7a55 f13c
000000b0: c9a9 bc3d 8bca bc3c 467a 023d bc71 323e
000000c0: c7bb 0c3e 1e29 553c 30e8 bb3d 62ea ab3b
000000d0: 5b82 6abd ea09 4b40 22f7 053e 7dea 0f3d
000000e0: 077a bebb 774d cd3d a774 973d 8c92 9b3c
000000f0: 5609 693d d7ca 133d 26de 093d 7391 053e
00000100: e993 1c3d 8124 cb40 2d3c 91ba 14da 77bc
00000110: 9941 573e 907a ccbc 0195 5dbc fd2f 0a3d
00000120: b97b 31bd 77c7 af3a f44c 6a3d 9051 103d
00000130: a12e 7c3c 6e4e 613d 0b57 e83d a95a c13d
00000140: 308b ab3d 5ca4 97bc ef9e 6240 0083 9a3c
00000150: 72ac 94bb 6f73 4d3c fcf9 813d 46c7 cd3d
00000160: dc15 82bd 9bda 9a3d dbc8 b73d 146f 603d
00000170: d9ee 323d d37f a8bd 1753 8b3d b173 f03d
00000180: 0563 58bd d7a5 643d 1ae9 ca3d 6a83 543c
00000190: b7aa 273d 466d 7d3d b773 2b3d f68e e43d
000001a0: 840c 0d3d 26f0 dc3d e9e7 963d 3edf c4bd
000001b0: 155c 243d d6ef 09bd d8d1 87c0 d838 353d
000001c0: d599 d23d fc1a 1ebd 55c8 193d 52f0 72bd
000001d0: 17a1 793c 89ae 1fbb e993 8f3d 85d6 5dc0
000001e0: 0166 413d 826d babc b9b4 bebd 0dfb 76bc
000001f0: a707 b43d 9574 d83d ec76 673d e5f3 203e
00000200: 2bb0 77c0 fc66 3c3d c052 8e3d 8d2d 6a3d
00000210: ef13 f43d f924 9839 8962 b33d fc8c 5cbd
00000220: 9200 ba3d d9e9 263d 9649 0c3e 2f43 20bd
00000230: 77ff 373e 10c0 213c 4325 b2bc 215d b3bc
00000240: f5ea 0a3c da6e e6bd 46bf 6ebd 4222 f6bd
00000250: d065 9f3c 9d08 b03e 3bea 1a3b 82b5 43bb
00000260: 8509 29bf e10c 4e3d e646 f239 6024 443d
00000270: a628 53bc 1cfa 813c 5534 eb3d 6ee8 23bc
00000280: dd24 293e 7b36 0040 dc12 ca3d e278 fc3d
00000290: 9856 12bf d5fc 893d 58b5 58bd f720 953c
000002a0: e664 393d a524 a6bd d11d e43d 8bd5 683d
000002b0: d14a eebb f4ba a83d 07ce c8bc 541a af3c
000002c0: f05f 6ebd 0a66 cf3d e8e1 e03f 226d 9cbd
000002d0: f518 11bc a0b1 50bd 725c 4fbc 2c5f a0bd
000002e0: bf1b cf3b d651 47bd 0d0a d53d d7a9 323d
000002f0: f334 a93d 6db8 74bd 1815 533d 07bd 65bd
00000300: a5c8 6d3d 9703 653c 7b59 f43d 039f 573d
00000310: bc6e b5bc 5fc6 28bd dacb b53d 6443 993c
00000320: 3933 56bc e625 72bc 4ccb ef3c 7f6e 4bbc
00000330: be76 f0ba 7e8a 103d 109f d13f 1fa2 5b3d
00000340: 86ec 17bc 755d b53d 4018 973d c2a5 063c
00000350: ccda 193d 4da1 03bc 8fb7 713d 44b9 0540
00000360: 70d5 443d f0cf a23d beb8 0c3e 0c37 4bbc
00000370: 6ec8 143e a6cb df3c 9605 073e 9829 a93e
00000380: d3ee db3f 86c5 ae3b 51f7 e63d 620e bb3d
00000390: 7afb cd3d ab23 ce3d 46a8 b13d fa2f 593d
000003a0: 340b 9d3d f489 803d ad14 783d fe68 1b3d
000003b0: 164e 093e 6c1b 003a e531 71bc aa5d f93d
000003c0: f146 f83d 0683 35bc ca3f 403d d6f0 4a3d
000003d0: ceb5 91bc f7d8 8c3e 923e 10bc 57dd 343a
000003e0: fdfc 403e 987f 623d a359 873d 0df8 453b
000003f0: 8a09 95bc 4980 86bb c047 1a3d 3505 b13c

onnx::MatMul_13 f4 [96, 7]
-0.0009705536 -0.016695162 0.059909746 -0.08639171 -0.044113353 0.0754926 0.07220781 0.14869739
-0.097933955 -0.11239227 0.034511067 -0.11302395 -0.05824902 -0.031876795 -0.05822083 0.00978012
-0.04378187 -0.0018167236 0.0061204806 -0.049805544 0.06343561 -0.13514696 -0.12657829 0.030053312
-0.014569345 -0.13687432 0.03332751 -0.016949918 -0.024997642 -0.116914846 -0.13284644 0.029450752
-0.16407605 -0.04201456 -0.045422513 -0.048832115 -0.05807359 0.047941513 -0.056376208 -0.056567352
-0.19318098 -0.17306645 -0.13672426 -0.14338009 -0.04841915 0.026365718 -0.038717188 -0.01086984
-0.1192562 -0.013777094 0.036887404 -0.07765252 0.0027629954 -0.21159254 -0.105307214 -0.17482063
0.0041289926 -0.09732757 0.08954837 0.08467584 -0.025320632 0.004933811 0.08280035 -0.13306704
-0.13393202 -0.029507559 0.037618484 -0.0014714539 0.005490266 0.0098436605 -0.03412757 0.10532287
-0.025642298 -0.012625092 -0.07433045 -0.06840678 -0.1714284 0.056434896 -0.0140733635 -0.10917362
-0.044851992 -0.0047540953 -0.14235748 0.037687123 -0.011072755 0.005836278 -0.064893745 0.05147695
-0.17468922 -0.017170135 -0.17301211 -0.07826685 -0.036615226 -0.14384368 0.022456562 0.0036825978
-0.0025349967 -0.044497196 0.5141616 0.19076042 -3.237866 -1.8452109 0.90349305 -5.2404313
0.83820957 0.10050035 -0.03194303 -0.014709659 0.021762758 0.053751376 -0.052825075 -0.017079499
0.07252706 -0.11401024 -0.12670097 -0.0027225094 -0.05762294 -0.0549788 -0.04580731 0.009630959
-0.11185521 -0.11115865 0.024934854 -0.14190972 -0.10178956 -0.066072 0.06575942 -0.019428521
0.005390303 0.02804581 -0.017856598 -0.11288701 -0.14149435 -0.010219665 -0.08602333 -0.12250228
-0.005808211 0.014662635 -0.017862158 -0.0037512789 -0.054617453 -0.06736134 -0.0015537561 0.0071842293
-0.13686746 0.0011849697 -0.16862167 0.07626701 0.027314218 -0.060416307 0.036436588 -0.081304505
0.016956754 0.05647934 0.115139425 0.14030653 0.10990644 0.10868523 -0.60439885 -0.38533002
-0.12815744 -9.105245 -17.11614 -14.900558 0.28287107 0.5701472 0.7814988 0.48859513
-0.12996878 -0.05142103 -0.14490712 -0.036692444 -0.02393557 0.043341514 0.002049091 0.025779987
-0.06361598 0.064824045 0.05352269 0.049957894 -0.013131279 -0.008412162 -0.09912099 -0.04239524
-0.020450361 -0.06382842 0.10788605 -9.271675e-05 -0.08916484 -0.0031848445 -0.07532905 -0.08268987
-0.024261098 -0.05021427 -0.14805426 0.081529856 -0.040256582 -0.11264938 0.029139005 0.030825429
-0.17663626 0.11190384 -0.0098766945 -0.1681742 0.08503424 0.03345545 0.029362857 -0.09371841
0.12182974 -0.048048787 -0.038187817 -0.06337907 -0.21093227 -0.052033853 -0.14646736 0.058809385
0.011478872 -3.9204686 -2.376822 -2.838277 -1.3424636 0.78680515 0.47648302 -5.634427
-9.280144 -12.223319 -10.971947 -1.7350626 0.4086732 1.2449591 0.95185566 -0.05809276
0.01919772 0.033484492 0.036626715 -0.06645496 0.03203512 -0.036493495 -0.0064352215 -0.09911712
-0.095493235 -0.032930646 0.03004548 -0.019033078 -0.10794579 -0.004796646 -0.09387287 -0.020955201
-0.122854866 0.020567967 -0.029570032 0.019472027 -0.0074785207 0.10627396 -0.07328749 -0.0005575258
00000000: c06c 7eba 4bc4 88bc ec63 753d 23ee b0bd
00000010: 34b0 34bd dd9b 9a3d b0e1 933d 2144 183e
00000020: 9991 c8bd eb2d e6bd 7a5b 0d3d 1a79 e7bd
00000030: 8696 6ebd 3e91 02bd f778 6ebd cc3c 203c
00000040: 9e54 33bd 211f eeba 508e c83b e600 4cbd
00000050: 87ea 813d f763 0abe bd9d 01be 5d32 f63c
00000060: 43b4 6ebc c828 0cbe 6d82 083d 8eda 8abc
00000070: dbc7 ccbc 0d71 efbd e608 08be b442 f13c
00000080: 8d03 28be 7617 2cbd f50c 3abd 2f04 48bd
00000090: 93de 6dbd 525e 443d bdea 66bd 2bb3 67bd
000000a0: 3cd1 45be 5538 31be 7201 0cbe 3bd2 12be
000000b0: 2953 46bd ebfc d73c ea95 1ebd 6a17 32bc
000000c0: 983c f4bd 52b9 61bc 3f17 173d 4908 9fbd
000000d0: 5f13 353b b7ab 58be 4fab d7bd 2e04 33be
000000e0: 804c 873b ad53 c7bd 2365 b73d 876a ad3d
000000f0: 376d cfbc ceab a13b 3b93 a93d ba42 08be
00000100: 7a25 09be d6b9 f1bc d715 1a3d cddd c0ba
00000110: b0e7 b33b 4e47 213c 5ac9 0bbd 84b3 d73d
00000120: cc0f d2bc 79d9 4ebc 903a 98bd db18 8cbd
00000130: ed8a 2fbe 4728 673d f793 66bc 6b96 dfbd
00000140: b9b6 37bd 3ec8 9bbb 29c6 11be d05d 1a3d
00000150: 806a 35bc 403e bf3b 03e7 84bd 7fd9 523d
00000160: bbe1 32be 62a8 8cbc 162a 31be 5f4a a0bd
00000170: d9f9 15bd c24b 13be d3f6 b73c bd57 713b
00000180: 3022 26bb b142 36bd 18a0 033f b356 433e
00000190: 3239 4fc0 df2f ecbf 524b 673f 9db1 a7c0
000001a0: e794 563f 21d3 cd3d b2d6 02bd c800 71bc
000001b0: d047 b23c 672a 5c3d 1b5f 58bd 4eea 8bbc
000001c0: 1189 943d 337e e9bd e6bd 01be 216c 32bb
000001d0: 0806 6cbd 7331 61bd 72a0 3bbd 2bcb 1d3c
000001e0: 5814 e5bd 25a7 e3bd 2e44 cc3c c850 11be
000001f0: 0b77 d0bd c250 87bd e0ac 863d 9028 9fbc
00000200: 24a1 b03b 54c0 e53c 0048 92bc 4e31 e7bd
00000210: e5e3 10be 6270 27bc 002d b0bd 7ae2 fabd
00000220: ce52 bebb 8c3b 703c a953 92bc 04d8 75bb
00000230: 8db6 5fbd bef4 89bd 67a7 cbba af69 eb3b
00000240: fc26 0cbe fc50 9b3a 29ab 2cbe e131 9c3d
00000250: 11c2 df3c 1777 77bd 883e 153d fa82 a6bd
00000260: e4e8 8a3c e156 673d 38ce eb3d 84ac 0f3e
00000270: a116 e13d 5d96 de3d e2b9 1abf fa49 c5be
00000280: b43b 03be 15af 11c1 dbed 88c1 b068 6ec1
00000290: 7ad4 903e 2bf5 113f 4e10 483f 2429 fa3e
000002a0: 8916 05be dc9e 52bd 8862 14be d14a 16bd
000002b0: 8714 c4bc df86 313d 0b4a 063b 8d30 d33c
000002c0: 1849 82bd 78c2 843d 9c3a 5b3d a6a0 4c3d
000002d0: 9324 57bc 2ad3 09bc f2ff cabd a2a6 2dbd
000002e0: 8487 a7bc 7ab8 82bd 5df3 dc3d ed70 c2b8
000002f0: 0e9c b6bd d3b8 50bb 1e46 9abd 4e59 a9bd
00000300: 36bf c6bc 7aad 4dbd 899b 17be 20f9 a63d
00000310: 16e4 24bd b8b4 e6bd ecb4 ee3c 9c85 fc3c
00000320: 23e0 34be d72d e53d dcd1 21bc dc35 2cbe
00000330: 6e26 ae3d 9508 093d 608a f03c 70ef bfbd
00000340: df81 f93d cece 44bd d46a 1cbd e3cc 81bd
00000350: a1fe 57be 7321 55bd 8afb 15be 1ce2 703d
00000360: e111 3c3c f5e8 7ac0 da1d 18c0 55a6 35c0
00000370: d9d5 abbf 106c 493f 95f5 f33e 3a4d b4c0
00000380: 787b 14c1 b792 43c1 188d 2fc1 8816 debf
00000390: 9d3d d13e d25a 9f3f d0ac 733f adf2 6dbd
000003a0: 8944 9d3c 0927 093d e505 163d 8a19 88bd
000003b0: 4237 033d 347a 15bd 8dde d2bb ebfd cabd
000003c0: f591 c3bd 49e2 06bd f021 f63c 42eb 9bbc
000003d0: af12 ddbd 2f2d 9dbb 6b40 c0bd 3eaa abbc
000003e0: 559b fbbd 277e a83c da3c f2bc cd83 9f3c
000003f0: 610e f5bb 29a6 d93d c017 96bd ec26 12ba
