model/onnx_model_LSTM.onnx (onnx, 585955 bytes, 5 tensors)

fc.weight f8 [7, 72]
0	0x401819ad9182c36d	6.025076173406757
1	0x401bba6de1f162ce	6.932059793813734
2	0x3ff77bbc54ac34e6	1.4677089030768058
3	0xbfc6e576f444fb7b	-0.17887770583362425
4	0xbfb5d1f283222bd3	-0.08523479176999098
5	0x3fc41914e1adba6f	0.15701542872871552
6	0x3fd7d0416e30bd3d	0.37208591233043703
7	0xbfc50f73dee9013d	-0.16453407654081245
8	0xc00a2992fbe3a9f1	-3.27029988087201
9	0xc00b8a2a43fc21c7	-3.4424634276694834
10	0xbfad6195299e3cf7	-0.05738512166055359
11	0xbfdfa7ceb4d72eb0	-0.49461715374193727
12	0xc002eb393b7343bc	-2.3648552555609665
13	0x3fc51cb937fba917	0.1649390719752055
14	0x3fb78374a6bb2906	0.09184960432608955
15	0x3fda493ff79dbbcf	0.4107208173872409
16	0x3f809651a913fc14	0.008099210712769568
17	0xbf8abc14bce30ae4	-0.013054048551912563
18	0x3f9317916a532346	0.018644592394397884
19	0x3ff3bc57a8933eb3	1.233482035156993
20	0xbf760861db37ba2b	-0.0053790876877273614
21	0x3fbd793127ef600c	0.11513049340226206
22	0xbfef80acb883b741	-0.9844573596762772
23	0x3ff8a91cf6358961	1.5412873857063334
24	0x3fdec62a8a3e312a	0.4808451032665909
25	0x3ffd80e44a1722be	1.8439677137522916
26	0xc012e9bf06e0cc29	-4.728267772169638
27	0xbfe5eb662c0173c5	-0.6849852427945896
28	0xbfff061bd7ea13e2	-1.9389913973002355
29	0x400aa10fe23a51ce	3.3286435770080294
30	0x3fa5a55429e7d9e2	0.04227698337119869
31	0x3f9c98b67913e65e	0.027926303043363958
32	0xbfe53d021d6d857a	-0.6636972975503987
33	0x3fe0005afc5c1a7f	0.500043385400957
34	0xc004c585ce40b249	-2.596446620320681
35	0xbff57ab2e103cd0e	-1.3424557485239492
36	0xbfb44b51ba17d918	-0.07927428048410368
37	0xc00143b9329e863b	-2.1580680803897656
38	0xbfeb1757ac78e296	-0.8465994232747842
39	0xc0153bce25fe3428	-5.308403581276288
40	0xbff59994a143550e	-1.3499952601753793
41	0x4001af4d0d723626	2.210596184776267
42	0x3fd34fc02659d185	0.3017425894279529
43	0xbfc67e281a6372a5	-0.17572499550342005
44	0x3fe19f219874c6ae	0.5506751992854413
45	0xbfd65fe6f2d173eb	-0.3496034022589913
46	0xbffde9ca8939f543	-1.8695779190450856
47	0xc007b1b93c42d9a1	-2.9617790897275005
48	0x3fc02e8802ae7a5f	0.12642002230582514
49	0x40248a443ea0020a	10.270051915199492
50	0x3fc8ab4064a2f502	0.19272618211645215
51	0x3fe9d9a3692c0807	0.8078171781673981
52	0x3fcc5d132e977abf	0.22159042143808524
53	0xc01f1c2d0f9f9dce	-7.77751564418527
54	0x3f756b88f387a1f9	0.005229506460161287
55	0x3fa944f1d3c490f5	0.049354130840841316
56	0xc010993c8106ad25	-4.149644866974346
57	0xbfd56414c1d32bca	-0.33423346451007474
58	0x3ff1f57cf32f6371	1.1224336146753695
59	0xc00717c10562d0c7	-2.8865986271649464
60	0x3fe792b782567c2e	0.7366597695980823
61	0x3fe3c01a36c59e3d	0.6171999997868124
62	0x3fd4317b3ca3dd14	0.3155201046169662
63	0xbf8adcc11d099530	-0.013116368006374474
64	0x3fd9860cada33b0c	0.3988067336730843
65	0xc006fcecc062c896	-2.8734984426637977
66	0xbfe8f172e5972521	-0.7794737323939992
67	0x3fd79a3fb1c1f872	0.36878959998273964
68	0x3fe8bf489ece6fd9	0.7733500577628504
69	0xc001506f82b285bc	-2.1642751894694054
70	0x3fa83aa08c2fd4ac	0.047322289574290494
71	0xc00b7d6339d6c668	-3.4362244146985184
72	0xc004757b421d61f4	-2.5573640027253024
73	0x3ffa508fe8f7104a	1.6446684932898443
74	0x3ff064c66f7516a1	1.024603305225732
75	0x3fc215ca2c0c8718	0.14128996992899867
76	0xbfccb1cc9ae1ea39	-0.22417600214596847
77	0xbfd1eb7952b12893	-0.27999718737977125
78	0x3fc36943bce98872	0.15164992069464095
79	0xbfb2fd826ef27dba	-0.07418074806854849
80	0x3fb2de4a4b0b341f	0.07370437938807627
81	0xbff0dbcf0ae867ba	-1.0536642480933396
82	0x3feaf933746a15b5	0.8429200433462741
83	0xbfc299852b15c6cb	-0.1453100643516819
84	0xbff5cfe051ad3642	-1.3632510366909547
85	0x3fd6d7a4f61a52bd	0.35691188844183924
86	0xbfea2385f8c99633	-0.8168363436822744
87	0x3ff122ebe6c98363	1.0710257544635275
88	0x3fced7d71f93f495	0.24096192399875763
89	0x3fe4058f1c9ebc10	0.6256785925851336
90	0xbfe33abbb3fc8b7f	-0.6009195819245717
91	0xbfd898ea9295c547	-0.384333270215468
92	0xbfe1ed79791a12c3	-0.5602385869284138
93	0x3fc650bf24a3ad72	0.17433919228583822
94	0x3fd9b57a24a349af	0.40170148446955073
95	0xbfe2f1f06bf429c3	-0.5920335873100203
96	0x3fdaa7aee15df36c	0.4164845658158842
97	0xbfdc5664e157f387	-0.44277307516295433
98	0xbfac18d2e19bf59d	-0.05487689022082096
99	0x3feb933ca4cf0b93	0.8617232531472488
100	0x3ff21798fa30d90f	1.1307611249044986
101	0x3f81dfdb6e291ab4	0.008727754878362283
102	0x3fc624fca6c49456	0.1730037512108164
103	0xbfd249080c38a0e4	-0.2857074851367669
104	0x3ff206e67dd4f126	1.1266846576027745
105	0xbfe8c0e9c163f9b5	-0.773548963275792
106	0xbfc117d1e9bd80fa	-0.1335394278821765
107	0x3fb8a4407f846cec	0.09625628579344764
108	0xbfa25d019e5daef3	-0.03586583192995176
109	0xbfb335a8ddcb1654	-0.07503753104091376
110	0x400dca82108d26f0	3.723880891139622
111	0xbff24e88c2b089fb	-1.1441733937323295
112	0xbfea5786e4096f10	-0.8231844381184334
113	0x4015e20abf5c84b6	5.470744123479724
114	0x3fbf1893213c39dd	0.12146873055846848
115	0xbfcc609b72d8b491	-0.22169821841945184
116	0xbfe6ccc9b3b42cfb	-0.7124985227432313
117	0xbff25e68787c7c07	-1.1480488497252297
118	0x3fe006f274f78c01	0.5008480343352631
119	0x400710d1eff16ea9	2.883212923579624
120	0xbfe3c17b4d11129f	-0.617368364830856
121	0x3ff5607e6db0ca9b	1.3360580715931636
122	0xbffbbb2ea300f0bb	-1.7331987731295573
123	0xbfd84881fc7a8b8d	-0.37942552238580946
124	0xbfd0b7c81ff65e3c	-0.26121714707685206
125	0x3ff3dba641b9bbfb	1.2411253516581826
126	0x3fb7c549c02e1e60	0.09285412732980936
127	0xbf8b680819f6e5de	-0.01338201836812208
128	0xbf8ffa3fd7083948	-0.015614031553039212
129	0x3fc007a739d415c2	0.1252335579267037
130	0xbfd2ec9367e0a80f	-0.2956894411496486
131	0x3fe0c704b3c48da0	0.5242942343797274
132	0x3fddb07dcc2a574f	0.46389717996622876
133	0xbfed58bdebaf7e25	-0.9170827487213883
134	0x3fc0b6007ccb343b	0.1305542573303756
135	0xbfd4a3e7cf294306	-0.322503998094405
136	0xbfed9eb66977715a	-0.9256240901845942
137	0xc02944e5d32a8938	-12.634565924589523
138	0x3fc5c77369035ba3	0.1701492560157166
139	0xbfa1341f8e8f5b68	-0.03360079398378596
140	0x3fe57e72736a2964	0.6716854337876552
141	0xbfe3b6364fb046ae	-0.6159926945130871
142	0x3fe44534cec57697	0.6334480322363615
143	0x3fb7469e6b455cd6	0.09092130774421334
144	0x4022f6d639f2803e	9.48210316739289
145	0x3fe8f0c48837b6ca	0.779390588808121
146	0x3fe6bf57d65eeada	0.7108573138169405
147	0xbfd1091153ffcbfa	-0.2661784477524517
148	0x3fbca18b215a8767	0.11183995785043309
149	0xbfbba1d4b69cce38	-0.10793809374154584
150	0xbfc51445fe394456	-0.16468119538561393
151	0x3f47ccb592f01ef0	0.0007263075439149762
152	0xbfb25e5b97f330fe	-0.07175228557315802
153	0xbfd2c62aa878e6d0	-0.2933451314198523
154	0x3ff1021bb5ecad0a	1.0630147081781751
155	0xbfee9d2e83164f04	-0.9566872177406087
156	0xbfe70ec3ee6baf2c	-0.7205524117139013
157	0xbff0463b9a9c8a69	-1.0171466865073404
158	0xbfed50e858726d0f	-0.9161264159660351
159	0x3fb614bb1398487e	0.08625382641210597
160	0xbfdde64fa09d9a4b	-0.46718207059021627
161	0x3fc253bace509150	0.1431802279850083
162	0xbff41a8e6a19799b	-1.2564834732544117
163	0xbfe3b660244b6297	-0.6160126408459118
164	0xbfc934c70fca3346	-0.1969231440638401
165	0x3f6abb57bb93a7e6	0.003263160088512673
166	0xc00e81a35ebf5e2c	-3.8132998850012623
167	0x3fd2c7a2ee890665	0.2934348420568312
168	0x3fe84b1f8f2d3c06	0.7591703220767847
169	0xbfcc5cd9ff4aae81	-0.22158360448280592
170	0x3f7f4018e10ccf4c	0.00762948721312624
171	0xbfe27eea0a07e600	-0.5779924579539397
172	0xbfcea5b59c853c27	-0.2394320501575475
173	0x3fba255f87c74562	0.102132769249939
174	0x3fcffb6166691e41	0.24985902309912159
175	0x3fbf15a8e35324ec	0.12142425107881011
176	0xc0001931ce630110	-2.012302029034011
177	0xbfbcadb63ddaa1a0	-0.11202563295467494
178	0x3ff25b06d58165de	1.1472233142907196
179	0x4007b835b9c918bf	2.9649462236876327
180	0xbfb0e2f3b984e7b6	-0.065963013451351
181	0xbfba0b9833118ac7	-0.10173941847601063
182	0xc02bb9653347b905	-13.862100222115723
183	0xbfe6b58b54e29ee3	-0.709661165038565
184	0xbfcd15a3e0e3d6b5	-0.22722290497738631
185	0xc01c9e1dbcd80417	-7.154410315212792
186	0xbfdec0e50b831db1	-0.48052335857615974
187	0xbfb4d55ce6e2033f	-0.08138065945423721
188	0xbfde9bf2fd19385d	-0.4782683822312544
189	0x3ff292ac3a8e8108	1.1608087813729657
190	0xbfec6792ff5fbac7	-0.8876433360836352
191	0x40005c8249b67f16	2.0451703795259943
192	0x3fe5e4b15e6c960f	0.6841666073057143
193	0x3fe12289553b01f0	0.5354658760698481
194	0x3fd2b50a097c1766	0.29229975630038607
195	0x3ff2ddca2097f550	1.1791478417574872
196	0xbfe4738a368ce3e4	-0.6391039910732812
197	0x400786f5c4660b67	2.940898451198723
198	0x3fa146c52ab7f957	0.033743058647803074
199	0x3fe30de4802befea	0.5954458716728344
200	0xbfeb6be154aafdaf	-0.8569189695044112
201	0x3fd19d3868ec37da	0.27522096868858414
202	0x3fe08fdf6be81b40	0.5175625903656069
203	0xbf7ef3f2c5885328	-0.007556866003615416
204	0x3fda6ea68cdbb10b	0.4130035758560246
205	0x3ffb00766b4bf17b	1.687612933280518
206	0x3fc07f4694cceff5	0.1288841463627929
207	0x3fc5af7c54c435cf	0.1694178975962317
208	0x3fa000dfcf835709	0.03125667007559058
209	0x3ff10cf9528522b5	1.0656674598159672
210	0x3fc032a415a0582d	0.1265454393002882
211	0x3f9da3376dbf6c81	0.02894293410632232
212	0x3ff1c092cb8b339f	1.1095149947097764
213	0xc0043d98fdebf379	-2.5300769651061583
214	0x3fd7601486f15f69	0.3652392690469158
215	0xc024a715ecfc7b9c	-10.326339155026112
216	0xc016ec29ef66272f	-5.730628719911507
217	0x3fcaade4ce91d064	0.20843181692510193
218	0x3ff9f58c60224fcb	1.6224483256564664
219	0x3fc5ae38c6bc2471	0.16937932685712867
220	0x3fd4f37f2c97b4bb	0.3273618636583923
221	0xbfc69b124c82f33b	-0.17660740600504163
222	0xbfad5b662401fd72	-0.05733794393108384
223	0xbfdc8b929b2a7b3e	-0.4460188403408444
224	0x3fdc62441baff784	0.4434976835617521
225	0xbfe5e9f7c75551e4	-0.6848105328777447
226	0xc00b0506240c04e6	-3.377453118912501
227	0xbfe81420a66b62a0	-0.7524569750194878
228	0xbfc9f94914fadbcd	-0.20292008900079708
229	0xbffc0c779705d085	-1.7530437373471
230	0xbff0190bff523381	-1.0061149571876913
231	0xbfd4facdc7940c99	-0.32780785074300806
232	0xbfc147f8fb381395	-0.13500892893366925
233	0x3fe6371ea3388a45	0.6942284763247889
234	0xbffd357d446df9a0	-1.8255589173346394
235	0xbff78e619c194d33	-1.4722610566721641
236	0xbfd4256b3d162854	-0.31478386846049955
237	0x3fc31f48d65c2413	0.1493922278098415
238	0x3fe597a49bba2768	0.6747611085458916
239	0xbfe5b45e39912e38	-0.6782675861699721
240	0xc0029021bf6b3641	-2.3203768686860546
241	0xbfdfc99558973102	-0.49667867328095394
242	0x3fd8d85ad0653827	0.3882052455054485
243	0xbfbe5537afcb46c9	-0.11848781625601669
244	0xbfef0e9a4c4ae03b	-0.9705325594031885
245	0x3feab37b23c0ff57	0.8344093035047803
246	0x3fdccdc6b14c2065	0.45005957903095456
247	0xbfe7e9aa7d29cfb6	-0.747273678264256
248	0x3ff8c61df6ad5c43	1.548368419249315
249	0xbfeed31a5e82570a	-0.9632694097406056
250	0xbffce812d2a8f3a2	-1.8066585759072287
251	0xbfe571040eb3cf82	-0.670045880046459
252	0x3ff7f0b2cb5b2097	1.4962642615883277
253	0x3fd8ac7fe9eaa58c	0.3855285438863454
254	0x3fd96f26264004ec	0.3974089978729143
255	0xbff7c514df6a8cf1	-1.4856156089015793

fc.bias f8 [7]
0	0xbfa62c07628a864c	-0.043304663447326947
1	0x3faa5c20e22c7b20	0.051484134301281737
2	0x3fcfd39617125585	0.2486446011213667
3	0x3fe13d8b702ee8de	0.5387627783850595
4	0xbfca2cb281d4fe68	-0.20448905314877952
5	0x3fc63348a6184132	0.17344005689711534
6	0xbfe81b34248e7678	-0.753320762061505

onnx::LSTM_118 f8 [1, 288, 150]
0	0xbfcb924b7e2c5a47	-0.2154020658569655
1	0xbfd77b1f4ebca05b	-0.3668897885240818
2	0xbfd12cbd4ab6f39d	-0.2683556775698948
3	0xbfce91055daddac4	-0.23880068849731206
4	0xbfd766ca356179d5	-0.36564879620519025
5	0xbfca731dbedebbbf	-0.20663806743456622
6	0xbfd0e85da1f34e9b	-0.26418248000593686
7	0xbfc3dea0cf5f5fd6	-0.15523157239544955
8	0xbfd0c47c84d760c1	-0.26199257824692884
9	0xbfd0ea1262d6f67d	-0.2642866101485664
10	0xbfc611e8139e53fd	-0.17242146451886234
11	0xbfcaba5cec9b79b3	-0.20881234696476056
12	0xbfc280c4a8cff7ba	-0.14455469363013923
13	0xbfd450bcf91a78fd	-0.31742786718849897
14	0xbfc75b6b4ce6f8eb	-0.182477390813751
15	0xbfcf9254ec11ecea	-0.24665318991524227
16	0xbfd0515d85b6acc5	-0.2549661451145762
17	0xbfcf6f5c80e50ea3	-0.24558597844781102
18	0xbfc409c640e7ad18	-0.1565482918661949
19	0xbfc82eda28fdb6e1	-0.18892981530682731
20	0xbfd613b4c8f9c09b	-0.344952770486097
21	0xbfd54e87a9376b2b	-0.3329180862908056
22	0xbfd011bf10121791	-0.2510831505718381
23	0xbfc818704e88fff5	-0.18824580988621134
24	0xbfd736279baf9295	-0.3626803417558134
25	0xbfd28b8d693c4ab3	-0.2897676017466139
26	0xbfc67841737c2244	-0.175544911755667
27	0xbfd4cd3100adddef	-0.3250238901741502
28	0xbfd1bbb35c795a4b	-0.2770813372675646
29	0xbfd124638d325647	-0.2678460005639391
30	0xbfcdcc05151dd186	-0.23278869181707423
31	0xbfd5dcbf21660913	-0.34159830342845615
32	0xbfc77098f311df72	-0.18312370175021503
33	0xbfc319d6cccc3c34	-0.14922604560749309
34	0xbfc43c4c192cf5b9	-0.15809012631681954
35	0xbfd0ccad4a4c72cd	-0.2624924874851729
36	0xbfd2bef92ce1812f	-0.2929060877122706
37	0xbfc937a2f4326f85	-0.1970103924148782
38	0xbfd3e473fdbcb185	-0.3108186700726708
39	0xbfcac5b93dbb25f1	-0.20915904535495103
40	0xbfcd68af07d98dec	-0.22975719340602951
41	0xbfd0bf172752626b	-0.2616632350923626
42	0xbfd42f5de2287d85	-0.3153910358978112
43	0xbfc220bdd0151288	-0.1416241899516033
44	0xbfcb76df0435876d	-0.21456515985033367
45	0xbfd18a05dc86f281	-0.27404924903729727
46	0xbfca079a26ff328f	-0.20335699943679628
47	0xbfc3bc9c97e0deba	-0.1541934720605605
48	0xbfd146798a642db1	-0.2699264384725338
49	0xbfcda05a86b85b23	-0.23145610407001369
50	0xbfd66d1ac36173e3	-0.3504092128767395
51	0xbfd070be7f9e9a31	-0.2568813558849881
52	0xbfd1eb394258234f	-0.2799819133656926
53	0xbfd1f97701c2952d	-0.28085112735637346
54	0xbfd465e59030fb35	-0.31871928292450785
55	0xbfc41ebae3849fe6	-0.1571878062179614
56	0xbfcacf3b6a2078db	-0.20944922143912134
57	0xbfcdf503f12f6816	-0.23403977657909597
58	0xbfc46f82d32a8915	-0.1596530467114198
59	0xbfcb1c15254d1fdd	-0.21179451295233678
60	0xbfd31922c5fc47fd	-0.2984091695262803
61	0xbfd47787a28a5c57	-0.3197955214795391
62	0xbfd573c022a7c615	-0.3351898516112624
63	0xbfa7256340018ba0	-0.045207120478856
64	0x3fd9eb3600743eba	0.4049811367449184
65	0x3fc2f11c4663a356	0.14798310696576306
66	0x3fc9a5bf7e897fd9	0.20037072828836136
67	0x3fd2f84183e121bf	0.29640233877992367
68	0x3fd2ce16ea5883ae	0.2938287056477361
69	0x3fc2177b4101a8a2	0.14134159731049062
70	0x3fc1ce75392aa5b3	0.13911309520089574
71	0x3fc3251f48a2e379	0.14957037970250633
72	0x3fd75ab4399eb683	0.36491113306951933
73	0x3fbdbb23a3d14698	0.11613676785898475
74	0x3fcea73e80be9455	0.23947888647413387
75	0x3fd7e95b20ea892e	0.3736179181525071
76	0x3f853e811ab2abf8	0.010373123767143597
77	0x3fdbe9473ad18422	0.43611317390429083
78	0x3fc91c88ddb76e71	0.1961833078956832
79	0x3fd17a9704375120	0.2731072941944763
80	0xbfa9827670031b61	-0.04982347600303317
81	0x3fcf0e2941e78db7	0.24261966436379875
82	0x3fce4973fc494b99	0.23661660975139112
83	0x3fb4944160a8ceda	0.08038719758843219
84	0x3fdd98efda8a7439	0.46245952932241924
85	0xbfa008da94b750f6	-0.03131754937536073
86	0x3fbcada19e5f00b8	0.11202440372926759
87	0x3fda94ae1dbc71fa	0.41532471565167806
88	0xbfbb65d3606a1c84	-0.10702248672360964
89	0x3fb09ef28238a61a	0.06492534331541613
90	0x3fb4f35162596528	0.08183773661712179
91	0x3fd1db2f318fb36c	0.27900295104955464
92	0xbfb9a5da41f881ea	-0.1001869593678816
93	0x3fc614885d94ce44	0.17250160760305466
94	0x3fd08c448473858b	0.2585612576932241
95	0x3f6bb80a90a02528	0.0033836561533503624
96	0x3fc94d3cd51690b8	0.1976696052998983
97	0x3fcae73b26c2a533	0.21018161194414517
98	0xbf69dee119887db0	-0.0031580349425579177
99	0x3fb36616f74e1a0e	0.07577651536676219
100	0x3fb55cc4e315ef79	0.08344679397663225
101	0x3fc9761cd6e96b36	0.19891701215495922
102	0xbfbd6f571e3638b4	-0.11498016822426643
103	0x3fd726ea37aadc03	0.3617501777293343
104	0x3f940ed526478fca	0.019587831937215396
105	0xbfc964c6c7d9caf4	-0.19838795431459
106	0x3fd2c5f3858a0b21	0.29333198586407333
107	0x3fa74206cadc7fa7	0.04542561746916301
108	0xbfbd71b7eb063b31	-0.11501645553492491
109	0x3fc55c43ff46d40a	0.16687822308236405
110	0x3fb4715e59df2b9f	0.07985486692557096
111	0xbfc01df9096ca9ca	-0.125914697267332
112	0x3fbffdde62851f81	0.12496747880243043
113	0x3fd2564c96a721fa	0.2865172835559232
114	0xbfcc1b5fbdd7819d	-0.2195853878938693
115	0x3fd1b45172a5a41e	0.2766307468032795
116	0x3fbeebdb3c47e521	0.12078638288212008
117	0xbfcf3650a0088a1e	-0.24384506048325333
118	0x3fc8d13351201fc5	0.19388429127888976
119	0x3fc6fb8bd9a3670c	0.17955158354634937
120	0xbfd16348fa4c0aec	-0.27168487971373056
121	0x3fd374b8aa5385d4	0.3039991057722464
122	0x3fc36708e26513c9	0.15158186964450085
123	0xbfc5444129e134a1	-0.16614546341808015
124	0x3fd4fa431bdcc039	0.3277747890560963
125	0x3fd846fe71517f06	0.3793331247925241
126	0xbfd6d0bb58e3ea57	-0.3564899795598299
127	0xbfd78edebae52bd8	-0.36809509517177963
128	0x3fba55ac838c0065	0.10286977969735885
129	0xbfb694cadfa226d3	-0.08820789298820424
130	0x3f9dc7ff5d65c2b8	0.029083242488413957
131	0xbfba4244f8433828	-0.102573690997105
132	0xbfd70253cda6ac7f	-0.359517050582049
133	0x3fcfb0206cd3a254	0.24756245912364483
134	0xbfd274f29a11fa3c	-0.28838791891022075
135	0xbfb9a461b3d842c8	-0.10016451493016654
136	0x3fd00f0de36fe3d6	0.25091883860255615
137	0x3fc53de0a936ff47	0.1659508539432812
138	0xbfc456ac5da144d4	-0.1588950593163988
139	0xbfe0337538120e02	-0.5062814803245035
140	0xbfd036ff098bccab	-0.25335670406566163
141	0xbfca2033e53e2b99	-0.204107748923289
142	0xbfd3d6094b6ebeb9	-0.309938739456793
143	0xbfcf547f1dfdf128	-0.24476613010836812
144	0xbfca8bc9666f7290	-0.20739095212674785
145	0x3fd3cf3463aeb902	0.3095217679464356
146	0x3fc91d6fe8e02171	0.19621085043787503
147	0x3fd8df02f3563309	0.38861154330588527
148	0x3fd5452c41931f2d	0.33234697726992374
149	0x3fd6061502249f6c	0.34412121972353904
150	0x3fcc766464a33381	0.22236304201069504
151	0x3fdf6376312c7378	0.4904456596576021
152	0x3fd2e8304714843a	0.2954216665403383
153	0x3fd9b089859fa15f	0.4013999752919712
154	0x3fdfc24da0980a32	0.4962343281078204
155	0x3fccdad3337f3462	0.22542800917145472
156	0x3fd8867e4597089f	0.38320881648918176
157	0x3fe565117a41952d	0.6685874355140747
158	0x3fcf73d716161da5	0.24572266176640514
159	0x3fdbfac457b82f5e	0.4371806007991291
160	0x3fe042c64b0e5fc6	0.5081511941852959
161	0x3fcdd9ea97638a8c	0.23321277992279865
162	0x3fd84c843a510a12	0.3796701974389701
163	0x3fdfb7bb3125d7f0	0.495589063640522
164	0x3fd10976411317a0	0.26620251040400866
165	0x3fcbfa3206f072fd	0.21857285822706976
166	0x3fe2f756bdbd8622	0.592692728602007
167	0x3fd207f245b3ea7e	0.28173500830568077
168	0x3fdb8aa1286af2f3	0.4303362745957166
169	0x3fe0d570eab9f476	0.5260548195361838
170	0x3fbad0edecef6bc6	0.10475050959159579
171	0x3fdeeebeda465c0f	0.4833218700018173
172	0x3fe054a75e98d7f8	0.5103337142561477
173	0x3fc4f0238d73f776	0.16357845694431788
174	0x3fd176792c8590fc	0.2728560385496761
175	0x3fdc1a8a84f46eea	0.4391199396502389
176	0x3fb79b045b195562	0.09220912193389588
177	0x3fca01dc5d508063	0.2031817870747573
178	0x3fdb2d58eea4b401	0.42464278512017023
179	0x3fd31693e89c2d99	0.2982530376036379
180	0x3fd611bf19e334c5	0.34483315971449385
181	0x3fe2f9647ef07bc9	0.5929434279713571
182	0x3fca9aea5377ac92	0.20785264087257765
183	0x3fd73470b8740fd2	0.36257570279144347
184	0x3fd1508bbc8d0939	0.2705411282842252
185	0x3fb5ddd37b47d0ac	0.08541604766634475
186	0x3fb7f3d5402069f9	0.09356434646216617
187	0x3fd7b8905aed18d5	0.3706398857069762
188	0x3faf36f0be643f98	0.060966037026559394
189	0x3fc5a720a37075ca	0.1691628263514942
190	0x3fe0256565a263c5	0.5045649514241793
191	0x3fc6c9c095f03646	0.17803199120719365
192	0x3fc194f558a17099	0.13735834911029057
193	0x3fdf2842a3b75392	0.4868322943487381
194	0x3fcae3d440739ae3	0.21007779261636647
195	0x3fc586d107b26a16	0.16817677379442902
196	0x3fd84c7f3e8c67e1	0.37966900928733877
197	0x3fbb8363ffc4ea97	0.10747361177792879
198	0x3fc46165a808bdb4	0.15922232346336573
199	0x3fdd8972ef981005	0.46151421926356334
200	0x3fb7e9b94a270a7a	0.09341009197582109
201	0x3fc1a7aaa68858f9	0.13792927867388707
202	0x3fe3fe895fa3f306	0.6248213642098512
203	0x3fc1a0bb4077c205	0.13771763465730671
204	0x3fbc6e5c56c96d49	0.11105897063082638
205	0x3fdbe294e47647b4	0.4357044440340545
206	0x3fd070651edc3448	0.2568600465172648
207	0xbf88c3af986e4125	-0.01209199127131961
208	0x3fe3b2eb054f7eda	0.6155905822488095
209	0x3fb00ac59dc5d064	0.06266436673996761
210	0xbfba64724a9868b5	-0.10309519120383721
211	0x3fda211556b8241d	0.40826924771005385
212	0x3fcc43f38d790690	0.2208237114701217
213	0xbfcbca06887d854e	-0.21710282959524324
214	0xbfd250a8d12e8468	-0.2861730616369358
215	0xbfd0379e2668401a	-0.2533946394987666
216	0xbfc8c77613d1d4f6	-0.19358707397228841
217	0xbfc60a49cca4695c	-0.1721889733533527
218	0xbfd2a75fbf0fbd62	-0.2914656987986374
219	0xbfce0e212e00b09c	-0.23480620142197928
220	0xbfd61e220f952b18	-0.3455891754316993
221	0xbfd20d93b993464a	-0.282078677392836
222	0xbfc8ed7f52ac43fe	-0.1947478440929728
223	0xbfc91c39d33c17ca	-0.1961738854808444
224	0xbfcff3e31b0caee7	-0.2496303445890284
225	0xbfcd9ba322bd3934	-0.231312171900251
226	0xbfd1c95cd41176fe	-0.2779151984194498
227	0xbfbf4105f0ab0400	-0.12208592534717866
228	0xbfd20bdeeade7626	-0.2819745343821033
229	0xbfc78f6850e79fc8	-0.18406394911221313
230	0xbfc829dc4d330f20	-0.18877748269562122
231	0xbfcd296fc206621a	-0.22782704328416586
232	0xbfc37a0a9252f82a	-0.1521619047616139
233	0xbfc11e32d08d4044	-0.13373408492270944
234	0xbfcd3cc64ed73886	-0.2284171948398958
235	0xbfd459dbbfdecd54	-0.3179845212682342
236	0xbfd0dc0404e1950c	-0.26342869259527
237	0xbfd1d06ab40c8f32	-0.27834575255313887
238	0xbfcd6268ccfe958d	-0.22956571588035182
239	0xbfbb8ca478e9c177	-0.10761478378277
240	0xbfd74bb83271edc8	-0.3639965527179041
241	0xbfc38da83c19f502	-0.1527605336631624
242	0xbfd331ddde56cafa	-0.29991862023159366
243	0xbfd567f8d725231c	-0.3344709492708249
244	0xbfd512a6f5ce39d0	-0.32926343922090684
245	0xbfb58561694a7096	-0.08406647511077589
246	0xbfc9e8bb884bcacc	-0.20241493372994623
247	0xbfc9031c2f69e0d2	-0.19540741267315426
248	0xbfc029f32ae27c15	-0.12628020853023317
249	0xbfd7c5f2c94c3836	-0.37145681055051527
250	0xbfccf8bfb3717582	-0.22634121190905537
251	0xbfd025c13ba5a06c	-0.25230437111759474
252	0xbfd2533294bcf69c	-0.28632797742089067
253	0xbfd31260deeeac3c	-0.29799672861799187
254	0xbfcb22ce80c4ae1e	-0.21199971473230134
255	0xbfd26982f6f7c894	-0.2876899158283177

onnx::LSTM_119 f8 [1, 288, 72]
0	0xbfbd165126d9494c	-0.11362178038078702
1	0xbfaf7f713a949fc7	-0.061519182587573655
2	0xbfb5e32aca63483f	-0.08549754563435473
3	0x3fbcd376aa15a400	0.11260167744116245
4	0xbf9dae47cd6249a0	-0.028985139761582013
5	0x3f9ea7b074941f7e	0.029936558833497433
6	0x3f8ac82a1edd06e1	0.01307709604919033
7	0x3f950b999f576ea0	0.020552063322482383
8	0xbf92fafe05b2a4bc	-0.01853558454300662
9	0x3f9c16e88c1afb56	0.027431138564448197
10	0xbfa152cd0af06f4f	-0.033834846101142284
11	0xbfbe0abb0a58b367	-0.11735123636817733
12	0x3fb0ffb107160de8	0.06640154288293554
13	0xbfa03765259f9f4e	-0.031672631113734626
14	0x3fba0bf88a2e593f	0.10174516080437444
15	0xbf6daf91ff6960cc	-0.003623757507096403
16	0xbf98c04c45fce2a1	-0.02417105843707879
17	0xbfa5a923978d44b2	-0.04230605340001982
18	0xbfbda02467991df4	-0.11572482613802731
19	0x3f7e691fea8e2c5b	0.007424473450451686
20	0x3fb6a22fa1196fb2	0.08841226275529726
21	0xbfa569c0c9376c3d	-0.04182245689636275
22	0x3faff1c54ae6e66c	0.06239143885927664
23	0xbfb643ceae17ca29	-0.08697215795817982
24	0xbfb3a64ad91bf07c	-0.07675617027774878
25	0xbf7f6016236c45dd	-0.007659994581233201
26	0xbfb3cff1e05990b5	-0.07739173629085168
27	0x3fa8357ecafe0698	0.04728313663418965
28	0x3f9b406719190bc8	0.026612864405489295
29	0x3f5c72f23b5d2e54	0.001736389689045566
30	0xbf8de15a8b473bb1	-0.014589984298167243
31	0x3f9d3345062b2a88	0.02851589059973006
32	0x3f7cb3228ea13a49	0.007006773938043561
33	0x3fb156e28c5d78d5	0.06773200919039664
34	0xbf4706e65c1e6957	-0.0007027268222714972
35	0x3fba457262d2c9ba	0.10262217438393054
36	0x3fabefb2539b4682	0.05456311483943656
37	0x3fb4d8de798f6405	0.0814341589715611
38	0x3fa2724aa2ad6fdb	0.03602822528657131
39	0xbfb3deaa36f39ee5	-0.07761634675591329
40	0xbfb7b9f9241358e2	-0.09268147593261092
41	0xbf708d8fff6d538f	-0.004041254512078831
42	0xbfb1335fe278b659	-0.06719016341295382
43	0x3f97d5bddead5cd0	0.023276297298562565
44	0xbfb74332d13f1d97	-0.09086911781843408
45	0xbfa4cad8f98d56ad	-0.04061010404863672
46	0x3fa0a626f2fdc468	0.03251764026834608
47	0xbf932d2fa3dbc39d	-0.01872705876934654
48	0x3fb27eb8d535db9e	0.07224612431842423
49	0x3fada190d01efc58	0.05787327328243269
50	0xbfb38421de3e19d4	-0.07623492885441091
51	0x3fbce4948d768d05	0.11286285833061889
52	0x3faea777419ca979	0.059871413001320435
53	0xbfa37a3f35c4e1eb	-0.03804204493866677
54	0xbfba3bf49c01d7a5	-0.10247734841126872
55	0xbfb4277d0d68b39e	-0.07872754647605837
56	0x3f81ae1a0a9732ab	0.008632853935432413
57	0xbfbb4f10675acb7a	-0.10667517207438762
58	0xbfabb57a8ee21942	-0.054118947927281016
59	0x3fbd9d835e3f9d86	0.11568471003521638
60	0xbfbadd5275331c36	-0.10493960725135384
61	0x3fb25c671cb463c4	0.07172245455548337
62	0x3f8ab7ee1f1b86e3	0.013046131443334946
63	0x3fa57a35a8fef191	0.04194801032960805
64	0x3fa08fe6d9f314c1	0.03234788332478323
65	0x3fa60c06e378fc09	0.04306050802960477
66	0x3f96e1de385e47f3	0.0223459932236167
67	0x3fbad6c33acd07a1	0.10483951745575705
68	0x3f97d6382577ce24	0.023278119360794616
69	0x3f9dacda17d05655	0.028979690268974363
70	0x3f82e0b7882c9066	0.009217676013186526
71	0x3fa14732258cc9d5	0.0337463064992282
72	0xbf9b393b51bd98c9	-0.02658550917058092
73	0x3fa1a7e1513f6825	0.03448394886773113
74	0x3fbcbb7a052feba8	0.11223566652908679
75	0x3fbc764d05a5c62a	0.11118012798194657
76	0x3fa27f19b571ae53	0.036125949286397806
77	0xbfbe07357faed03a	-0.11729750029809419
78	0x3fb5e86526d13375	0.08557731816945398
79	0x3f9b623617e621b7	0.02674183388583781
80	0x3faa2fc163d4beb5	0.05114559501305164
81	0x3f9ea504e26f52e9	0.029926372833716384
82	0x3fb23c2bc8c5371e	0.07123063708897034
83	0xbfa9b4abc78d0bbb	-0.05020653544354255
84	0x3fbb0247a58a3060	0.10550353805064239
85	0x3f93734990ec8ded	0.01899447390600344
86	0xbf84394e436bc55f	-0.009874926979565655
87	0x3faf33fd66b4096b	0.060943526064891916
88	0x3fafa5d19e9a8fde	0.06181197224694278
89	0xbfb2e7a6977fdbc5	-0.07384720991818401
90	0x3fb8a6748664398c	0.09628990441362911
91	0x3f64867e0f1ee53b	0.002505537232505487
92	0xbfb858c09b1d37e9	-0.09510425364462062
93	0xbf9458e153deab6f	-0.01987030100250869
94	0xbfbb0e1a813c518a	-0.10568395285765156
95	0x3fb3f162956b5d04	0.07790199420866278
96	0x3f9063fdfd724bd9	0.016006439775605095
97	0x3faadb13c59a37d3	0.05245267665041777
98	0xbfaf85ee82e9aef4	-0.06156869266564327
99	0x3fa4c117da0b1927	0.040535683981533226
100	0x3fb28c3b0ec66953	0.0724522505828749
101	0x3fbc78804d61e4e6	0.11121370209902501
102	0x3f8bb3164ceb64b3	0.01352517530669881
103	0x3fb9aec7ad75e645	0.10032318100811562
104	0x3fb9a4e24d685e51	0.10017218007885133
105	0x3fb8b598947210b2	0.09652093528899533
106	0x3fb48bb7b47bf7ea	0.08025692135194587
107	0xbf9db42532c049ce	-0.029007512304881015
108	0xbfa140162741df4a	-0.0336920664712453
109	0xbfb5f1755a248e45	-0.0857156128955064
110	0xbfa60b53f94e7e6d	-0.043055175955711934
111	0x3faf6e681cd3a429	0.06138921119583813
112	0x3fae14c1e8d54857	0.058752116844190176
113	0xbfb82dde9c6d1529	-0.09444991415974315
114	0xbf6cdee98e3ccd01	-0.0035242616303549083
115	0x3fb4b33900469ae0	0.08085972077115455
116	0x3fb18fec87ab8500	0.06860235512023749
117	0x3fbb771d98f32aa1	0.10728631004455248
118	0x3f96178b45022b59	0.02157418831533717
119	0xbfb0b82f3a79a99a	-0.06531043222063318
120	0x3fa7d9e0cfa75b97	0.046584153507573216
121	0x3f70b4a221882d14	0.004078515361935393
122	0x3facf184127676b0	0.05653012013793324
123	0xbfb0b0dce8da2ec2	-0.06519871411199588
124	0x3fb794e1e5a39ea2	0.09211551529335307
125	0xbfb56ec9bbb9cb44	-0.08372174103878388
126	0x3faf0b50a86f46d5	0.06063320213401161
127	0x3f74dc592483b7fb	0.005092952931802226
128	0x3fb307b719c67803	0.0743364751747038
129	0xbfaaf9d1e9436c05	-0.05268722507909022
130	0xbfbd6fb1e30d8d67	-0.11498557847294465
131	0xbfbbfe0df2ea212b	-0.10934531384021244
132	0xbfbe0e975e917c60	-0.11741014536663519
133	0xbf9656bc9742383b	-0.021815249187561597
134	0x3fb649227d0538cb	0.08705344726806456
135	0x3fb7556cac09814d	0.09114722442746377
136	0x3fad9606ded500d6	0.05778523893468594
137	0xbfa2118ff0b18e2c	-0.03529023945955276
138	0xbfabe5e4b431f90c	-0.05448832225464359
139	0xbfb7d7f4dea8726b	-0.09313898502336719
140	0x3fb197e9e1c16267	0.06872426759344706
141	0xbf9e8520444f19df	-0.02980471054959277
142	0x3fa1c212acd4119c	0.03468378410073855
143	0x3fab9d5bb69f18f5	0.053934923212681264
144	0xbfa5ed39f884bdc1	-0.04282551916764588
145	0xbf9b4e5cd363b67c	-0.02666611709803711
146	0xbfa19712b5d8dedd	-0.03435572118581629
147	0x3fbd3c6f695be4c0	0.11420341799011435
148	0x3fa1380abdafe0b8	0.03363069119944967
149	0xbfa291ce6cb22e68	-0.036268664139325335
150	0x3fbbe4e272336385	0.10896125114540041
151	0xbfb66e338de61c09	-0.08761903967216268
152	0xbfb0d1bf99f6a8cf	-0.0657005072486385
153	0xbf8f6d39b01ff8ed	-0.015345049559979585
154	0xbfa1b259d984a875	-0.03456383495570573
155	0x3fb9e3a490a1b040	0.10112980395359816
156	0xbfb52ac77bf93f77	-0.08268400932979413
157	0xbfbd986341766a00	-0.11560650203902156
158	0xbf9ae17842cf65fb	-0.026250723912971435
159	0x3fb7f43a1245dfd2	0.09357035585514886
160	0xbf9bc84efdd05827	-0.02713130401760835
161	0x3fa108e526ce1a9c	0.033270989405584234
162	0xbf853f1b75608dfe	-0.010374273795668462
163	0x3f920f4e83d655ec	0.017636515423495355
164	0xbfa9fe039b45be9e	-0.05076609869399572
165	0xbf8060d999a09d6c	-0.007997226715885396
166	0xbfa8415dc26165ab	-0.04737370488937683
167	0x3fb16a6574c70503	0.06802972889910923
168	0x3fad5a7b0b62945d	0.05733093751886351
169	0xbf857b5552cfc8a5	-0.010489145841323053
170	0x3fb61ae57947b80e	0.08634790621701446
171	0x3fa70e080d5662bf	0.045028926494699466
172	0x3f9fb0dcbd4ea13f	0.03094811349333892
173	0xbf9992f28081aea4	-0.024974621861857074
174	0x3fb8be555a22922e	0.09665425730288099
175	0x3f9bec38f8baf7f0	0.02726830499772598
176	0x3fae644d7bd1314a	0.05935899864616319
177	0xbfb394bb77c68203	-0.07648822473721144
178	0x3fb4fbe4d3d01706	0.0819685952302188
179	0xbf744e50eed54dd4	-0.004957500595384318
180	0xbfabc1916818584f	-0.05421118159954174
181	0x3fa7c8ca274ef7f2	0.0464537785514806
182	0x3fa1e290785c85ae	0.034931673710399166
183	0xbfad93c5141e91dc	-0.05776801939581208
184	0xbfb51a6ecf0b8ffc	-0.0824345832330095
185	0xbfaea13a4cf299c6	-0.05982382001211621
186	0x3fbc2c29cfd89a96	0.11004887890212908
187	0x3fbd3f634e8d5944	0.11424847286011636
188	0x3fb978c60e6ac670	0.09949910976390597
189	0x3f8ba8b12feb4618	0.013505348467705722
190	0xbf68d1a343041ea5	-0.003029650564830027
191	0xbf8f5e2bfe42b8fd	-0.015316337296408461
192	0xbfab41005d5131e8	-0.05323029650807937
193	0xbfb17ad8c8983cbd	-0.0682807435734842
194	0x3fb553ce1d8a2366	0.08331001492673593
195	0xbf82bec3342c8172	-0.009152913121909665
196	0xbfb0c503d441631b	-0.06550620967881253
197	0x3fb9f3490810e3b0	0.10136848875926208
198	0x3fb2f5ab16368aaf	0.07406110088644867
199	0xbfa1634d8266e5a1	-0.03396074501820157
200	0xbfb920ff53338611	-0.09815974980622168
201	0xbfbbe6faf89b9177	-0.10899323052905695
202	0xbfb1e6d10ecaf2a7	-0.06992823229934207
203	0x3fba087b601dba70	0.10169192406258687
204	0xbfb67b2380f56987	-0.08781644724277814
205	0xbfb27fb7a9b48d52	-0.07226131337352129
206	0xbf9c4dc4823b07d0	-0.027640409897465024
207	0xbfbc56079e5e5f78	-0.1106877099649618
208	0xbfb48d0a6c2f7101	-0.08027711049311749
209	0x3fba008d13ffebff	0.10157090891145514
210	0x3fb42ad784d48603	0.07877871506618565
211	0x3fa9b395ff126f84	0.050198256861420126
212	0x3fba26d11f37c8e7	0.10215479862361897
213	0xbfa95e79e2ac430c	-0.04954892055514479
214	0xbf9c146523a548ce	-0.02742155103744253
215	0xbfb9196b79d09ed5	-0.09804412578580053
216	0xbfa9b20f3e19aef4	-0.05018661149082773
217	0x3fb5f55b50469378	0.0857750960336271
218	0xbfb8b7c4f7fe1c89	-0.09655409864909549
219	0x3fbafaec937b2832	0.10539129829990726
220	0xbfaf6d34205d0bb6	-0.061380032492273015
221	0x3f6d26a331fc1890	0.0035584628493579643
222	0xbfb1c241ba7c58dc	-0.06937037279962815
223	0xbfa68351f17681f3	-0.04397064278169074
224	0x3f9f0d6e452989ad	0.030324671717957653
225	0xbfa73631719a249e	-0.045335335843512
226	0x3f796d856e56019e	0.006207963194697545
227	0xbf9263d7b44fbf34	-0.01795899427446486
228	0xbf885e8fe7b6d73b	-0.011899112948281157
229	0xbfa75b9ca18e7213	-0.045620817872279805
230	0xbfbc854139fc887a	-0.11140830674824712
231	0x3fb9a6af9674d603	0.10019967482806895
232	0xbfa2ad7e389548d5	-0.03647989693367185
233	0xbf817d48b5ce007b	-0.008539741562117556
234	0xbfa10366fd97d2a9	-0.033229082542594775
235	0xbf8fc3b6244cc136	-0.015510008795530977
236	0x3f9a18ab7963725c	0.025484732898677684
237	0x3fb7b99c7e7c3853	0.09267595375078601
238	0xbfb0e84710a321f1	-0.06604427486593757
239	0x3fa52498b5a9d909	0.041294834304539015
240	0x3fb186469da05162	0.06845513675972861
241	0xbf5d7a0fdb8690c8	-0.0017991213663686601
242	0xbfbd1392bb17151a	-0.11357991283064842
243	0xbfb0eb1e3a2d95a1	-0.06608761711466694
244	0xbfbca3f6fd6874c2	-0.11187690436095735
245	0xbfa6bb7c3d440f25	-0.04439914939760418
246	0xbf9d14698b371c3a	-0.028398179170633343
247	0x3fa87cc1e0dd5198	0.04782682294777202
248	0x3fa0ca2d4a396961	0.03279248744066155
249	0xbfb8a80f6fb28cc7	-0.09631439663876327
250	0x3f7be8a942703986	0.006813679857272331
251	0x3f8aff0297cc05e9	0.01318170572040152
252	0xbfbd53fba5be5732	-0.1145627288481961
253	0x3fb025ec5b9a271a	0.06307866321926917
254	0x3f7ea30b219ddb67	0.007479709130953838
255	0xbfa023a38cdd13ee	-0.03152190298582257

onnx::LSTM_120 f8 [1, 576]
0	0x3fc4fa4fa2bbe6f0	0.16388888784404498
1	0x3fc951b5f14aace1	0.19780611306973753
2	0x3fcf38ba12efbaa3	0.24391866612082422
3	0xbfb145bd0ef51f7b	-0.0674703752057421
4	0x3fe089b1ec17a3be	0.516808472745758
5	0x3fdabf117f9de2d7	0.41791188681194796
6	0xbfe27b6c68cb9402	-0.5775663420469075
7	0xbfbb398d3d260745	-0.10634691946873172
8	0x3fdc33e4fa2349b5	0.4406673853638055
9	0x3fb292376d4089f1	0.07254358689582553
10	0x3fc3db0e0c35e3bb	0.15512252422538872
11	0xbfd97ca01679fff1	-0.3982315272805855
12	0x3fab2977b674f31b	0.05305074789291649
13	0x3fb3a806efd0c02f	0.07678264002675016
14	0x3fe068e8a1bee958	0.5128062399956361
15	0x3fc916d9b04e9b6f	0.19600983723395468
16	0xbfd33553d03d25ad	-0.30012984596086306
17	0xbfebb7e4f694efc8	-0.8661980453539337
18	0xbf7b659f8e7a6882	-0.006688712375444552
19	0x3fa9e4b8d2c7a5ab	0.05057313511845093
20	0xbfd7e21d790e0847	-0.3731759721923748
21	0x3fd7cc1a7ea8bbff	0.37183248871855307
22	0x3fc29bc44f571abf	0.14537862657581077
23	0x3fd613c1b8f69b07	0.3449558550150162
24	0xbfb075533f026fe2	-0.06429024017637588
25	0x3fd7aec7e7ec658f	0.3700427784802622
26	0x3fccb3c8706c6a87	0.2242365406935571
27	0x3fd65bd36747da1d	0.3493546017265617
28	0x3fd74c5278b8f1ff	0.36403333463002235
29	0x3fc744ff031c7205	0.18179309513006117
30	0x3fcd58a147bf2f30	0.22926727298033134
31	0x3fc35fc36402dc17	0.15135996230466794
32	0x3fcb04760e7fa795	0.2110736437601274
33	0x3fbd598092b9c113	0.11464694578331018
34	0x3fd404342e3ad53f	0.3127565814459849
35	0x3fd1c23807adddf8	0.2774791789047124
36	0xbfd952ff9736f7b8	-0.3956908203798508
37	0x3fce171247a0925e	0.23507908341811662
38	0xbf908fcd8bf19edb	-0.01617356459283213
39	0x3fd1b6af8d89bcce	0.27677525350641197
40	0xbfdaab6d407ed0a9	-0.4167130594098674
41	0x3fd5c2e79fa90dd2	0.34002104369957664
42	0x3fbd0b3909c94555	0.11345249642297024
43	0x3fe02a87661c70d2	0.505191516338096
44	0xbfd8e52c7e4fa6c5	-0.38898765883514513
45	0x3fc90a0f34a16b83	0.1956194884286014
46	0xbfdceccf81e7af77	-0.45195377050435276
47	0x3feb2999bec376e8	0.8488281942224747
48	0xbfc3b15c78a714ba	-0.15385013476603665
49	0x3fb9807ed27d2663	0.09961693419350008
50	0xbf9df196a1de5c4a	-0.029241899137187034
51	0x3fd744cc39df3f2f	0.36357408191269064
52	0xbfdc9793156bc972	-0.44675137607477844
53	0xbfc408d012b7556d	-0.15651894487261178
54	0xbfd1f69525d1f743	-0.28067520802857276
55	0xbfec865797446e06	-0.8913991884650734
56	0xbfb2a3e403e38643	-0.07281327338162051
57	0x3fe72945aafe18b8	0.7237881030748872
58	0xbfdb534b8bc643c9	-0.4269589295373036
59	0x3fcde60bd1b61df8	0.23358295192541312
60	0x3fc18a2b31e23829	0.1370290750095944
61	0x3f61adfeacdb2625	0.002158162510430344
62	0x3fe0a04f85e2b844	0.5195691695169065
63	0xbfdf0b82f44a953e	-0.4850776086480727
64	0xbfb396c321c15fce	-0.07651919912439029
65	0x3fca46bf5d0ace12	0.20528404276920803
66	0xbfd90e6ffdfc2669	-0.39150619319170815
67	0x3fe9b0c9529f5519	0.802830373164997
68	0xbfd7bddb5a7fea19	-0.370962942484455
69	0x3fc98b4935dcd895	0.199563170719277
70	0xbfe02af8ca0f8f46	-0.505245585107766
71	0x3fd230fdf81e1fd1	0.2842402384781027
72	0xbfaeed3d8f619483	-0.060403751137337224
73	0x3fc5fc3454917ee7	0.17175916795075993
74	0x3fd330446e73ced8	0.2998210028301691
75	0xbfdc4b186c622000	-0.44208345970446317
76	0xbf97b74f54499049	-0.023160209197513635
77	0x3fd976cacad93d8f	0.3978754979079548
78	0x3fbd6983078fab81	0.11489123282050963
79	0xbf906f6cccdea972	-0.01605005264688359
80	0x3fd2a4f3cfb718ed	0.29131789478959896
81	0x3fd1bc56996e38e5	0.27712025626614284
82	0x3fd3680a61852da4	0.3032251312585805
83	0x3fd12b3ea599f8fb	0.2682644478990281
84	0x3fcd7483dd8cd796	0.230118258646766
85	0x3fcdf433b323d0df	0.23401495215478627
86	0x3fdd63560db7912d	0.4591879972415594
87	0x3fc8eff823ad8c35	0.19482328168951005
88	0xbfe992e10f9be93a	-0.7991795830596751
89	0xbfeb81f6c0b40f12	-0.8596147311913873
90	0x3fde174e6234b6f0	0.47017249670430683
91	0x3fbd6f70401da393	0.11498166623427002
92	0xbfda9d6808223afb	-0.4158573226385866
93	0x3fd23aa77e6a85fa	0.28482997269938404
94	0x3fd4090fe05d2f29	0.31305310164019545
95	0xbfe27f126f9f6ec2	-0.5780117206699844
96	0xbfd8b83e87e7560d	-0.38624537727204783
97	0x3fd256e16a306034	0.28655276651398087
98	0x3fd6c8a7d8247233	0.3559970484509762
99	0xbfd54f4252708ee0	-0.3329625897479058
100	0x3fccc426c0e94933	0.22473606509681474
101	0xbfdd82514a1b1dfb	-0.4610789512339292
102	0xbfc588f913e90ace	-0.1682425830095639
103	0x3fefa8a2ccd86198	0.98933544167362
104	0xbfd977ce76a3d232	-0.3979374083130863
105	0x3fb725c0e10030bc	0.09041982167417734
106	0x3fdb7a41ff68677d	0.4293370241372186
107	0x3fd30f60ba31af72	0.2978135889340968
108	0x3fb33d86bd4b9c43	0.07515756722897131
109	0x3fcb2817a4ef1e1e	0.21216102174206325
110	0x3fca887ca54af3e2	0.2072902495473548
111	0x3fabfd62b11c8d46	0.054667553062496085
112	0x3fb314c76360c268	0.07453581024379619
113	0x3f87246d5e746fe1	0.011299948163063735
114	0xbfd44fa6f96fccd2	-0.31736158713392826
115	0x3fee471c42e82dbc	0.9461804682518316
116	0xbfa71bdd981f5094	-0.04513447267496065
117	0xbfdeb1f292bd3c32	-0.4796110566139219
118	0x3fe1e6e4cbb8d953	0.5594352702089885
119	0x3fa23e6c07523f41	0.03563249196406427
120	0x3fd1639a31cf933a	0.2717042433198916
121	0x3fc9c5cb864c4f45	0.20134872491382275
122	0xbfac408bf69fa80b	-0.05517995248358439
123	0xbfd8991c28de5bbc	-0.38434509268830275
124	0xbfe398b1e2e96737	-0.6123895103330373
125	0x3fe393a95fc47ab6	0.6117750997981009
126	0xbfded07a697e153e	-0.4814744978142079
127	0xbfdfa1c3ccc14470	-0.4942483424720825
128	0x3fa1a07bbe909c75	0.034427515995326376
129	0x3fe57133a92a703b	0.6700685791033786
130	0x3fb89dffba0bfc6e	0.0961608723846312
131	0x3f9a4727cad00682	0.025662061456392944
132	0xbfde286e5ef6aab4	-0.4712177207353918
133	0x3fd3a0765cb4bedf	0.3066688447315595
134	0xbfd53fab47d5738b	-0.3320110513212106
135	0xbfc90932c8fec2f0	-0.19559321226326842
136	0x3fd8b24f16fc54cc	0.38588311428732136
137	0x3f9052d06b2aa8ea	0.015940910855229008
138	0x3fd909ac3c3134e3	0.3912153804602225
139	0x3fea5669fa879765	0.8230485814244558
140	0xbfb5897db19db7ef	-0.08412919603662748
141	0x3fc849ed04d0e071	0.18975603804733823
142	0xbfcc94dd2f76df72	-0.22329296891779965
143	0xbfc86a373da1edc9	-0.19074144849206068
144	0x3fb7cb7d18307a10	0.09294874039230927
145	0xbfb764a36ccd8e5e	-0.09137936979601011
146	0xbfa8d619e7187b25	-0.04850846239081922
147	0x3fa65c3a3f93f890	0.04367239023302816
148	0x3fa4e4a4fa847485	0.04080691869806067
149	0x3f97ec7ab69d12e5	0.023363034625861884
150	0x3fa37d63bdd598e9	0.038066021845951266
151	0xbfa6ecc5f7c6b774	-0.04477518701183572
152	0x3f9f1b5d289fa656	0.03037782249876949
153	0x3f7103ddd57ee750	0.004154078043876755
154	0xbf9f335d3231016c	-0.03046937579006352
155	0xbfa895806e40fb8f	-0.048015607317657964
156	0x3fb248a2da671cae	0.07142083961581377
157	0xbfae74fff1a45fcc	-0.05948638748867516
158	0x3fa759ea4c32beb1	0.04560787372736053
159	0x3fb95aff8d01798f	0.09904477303050484
160	0xbfb0763b4e90b0a0	-0.06430407207580169
161	0xbfb69c931cee8d4e	-0.08832663971275176
162	0xbfaa2b3ecafc84c6	-0.05111118533955898
163	0xbfbc185c15194053	-0.10974669947722875
164	0xbfa101c66003893b	-0.03321666643184292
165	0x3fb23fe287eb0c09	0.07128730600656764
166	0x3fa7cbc6667c1326	0.046476554880462026
167	0x3fb6e1da1fdde5b0	0.08938372877118783
168	0x3fa3958e04bf9dc6	0.038250387267733596
169	0x3f96c4346a6dd20e	0.022232836719426934
170	0xbfb59763dfe39e36	-0.08434128013652117
171	0xbfb9cb860ab5e52e	-0.10076177369582659
172	0xbf815e8a1ff0f613	-0.008481101131219615
173	0x3fb5171c7621480b	0.08238389858277644
174	0x3fbd11f08653adc7	0.11355498580422028
175	0x3fb04d1e0584521f	0.06367671618165403
176	0xbfb3ff7d7f6d83a2	-0.07811722146062874
177	0x3fbdac5440eb0bd2	0.11591078362384558
178	0x3f81f9bfa9f8994e	0.008777139067274089
179	0x3f94fa53ed320354	0.020486174919372616
180	0xbfb2e6c0b339d56d	-0.07383350730545653
181	0x3fb31cea1bcc8d82	0.07465995005309448
182	0xbf9e7a4449022e58	-0.029763285595022587
183	0x3f8d88cb1b16f4a3	0.014421068920336849
184	0x3fade38847d8c29c	0.05837655903849745
185	0xbfa44f1fb77fe867	-0.039666167402132406
186	0x3f96beb2a80963f2	0.02221182966818342
187	0xbfbba78abf3fb5cc	-0.10802523774301348
188	0xbfb7edb1cfc79219	-0.09347068140738947
189	0x3fb73198c9e0788b	0.0906005375731828
190	0x3f92e14f81bc7e8d	0.018437616628146847
191	0xbfb81a5308b7e421	-0.09415167773103451
192	0xbf9367e07a895057	-0.018950946311022978
193	0xbfa025f911028f7e	-0.031539710356155645
194	0xbf96fb4505cde0f0	-0.022442892531643943
195	0x3faea540c074d829	0.059854529851165524
196	0x3fabe4208cefaa1f	0.054474847034573275
197	0x3fb8ed95df859f23	0.09737526614264573
198	0x3fb3d7ebd67ea911	0.07751344668091444
199	0x3fbe0f41699e0301	0.11742028072877632
200	0xbfacfa3d766a36b1	-0.056596680359786496
201	0x3fbb1859d9cc05da	0.10584031646069239
202	0x3fac9ada27ca1a60	0.055868928296196385
203	0x3fb5b5761f99f103	0.08480013152615488
204	0x3fb22d5feb539ce7	0.07100486274031291
205	0xbfb52ac799d71c26	-0.08268401628366515
206	0x3fbc586b2ee77b52	0.11072416205523197
207	0x3fa9d25d392badf0	0.05043307612308101
208	0x3fb9b4c66f4ee165	0.10041465966685832
209	0xbfb590f2d02f7f5a	-0.08424298842100822
210	0xbf4682e3a5424bbd	-0.0006869899321081324
211	0xbfb6d2920aec1451	-0.08915055052428157
212	0xbf7c909e1b27f227	-0.00697385559260203
213	0xbf9e4976067069b3	-0.029577106612217196
214	0x3fa5b7820d07a2ee	0.04241568001800099
215	0x3fb47298150df1b0	0.07987356676125645
216	0xbfc878598e27d07a	-0.19117278519809472
217	0xbfc15e47633bb447	-0.13568966241237687
218	0xbfda069d0969432f	-0.40665365141926463
219	0x3f8ff33209f8b159	0.015600577287010852
220	0xbfd41eb960d55099	-0.3143752523076358
221	0x3fbdbd0fae7fe57b	0.11616609583133723
222	0x3f99e9264cb8ca83	0.025303457672814843
223	0xbfd48b809fbac43b	-0.321014553056617
224	0x3fdb40978c458c2e	0.4258173818436174
225	0x3fd27efd30a1bc45	0.28900079487988634
226	0xbfe3dcf81b46a14b	-0.6207237751705547
227	0x3fba06999d72345c	0.1016632089033051
228	0x3fbd958c32dbbdc0	0.1155631660619667
229	0xbfdb6cd0bf6afded	-0.42851656621129913
230	0x3fe1a0bcb07e4a61	0.5508712241301731
231	0xbfc60fa9a4a8c2fe	-0.17235298671723592
232	0x3fc4b7449846ab66	0.16184289393762724
233	0x3fbc0f3bab5bb535	0.10960743840742711
234	0xbfbcac5f7f45cd8e	-0.11200520379298082
235	0xbfd3078c7124e1b3	-0.29733573006844977
236	0xbfd4139b5127a79e	-0.31369669842990244
237	0xbfa0053955a34c5d	-0.03128985567459417
238	0x3fc88e94dae8f597	0.1918512410065147
239	0xbfe1b8b32fe2974c	-0.5537963805443069
240	0xbfd0b5e50aea41a8	-0.2611019713013101
241	0xbfd239a991688303	-0.28476943206810307
242	0xbfc297205cb516bb	-0.14523701216437765
243	0x3fe1d64bb34d37c3	0.5574091436371805
244	0x3fd4172c76778196	0.3139144093420553
245	0xbfb3dcc3e768c93b	-0.07758736037866225
246	0xbfa1ffcbc7b9b51f	-0.03515469372801249
247	0x3fb9f17cbaea4b7b	0.10134105265960429
248	0x3fc9f7b42c8eddf4	0.20287182021796435
249	0xbfe1fedafd57227a	-0.5623602817586992
250	0x3fc973cb52257395	0.19884625922250324
251	0x3fd99741acdaad1e	0.39985696678441396
252	0xbfd185f06a8577e2	-0.2737999954459821
253	0x3fd436ba6da4cdf5	0.3158403464069289
254	0x3fcb913bca70f762	0.2153696764452731
255	0x3fc7cda87c515e70	0.18596368856627832
