model/onnx_model_LSTM.onnx (onnx, 585934 bytes, 5 tensors)

fc.weight f8 [7, 72]
000000 11 61 22 3e 13 ce 86 3f 66 62 1a c8 67 bd b9 bf
       0.011135244687736663 -0.10054634700134954
000010 5a 7b b7 10 e0 8c d9 3f ff 20 31 4a ef f9 c0 bf
       0.399223343205383 -0.13262740252162783
000020 97 88 26 a6 0e 44 df bf 2a 2f 50 85 d8 7e d3 bf
       -0.48852888322483906 -0.3046170522581969
000030 48 a0 f4 27 97 ce eb bf 2e e2 09 82 4f 52 f8 bf
       -0.8689685612089386 -1.520095355952559
000040 01 0b 30 4e 9e 37 c1 3f b4 18 8f f9 6a 12 d7 3f
       0.1345098382735941 0.36049913760178787
000050 7f 04 a6 20 c2 fb a6 3f a6 26 8a 09 58 bb c7 3f
       0.04488951347867331 0.1854047819691022
000060 74 27 01 6b 24 e1 c6 3f 2d f5 d7 e5 03 56 ad 3f
       0.1787457964404059 0.05729686909396956
000070 63 06 b7 a6 f9 c0 e4 3f 24 0a 57 c2 fd 43 96 bf
       0.6485565429831691 -0.021743741022655652
000080 64 31 50 4a 4b 75 fb bf 48 83 51 48 25 88 f1 bf
       -1.7161362555371733 -1.0957386803567761
000090 5a 99 62 9a 1b 9d d2 bf 13 15 18 95 61 f2 d8 3f
       -0.2908391006152634 0.38979377326934744
0000a0 9f a3 a3 05 85 1f d7 bf 68 c8 67 42 97 17 b0 3f
       -0.3612988047666991 0.062859967911011
0000b0 41 34 78 b4 5f 45 d0 bf 25 5b 12 04 40 d2 bd 3f
       -0.2542342436216281 0.11648941134840791
0000c0 d5 e1 15 ae fa d5 94 bf c7 d1 c8 71 90 4d 9b bf
       -0.020347515940985012 -0.026663071579791777
0000d0 e4 69 2e 0f 8f 58 bd 3f 13 24 09 6b ee a8 e1 3f
       0.11463255043637549 0.5518714991131922
0000e0 b0 35 7d 30 97 55 cf 3f a1 13 78 4a 68 18 c8 3f
       0.2447995173228441 0.18824485431846674
0000f0 b8 ce 80 1c e2 ac c0 3f 1c 47 58 d5 01 8e dd bf
       0.130275978009754 -0.46179242929894015
000100 cb 5b fc d0 6f 0d d1 bf d9 98 44 d2 72 3a a5 3f
       -0.2664451161267009 0.04146155182597661
000110 a7 01 37 dd c3 f3 f3 bf 0d b9 38 a6 42 ff bc 3f
       -1.2470129624563044 0.11326996381896866
000120 36 f5 8c 19 e4 1c b7 bf 42 22 04 6d 8c d0 c1 3f
       -0.0902845919017253 0.1391768963151368
000130 c2 99 94 c9 51 03 bc 3f 30 80 0d d0 42 c3 b3 bf
       0.10942565127752515 -0.0771981962147954
000140 40 80 93 dc 72 d6 e9 3f a7 43 d0 62 fd 6b b4 bf
       0.8074278171661788 -0.079772793411634
000150 75 74 df 48 93 15 ff 3f 89 0d 40 4b b4 c1 d1 3f
       1.9427674147221101 0.27744777058270437
000160 ad c6 e0 5e 0b 02 9d 3f f2 7a 32 73 01 05 d9 bf
       0.02832811132993267 -0.3909305214855713
000170 45 8e e8 1e 97 23 b8 3f 45 70 64 7d 58 fa 66 bf
       0.09429306511497611 -0.0028049209896732507
000180 12 22 fd 9a 1b 9c cd 3f 59 f0 2d 8f 9e a4 85 3f
       0.23132653301060252 0.010567892784585963
000190 2b b8 5a 1f a8 3e d1 3f ad 0b 3c e8 3f 42 e3 bf
       0.26944926320982415 -0.6018371139365307
0001a0 b8 14 c0 f4 20 e3 cc bf b1 8a 93 42 ea ee b0 bf
       -0.2256814189023879 -0.06614555478476337
0001b0 ec dd 99 ef 10 30 b3 bf 50 b1 47 1e ba 12 a6 bf
       -0.07495218133578135 -0.0431116258585883
0001c0 55 5e 55 6f 3c af c2 bf 25 6f 38 af ef 51 b7 bf
       -0.1459727805729353 -0.09109399822085303
0001d0 95 07 c0 4f 4f 66 cc 3f a9 3c e9 ea 7e 0d 00 c0
       0.22187224763916605 -2.006589732401683
0001e0 39 d1 86 ef b8 fd d0 bf e1 8d 77 a6 a6 92 c1 bf
       -0.2654859866263624 -0.13728793266555697
0001f0 a0 b8 13 6b 22 90 88 3f ba 11 c5 af 2b 92 f2 3f
       0.011993664639217194 1.1606861940391426
000200 e4 3d 7f 78 2e ef ad bf 9e 8d 8b 6b 24 66 f5 3f
       -0.05846543522750006 1.3374370766622188
000210 37 07 4a 76 f2 bd e3 3f 86 da 16 50 c8 68 c8 3f
       0.6169369039855387 0.1906977072773836
000220 af c3 70 4b b6 8b c8 bf eb aa 07 68 09 5f d1 3f
       -0.19176367457978702 0.2714255824964044
000230 96 d2 12 ab c9 32 94 3f 1f e9 92 b7 06 c3 d6 bf
       0.019724989954470994 -0.3556534569467135
000240 65 6f 80 27 cf 8e e8 bf 6c 84 2d 16 af a6 a4 3f
       -0.7674327632443975 0.040334197480441286
000250 a8 d1 a5 64 71 66 cf bf af 70 ef 6e 86 72 a8 bf
       -0.24531381048622092 -0.047748757402332635
000260 4e b0 ad 6f f3 f2 d1 bf c1 35 26 07 b8 e4 d4 3f
       -0.28045354753590324 0.3264598913018198
000270 ce 02 fe 82 6b 09 d1 3f cd 1a 8d 5a d8 c7 f2 bf
       0.26619994919023504 -1.173790315356814
000280 90 de 47 08 cd 94 c8 3f 2e f1 ac 4b 6e 88 d5 bf
       0.19204104332287786 -0.336452077772054
000290 46 c7 03 b8 3b d3 b1 3f 1d 51 89 57 b4 8a b9 3f
       0.06962941401050413 0.09977271210783951
0002a0 b0 1a 7a 3c 89 1a c5 3f 0b a0 89 8b 35 1f a7 3f
       0.16487231686570203 0.04515998199786971
0002b0 57 f2 d1 0f c8 0f f0 bf a3 1d 2b fc 3e cf 92 3f
       -1.0038529031727614 0.018368705884112334
0002c0 ca a6 53 31 ad 60 d3 3f 76 47 1a 22 92 9b e3 bf
       0.3027756673533132 -0.6127405801837387
0002d0 4c f7 f0 22 e4 56 c3 3f d0 12 ef c8 d8 7e ea bf
       0.15108920770756595 -0.8279842304696903
0002e0 73 96 64 08 7d 2f c1 bf 43 17 fb 76 0d f7 a6 bf
       -0.1342617312413271 -0.04485361173060067
0002f0 52 0f 88 0b 6b e0 dd bf 28 f4 c1 95 b8 e7 d3 3f
       -0.466822396527495 0.3110181295849679
000300 f3 7b 0b 95 68 c6 a3 3f d4 67 69 21 6a 10 94 bf
       0.03862311190982117 -0.019593866624155812
000310 09 14 cd 0c 12 91 a9 bf 40 a8 d7 05 5a dc dd 3f
       -0.04993492513907689 0.46657419748828843
000320 a4 0c 09 fa d6 6f da bf 65 78 0c 60 d2 81 78 3f
       -0.41307615678324283 0.005983182695471799
000330 8f ca f6 37 fd 68 bb 3f e6 1f c5 a5 a6 04 c3 3f
       0.1070707570677689 0.1485794362472454
000340 fd 5d eb 92 b6 b7 d4 3f 8c 7c 95 14 d5 1f ad 3f
       0.32371296260450305 0.05688348652142236
000350 d2 ad 88 fa da 2b d2 3f 1f fc 69 53 c0 83 b3 3f
       0.28392672029687305 0.07622911488032046
000360 0d a5 0b b5 e7 6f 00 c0 d2 21 6f 70 b2 1f 7b bf
       -2.054641165178174 -0.006622025516613355
000370 63 24 09 0a ac 70 b4 3f 4f f3 37 d7 c5 7a a8 3f
       0.07984423871052253 0.047811682245060376
000380 8a e8 8d 97 f8 87 e9 3f cd 55 6c c6 d5 3e de 3f
       0.7978480300946711 0.4725851476408394
000390 dd 58 2c 8e 95 f5 d9 bf da 88 67 95 35 5c d8 3f
       -0.4056142700586756 0.3806280097034126
0003a0 1a 2d a9 2d a4 54 a7 bf 54 54 86 d0 99 f6 e6 bf
       -0.04556763703711848 -0.7176026413677712
0003b0 65 57 18 75 5d a8 89 3f ac aa 03 95 90 c4 c1 3f
       0.012528162132223472 0.1388111808403968
0003c0 b9 26 77 35 c4 02 cf bf 4a 61 ea 84 d4 8e 61 3f
       -0.24227192507378506 0.002143302036824367
0003d0 fc 23 f5 5e 4a d1 da 3f b5 ce 6e 49 cf ba d1 3f
       0.4190240790672417 0.2770269600980371
0003e0 2e 9e b2 38 dd 14 6c bf aa b3 4e 35 b9 d7 b0 bf
       -0.0034279175502722947 -0.06579167891932394
0003f0 ef 3c 89 82 6e c1 e1 3f 8f 8c a0 23 22 cc b1 bf
       0.5548622655423098 -0.06952107782176341
000400 ff fa ee 38 c5 05 d9 3f 87 33 aa 16 00 ee ad 3f
       0.390977197264803 0.05845642353697316
000410 42 70 2c 93 bf a3 c9 3f 18 05 0b 11 3c 39 d1 3f
       0.2003097027417216 0.26911832489357
000420 1e d7 06 ad 15 db c6 3f 69 b9 1b 9d ca 6e c8 3f
       0.1785609335763007 0.1908810870294915
000430 78 6b fc 70 d1 e0 ba bf 3c ea a7 f3 a0 f0 e0 3f
       -0.10499295242736462 0.529373622789826
000440 ba de a8 e7 93 a2 d3 bf 9a e5 0d 70 77 23 eb 3f
       -0.30679795859348824 0.848079413276696
000450 81 13 a6 95 38 e9 d7 bf 0f aa 1f 22 c6 ed f0 3f
       -0.37360968221792495 1.0580502827602947
000460 b6 9c d8 b2 40 37 db 3f bc b3 11 59 1d 38 c9 3f
       0.4252473589462612 0.19702498292045145
000470 ee 7e 37 70 20 0f a1 bf 49 32 28 47 b5 49 e2 3f
       -0.03331853265603778 0.5714975728784079
000480 df 55 cf 94 49 94 ee bf 53 c2 8d 8f 8c 54 a9 3f
       -0.9556014925425947 0.049473183177614864
000490 21 98 fc 66 b8 cf c1 3f f9 21 37 a4 51 84 ba bf
       0.13915162113806992 -0.10358152636684527
0004a0 4a e1 93 eb 10 2a da 3f 78 9b de 85 6e 9f ce bf
       0.4088175106585551 -0.23924047028159712
0004b0 ab 97 ec 9f 8b 48 b9 3f 3a 97 02 ab c0 ab e8 3f
       0.0987632050933757 0.7709658947030456
0004c0 2f 6f af a1 5a 41 ba 3f 9c 64 43 66 75 02 aa 3f
       0.10255972335238249 0.05080000756579148
0004d0 6e 95 14 eb a0 44 b8 3f 33 ff a2 58 e9 41 ae 3f
       0.0947971891333361 0.0590966149043183
0004e0 39 3e 16 28 ca 77 c1 bf 51 0a 50 6f 88 c9 c1 bf
       -0.13646819074027564 -0.13896279750049925
0004f0 42 c9 c6 95 09 fd fa bf 5f 2d fa ea 74 65 76 bf
       -1.6867767191548215 -0.005467850409000745
000500 1c 38 20 59 20 c4 93 bf 6b 80 f1 e7 c6 c3 ef 3f
       -0.019302850189028317 0.9926485567230093
000510 96 06 fe e7 11 ad b0 bf 6c 79 de 76 72 9f e2 bf
       -0.06514083780168742 -0.5819637605343764
000520 88 e0 85 53 76 96 aa bf 1b 52 f9 10 03 4c b3 3f
       -0.051929185577081205 0.0753786007347305
000530 15 78 2d c8 18 47 d8 3f 6f 3e 8d 39 21 7a d9 bf
       0.3793394045695789 -0.39807921047483935
000540 a3 cb 83 cd 53 ed ac 3f 6a 9d 3d 6e 3d 42 7e bf
       0.05649816402173904 -0.007387390101804095
000550 cf 68 4d bb e3 60 a1 3f 78 e4 a2 12 87 6d e4 bf
       0.03394233380704891 -0.6383700717916687
000560 fe 56 b7 a4 fe 20 ca 3f f1 45 47 7d ea 4f c0 bf
       0.2041319183614902 -0.127438841982936
000570 c1 0e 30 80 ec dc c0 bf 38 bc be 74 38 d9 d7 bf
       -0.13174206027189508 -0.37263308907398907
000580 16 f4 e7 b2 d5 d1 d1 bf 5a 09 93 41 6b de a0 3f
       -0.2784322974328587 0.032946922068293374
000590 54 52 c4 48 80 b2 db 3f 13 d6 76 ef 8c 4b ac 3f
       0.43276984316006417 0.055263904792280404
0005a0 d5 66 09 d9 2b c8 e4 3f ed 49 29 06 14 ee a1 3f
       0.6494349707602064 0.035019517662153145
0005b0 a4 21 62 bf fd a6 a3 bf f6 0a 07 ff dc 1e b4 bf
       -0.038383416759703054 -0.07859593607194512
0005c0 39 b9 39 1d 14 52 f5 bf f0 5e 4a 4b 83 7d ce bf
       -1.3325387136097346 -0.2382053487424325
0005d0 da 89 0b f8 3d ca e5 bf 04 f6 2a f1 93 30 d1 3f
       -0.6809377522116009 0.2685899596361596
0005e0 68 00 3c 32 ca 35 c7 3f c6 f7 53 9f d6 9a f9 3f
       0.18132903530932087 1.6003023360967616
0005f0 32 a5 7e b9 71 b7 8a 3f 33 8b 36 f8 59 31 b1 3f
       0.013045204614018677 0.06715929326905438
000600 c3 a6 20 05 ac ab b3 bf 61 52 a8 f9 69 d6 c1 bf
       -0.07683825612243837 -0.13935589494998893
000610 e9 41 8e f6 2c 44 f1 3f 56 fd e7 af 51 5d c9 3f
       1.0791444426614538 0.1981603726307905
000620 39 c1 eb e0 d5 46 86 3f 51 e3 09 b3 2e 81 bc 3f
       0.010877295424024257 0.11134616728840042
000630 b0 b1 f7 16 6b 1a d4 bf 60 97 10 33 cc 1e 9e 3f
       -0.31411244624066637 0.02941435872721543
000640 5c 61 23 27 fe 5a c6 bf d4 d5 70 d2 6a 0a bf bf
       -0.1746518794159425 -0.12125270498002944
000650 5f 71 11 84 52 91 79 3f 7f 02 0c 94 10 52 db 3f
       0.006242105796527702 0.4268838353891979
000660 52 94 36 ec 33 cf d2 bf 29 cb 0c 6e cb 61 d5 bf
       -0.2938966566819704 -0.33409391161983365
000670 cd b3 65 a6 45 e8 c7 3f 8c bd 05 2c f3 55 ee bf
       0.1867758810507482 -0.947991929990097
000680 36 f3 f8 2a 6c 2a e1 3f a1 b8 4d 79 45 38 e1 3f
       0.5364285315805322 0.5381190652094753
000690 50 26 a2 ca e3 95 c4 bf 99 25 99 4a 74 34 f2 3f
       -0.16082427400788157 1.1378062166207654
0006a0 78 76 fd 44 68 31 ce 3f a3 61 78 ba 67 39 dd 3f
       0.2358827912202519 0.4566287346838413
0006b0 b9 04 dd 7e eb f2 ac bf ed 26 d6 00 70 ca e3 bf
       -0.05654083179116171 -0.61846161044488
0006c0 e2 6b f4 57 e5 e6 d2 bf 35 ee f6 3a 40 ce b5 3f
       -0.2953427657063782 0.08517838897289993
0006d0 1a 1b b5 b6 88 ca dc 3f 80 78 dc dd 73 05 dc 3f
       0.4498616966488257 0.4378328005422034
0006e0 00 ed 3d 58 b6 33 e1 3f 26 f3 95 2d cf 40 d8 3f
       0.5375625346636355 0.37895564510090407
0006f0 6e b3 8a 00 57 0d f0 bf f3 02 02 07 de 30 da 3f
       -1.003256799808891 0.40923262295113644
000700 dd 02 89 b0 cc 6e d5 bf a8 e0 df aa 44 c5 c4 bf
       -0.33488766898885364 -0.1622701486919642
000710 ae cc e9 d6 58 07 a4 3f 92 c6 13 28 2b b6 a5 bf
       0.039118553385287455 -0.042405460970155975
000720 a8 85 3c c8 2a f3 ad bf be 04 8e a1 c2 0a b0 bf
       -0.05849584287922066 -0.06266418880661015
000730 56 94 c6 12 5a c3 f2 3f 85 b4 a6 b9 d7 83 c3 3f
       1.172693322508413 0.15246101918220148
000740 fa 3f 2c 9f 6b 81 be bf b3 b2 dc 77 8b ed f5 bf
       -0.11916229854637087 -1.3704943353761052
000750 e5 3d 48 6d 60 59 e6 bf 61 92 29 f4 fc 41 db bf
       -0.6984102377336369 -0.4259025940321291
000760 14 1e bf 3d 75 e8 9c 3f 7f 63 45 d9 6f 50 c5 3f
       0.028230506795607083 0.1665172396558567
000770 0b b5 de 0d f3 be d4 3f 32 6c ab 94 d1 18 96 bf
       0.3241546283196192 -0.021579050730775325
000780 3b 91 d7 cc 97 63 a3 bf fc 5a 42 93 d7 eb a4 bf
       -0.037869209056028606 -0.04086183235738436
000790 6a 10 03 46 42 e6 ad bf f2 19 f0 0d 0a 6b d2 bf
       -0.058397360845931015 -0.2877831588852181
0007a0 03 82 79 06 43 a4 ca bf 28 ba 84 de c9 04 52 3f
       -0.20813787284988913 0.0010997744921713657
0007b0 67 a2 17 a5 b0 e4 80 3f d1 ba 47 85 7f a5 d1 3f
       0.008248691595285252 0.27572620406764964
0007c0 5c 82 27 ce 10 e5 da 3f 8e 30 d8 02 b6 1c a7 bf
       0.4202310574746997 -0.04514092240069188
0007d0 9f cb bf 57 25 21 ca bf a2 3b e1 0c 96 fd 81 bf
       -0.20413653168324417 -0.008784458416043087
0007e0 d0 26 cd a9 2e b7 dc bf 6d 61 b9 8a 81 7e bf 3f
       -0.448680558988241 0.1230240787202825
0007f0 11 5d cd 0b ba c0 ac bf db 42 d9 cc fe b9 d8 bf
       -0.05615788835592118 -0.3863522530055385

fc.bias f8 [7]
000000 5c e2 00 0d c2 0f ac 3f 16 02 f4 57 10 f1 c1 3f
       0.05480772408231324 0.14016918463313804
000010 2b 56 ef 47 47 99 bc bf 52 ce 59 48 fe 06 c9 bf
       -0.11171384340499262 -0.19552591831926464
000020 34 2a 62 d2 3b c4 94 3f f4 ca 65 a5 09 f4 c9 3f
       0.020279822078501833 0.20275993896537836
000030 ba 61 fc 4d 7b 75 a8 bf
       -0.04777131392455965

onnx::LSTM_118 f8 [1, 288, 150]
000000 78 c2 70 9e d0 75 c2 3f 95 be 91 ae 9b 0a cf 3f
       0.14422042595244355 0.242511234511302
000010 64 e4 68 1e f8 64 c6 3f 4c 0a 52 4f 65 11 c1 3f
       0.17495633587694492 0.13334337590284162
000020 55 52 c0 69 73 b6 d1 3f 9c 44 f6 2f 05 55 c0 3f
       0.27676091506262895 0.12759461252111215
000030 9a d4 1c 57 23 b7 bd 3f cd bb 7a 60 82 66 ca 3f
       0.1160757148434918 0.2062533351031263
000040 e1 c7 f6 9d 65 be a4 3f dc f7 7d 8c ce 9c a7 3f
       0.04051511338492709 0.04611821618071563
000050 26 7e 12 76 ca 95 c7 3f 63 f2 2f 23 4a a7 90 3f
       0.1842587543987843 0.016263159177457697
000060 c1 3d 16 5c 2a 65 c3 3f 03 4a dd 93 75 3b c7 3f
       0.15152482506208112 0.18150205345098422
000070 e4 e2 9a 83 66 0d c1 3f 18 14 bf 54 85 82 c6 3f
       0.13322144914652434 0.17585817945487814
000080 37 cf ae 3b d5 75 cf 3f 6b 63 c4 5a 6a a6 9f 3f
       0.24578347601129177 0.03090826205252332
000090 fb e7 47 77 78 09 c6 3f e3 8f 3b ba 6e f9 c2 3f
       0.17216401886236085 0.14823707669631778
0000a0 d5 30 c4 cc 44 50 bb 3f 82 69 2f c9 39 21 b5 3f
       0.10669355391673048 0.08253823434589516
0000b0 d2 2d b4 9b 5b f0 b1 3f 56 a3 64 b2 f0 1d c8 3f
       0.07007381965029616 0.18841370306588584
0000c0 c2 f5 e9 09 aa b4 a2 3f 4d bd 6b 1d f6 e1 a9 3f
       0.03653460856456149 0.05055207356587719
0000d0 39 34 e5 e9 72 04 a9 3f 7d 8a 8c 9a be 36 c5 3f
       0.04886206727187709 0.16573317095124543
0000e0 51 cc 14 e1 8a bc d1 3f 3b 08 0c 46 d5 b8 7b 3f
       0.2771327207621584 0.006768067455370337
0000f0 c5 e6 01 42 6e 44 ce 3f 6f 21 c8 22 a2 01 a9 3f
       0.23646333907145425 0.04884058641988786
000100 3e 15 c4 02 78 a1 91 3f 3b 9a e5 eb 61 a6 c3 3f
       0.017217517060108316 0.1535150911178834
000110 1b d8 c9 ab 0a 63 99 3f 38 b0 2f 01 0d 22 bf 3f
       0.02479187654031288 0.12161332396471003
000120 38 16 bf 06 0b ac b3 3f 17 3a 43 16 a0 35 c3 3f
       0.07684391894061882 0.1500740154937865
000130 b9 1b e3 11 1a 22 b1 3f dc 0c b1 cf a8 0b 86 3f
       0.06692660271356389 0.010764426077122406
000140 16 ee 2b e9 2d 36 d1 3f e8 f5 f5 8e bd 32 ad 3f
       0.26893184443153595 0.05702774400831939
000150 3d 4a ea 96 bb 35 c5 3f ed bb 86 e1 e1 42 bb 3f
       0.1657022940531351 0.10648929363263422
000160 22 c5 43 86 f0 03 b5 3f e5 77 09 ad 07 1b c9 3f
       0.08209136274287634 0.19613738965102737
000170 fa 75 9c d1 ee ee 9a 3f ab 9b 2b 5d ed d1 82 3f
       0.026302081626559094 0.00918946686347318
000180 66 bc 31 49 fc ff c6 3f c0 97 92 8d a7 0c af 3f
       0.1796870572465849 0.0606434212034368
000190 e4 1f 4f 41 a8 80 b7 3f 83 13 f4 4f 3e 8c c1 3f
       0.09180690378627748 0.1370923891446659
0001a0 0a 78 3f 52 d8 f0 c8 3f 86 7e 7f 32 ba 8e c0 3f
       0.1948500062562178 0.12935569253658147
0001b0 46 ac af d7 0f 31 99 3f 62 cd d8 84 bb ca c1 3f
       0.024601218738024032 0.13899940478004696
0001c0 23 f5 1f 8d 8b b6 c4 3f a2 23 d0 f9 10 d6 c0 3f
       0.16182083502636954 0.13153278539564633
0001d0 21 51 db 44 03 f4 d0 3f a7 56 c1 4c 80 3d c0 3f
       0.26489335750854265 0.126876866796626
0001e0 93 71 9a c6 5f 22 95 3f 66 c7 df 37 c3 da c0 3f
       0.020638939377577947 0.13167610386113465
0001f0 f0 6e ac 4c e3 8e 83 bf 67 f1 39 d4 91 d5 98 bf
       -0.009549880769149394 -0.024252203539150054
000200 91 a9 e7 b1 a1 cc c0 bf 44 cc 15 02 3b f9 a2 bf
       -0.13124486147655692 -0.03705772781804531
000210 8c e3 df 6a 88 73 aa bf 7b 50 38 5e e0 e1 bf bf
       -0.051662695928775454 -0.12454035091679032
000220 5b 1b d6 61 5f 62 9e 3f 16 7d 6f 3c 3e 9f 89 bf
       0.029672136637170037 -0.012510763377518812
000230 8a 5c 70 40 01 6e 8d 3f 56 b7 37 7d 00 f6 b2 bf
       0.014369973925609143 -0.074066191263879
000240 c1 aa 8f 87 8d fb b4 3f 0c c5 b8 fb c5 b1 c2 bf
       0.0819633918724021 -0.14605021277524377
000250 14 a1 6b 05 56 50 b2 bf 3e 55 6a b9 d9 67 9a 3f
       -0.0715383303864921 0.02578678316293303
000260 9a 42 b7 89 14 d8 ac bf 7f fa 0a 61 69 59 b6 3f
       -0.05633606129743392 0.08730181330882124
000270 fb a5 c8 36 90 f8 9b bf 61 70 d2 f9 c8 f2 b0 bf
       -0.02731538137792276 -0.06620460604830349
000280 5c 41 f6 b0 54 be b7 3f 5e 28 39 76 6e e3 b4 3f
       0.09274796791419732 0.08159532915411336
000290 7a a4 ea 1b 63 3a 82 3f 53 0e e7 bc 16 de b3 bf
       0.008900427140661405 -0.07760755645636523
0002a0 f9 7b 4f 13 79 6f a5 bf 6d 2e 94 7f 7b 2c 94 bf
       -0.041866096122014036 -0.019700936948579818
0002b0 46 fc b3 d7 08 60 a3 3f 50 7e a0 98 ca 6a b9 3f
       0.0378420604047212 0.09928575731509537
0002c0 2a 96 0c 25 92 b0 b1 bf 1b c5 74 70 34 25 bd 3f
       -0.06910050777931845 0.11384895082007455
0002d0 95 6f 3a 1d de 3c bb 3f 7e a9 97 1e 4f 21 b1 3f
       0.10639751638012591 0.06691450592885492
0002e0 d0 10 4e e1 ea b0 af 3f 31 b0 d5 fc e7 33 b2 3f
       0.06189664840988629 0.07110452578280115
0002f0 ee b4 00 d5 64 9c b6 bf eb 72 d9 b1 6f 6a b9 3f
       -0.08832388115179743 0.09928033916498762
000300 97 07 fe 2d 00 2b 78 bf bf 57 10 35 cf 57 8b 3f
       -0.005900383664881568 0.013351076895599221
000310 4c 49 cb d8 1d 0e ab bf ca 9e 36 29 d6 7e 98 3f
       -0.05284207602894017 0.023921343102897542
000320 9f b8 64 88 5f 8a a6 bf 29 69 69 c3 a3 4c a4 3f
       -0.04402445354422579 0.039647214511847224
000330 f9 c5 d9 26 c3 4c ba 3f 4c f7 d7 be 62 e3 87 3f
       0.10273379992010935 0.011664172600827215
000340 8a 8e 03 fd ca 73 bf 3f ea b6 87 2c 04 ca 97 3f
       0.12286060978981986 0.023231568544296012
000350 d3 dd b1 97 1a 0b a9 bf 0b 1b 24 32 f8 3e aa bf
       -0.048912840859823746 -0.05126166927407468
000360 27 cb 45 22 08 28 b9 3f f2 f2 da 16 28 e6 c0 bf
       0.09826708637937696 -0.13202382198314627
000370 ab 06 91 b6 17 fa bf 3f ff 27 fd 34 d3 da b2 bf
       0.1249098606795324 -0.07365150493311033
000380 bd 58 05 d7 bf ed b8 bf a6 4f cf e5 34 83 b8 3f
       -0.09737776755841572 0.09575205431548159
000390 5a e9 3c a8 87 cb 8f 3f c8 c6 6b 72 db f9 95 bf
       0.015524921247209878 -0.021460942133620958
0003a0 52 b0 2e 9e a8 fe ba 3f 89 77 aa 7e 0e 6c a1 bf
       0.10544828283190213 -0.034027531587738365
0003b0 7c 00 47 22 f7 b1 a5 3f d4 48 ce 13 77 7f 9c bf
       0.042373392996069875 -0.027829990943765662
0003c0 cb 9a 88 aa df 80 a0 bf 32 e8 9f cd 05 03 82 3f
       -0.032233228270617774 0.008794827783265988
0003d0 91 40 0b 1d 2f dd a8 bf 18 5d d7 56 a7 48 54 bf
       -0.04856250028171972 -0.0012380251094919522
0003e0 d6 55 aa 2f 1b f3 bd bf 2a dc e7 e6 d6 65 b2 bf
       -0.11699075616555574 -0.07186644685121793
0003f0 5c 89 e5 01 65 dc b7 3f 8e 3c 80 67 d1 f4 c6 bf
       0.09320670410446524 -0.17934625200038962
000400 6a 20 a8 0e 05 b7 be bf ba 0a 3b 59 72 4c b7 3f
       -0.11998015983420066 0.09101023367387998
000410 19 15 e2 b9 d7 9c b5 3f 1c ad 50 6a 6f f0 88 3f
       0.08442447937166654 0.01217734378049911
000420 fc c9 de 11 ed 48 d2 bf f7 a2 b8 d5 0f 97 91 3f
       -0.2857010530962325 0.017177817744740555
000430 b2 51 a5 10 6d 14 c9 3f 44 6d 55 9e 9d 2c e8 bf
       0.19593585312635536 -0.7554462521033334
000440 af 91 f3 e6 b8 ac a0 3f 23 91 24 9a 82 bf 8a bf
       0.03256776637298075 -0.013060589150491858
000450 6e 3b 35 54 c0 4f d8 3f 19 cb e8 28 29 8e c3 bf
       0.3798676321356912 -0.1527759027245217
000460 37 33 08 75 81 1e d4 3f 15 18 48 f4 ec 4e d6 3f
       0.31436191967877697 0.3485672364771529
000470 3d 3b cf 6a bd d1 e1 3f 85 b5 19 3b cf ad d7 3f
       0.5568530164835931 0.36998348971868494
000480 f0 cb cf 48 b1 5d d3 3f 4d 6a 27 23 60 56 ad bf
       0.3025935374309361 -0.05729961804509696
000490 4f b4 8d c3 c1 2c 8f bf da 05 ab 62 d8 dd 99 bf
       -0.015222085743255813 -0.02526033498975786
0004a0 19 81 9b 10 02 0b 75 bf 3b 98 80 e8 61 59 b6 3f
       -0.005137451234731105 0.0873013680107712
0004b0 21 08 d3 6b 73 cf 9f 3f fa 1d d4 40 16 a9 c5 3f
       0.03106479974372445 0.16922262349565625
0004c0 0b 75 50 a4 26 71 87 bf 13 2b 9d 36 26 2c 71 3f
       -0.011446287049745615 0.00419249465069062
0004d0 2b 6b 87 3f 27 25 71 3f b9 e0 ba 3d dd c5 c0 3f
       0.004185822785496988 0.13103833688888303
0004e0 7f e7 ba 95 ca 29 96 bf 60 da 52 0b 66 82 a4 bf
       -0.021643796337890372 -0.04005736244419178
0004f0 c0 d2 81 2d de 9f b0 3f 1f 8d ee a5 37 16 c4 3f
       0.06493939028753015 0.1569280204977099
000500 c4 3f 2b d7 c3 e9 be 3f 98 25 73 40 54 77 a2 bf
       0.1207544708552169 -0.03606665884724264
000510 8b 02 b5 73 77 d6 c2 3f d3 57 7c 23 e4 f5 af 3f
       0.14717000150450973 0.06242287572074159
000520 fd 6a c6 7c 0f 05 ab bf a4 92 3e e9 22 2b b2 3f
       -0.052772983533222 0.07097070879405948
000530 af 1c d5 de 28 3b ab bf 2f 11 29 f3 b4 3f c3 3f
       -0.05318572731135284 0.15038167832438762
000540 41 f5 e2 76 50 18 c1 3f 5b 0c 25 a9 a4 3f 72 3f
       0.1335545139790302 0.004455226140922165
000550 c3 4b e7 8d 53 27 af 3f 6e c5 84 02 7a 32 af 3f
       0.060846911499218524 0.0609319809031018
000560 c8 dd 7f d4 d7 5a 99 bf 3c e4 1f 9b 4d ed ad 3f
       -0.02476060137266048 0.05845110434160758
000570 93 54 e6 33 a8 50 b1 3f c0 7b 4f f7 39 f1 c3 3f
       0.06763697878916934 0.15579914642054682
000580 f3 58 9a 6b f6 d0 7b bf 57 f9 44 0e c1 07 90 3f
       -0.006791079120054488 0.01565457963555991
000590 39 de f3 6e 9d a0 c4 3f 4b 59 4e e9 2e db c1 3f
       0.1611515800247945 0.13950144187828992
0005a0 61 e5 b9 06 9f d6 b5 3f b0 24 09 77 08 14 a8 3f
       0.08530610956394959 0.047027840166785295
0005b0 da 76 ff 6e ff 3e a0 3f 0e 7c f2 d5 2b fa c0 3f
       0.03173063497500346 0.13263462015763178
0005c0 62 1f 49 16 7f 39 be 3f da 2d de 34 9c 10 90 bf
       0.11806482595522774 -0.015688362814712288
0005d0 0c d1 5c 0f 70 bd bb 3f 70 4e fa d9 2c 35 96 3f
       0.1083593404299032 0.021687222294146158
0005e0 c8 80 eb b9 bc 0b ab 3f 3a c7 33 f6 5a 67 9b 3f
       0.052823922820381564 0.026761456753724412
0005f0 ed a7 d8 da 22 a5 97 bf 84 64 54 4b 7d 84 ba 3f
       -0.023090881926840657 0.10358412827589986
000600 7c f9 00 d8 6b c8 c3 3f cc 3d a9 ee 0c 89 ab 3f
       0.15455387160359269 0.05377998746245857
000610 a5 ec 4a 35 b4 1e bd 3f d5 f8 f5 17 76 7a a7 bf
       0.11374975491610202 -0.045856180596261766
000620 fe c7 c4 c8 78 02 a7 3f 13 1c 86 6b 2d 12 ad 3f
       0.04494073344029913 0.0567793077234954
000630 3e 35 c3 58 c2 e9 b6 3f 9e 30 a1 c8 ed df ba 3f
       0.08950438181928619 0.10497938297447937
000640 71 ea ee a1 c9 46 4a 3f a1 73 62 46 59 23 93 bf
       0.0008018955739921963 -0.01868953220456471
000650 d9 8c 90 36 f2 07 a2 bf 97 50 f1 dc 2e 0a c3 3f
       -0.035216874275897765 0.14874826229300162
000660 f4 fd e6 da 17 5e b1 3f b8 19 b8 a6 f5 00 a1 bf
       0.06784199804587115 -0.03321044597764761
000670 e9 1c 5c a5 41 9e 8f 3f 21 c7 2c fb 72 9a c0 3f
       0.015438568934327228 0.12971341385269233
000680 de b8 b5 0b bb 5b c6 3f d8 08 d3 05 62 6f 95 3f
       0.1746743971993458 0.020932704549303377
000690 15 99 db ed 69 5d c1 3f 23 ac a5 c2 20 e7 c3 3f
       0.13566326250219932 0.15549096588378672
0006a0 35 4b 35 40 e4 f1 b4 3f 97 f5 0a b5 84 d6 a8 bf
       0.08181597297270289 -0.048511645412399655
0006b0 f4 61 77 a6 df 8a a2 bf 0b 75 5a e4 6a 02 c6 3f
       -0.036215771742437314 0.17194877767625658
0006c0 01 b1 ce 4b 62 1c a6 bf 62 6e 9c d0 31 cc 96 3f
       -0.04318530249961051 0.0222633155418478
0006d0 92 34 fa bb d1 66 a9 bf b4 99 9b 5f 0b 61 1a 3f
       -0.04961257381101193 0.00010062820356502336
0006e0 43 96 78 54 00 c3 a1 bf 2b a1 97 93 b0 10 b8 3f
       -0.034690866767317384 0.09400466540649137
0006f0 71 87 29 0f d6 73 af bf ae 53 be ba a7 e8 c1 3f
       -0.06143063483319978 0.139912573035557
000700 9d a9 32 9a 4b ed 95 3f c8 2f f7 b2 5e fc b2 bf
       0.021413022314541775 -0.0741633593490284
000710 80 04 aa 11 3b 26 96 3f a7 2f 0e db cb df b3 3f
       0.021630213692791944 0.07763361070664009
000720 c4 fe b7 74 1f 3a be 3f d9 42 11 f7 41 52 a7 bf
       0.11807438468531034 -0.04554945126495164
000730 9b 50 f9 ac 0f 6b 8a 3f 31 87 68 d9 61 c9 9c bf
       0.012899515596622549 -0.028111962217855783
000740 70 30 d4 03 f1 c5 ad 3f ed bd e5 2b a7 5d b1 3f
       0.05815079852809013 0.0678352815791567
000750 0d 5e d2 6e 46 6a c0 3f 5d 00 be 33 85 ad b3 3f
       0.1282432595369162 0.07686645997273574
000760 6b 6c 78 90 fc 9f 9f 3f 6e cc 61 fa d2 40 79 bf
       0.03088373786713953 -0.006165336735750688
000770 82 bc 0f 4a ed 31 b2 3f cd 57 ba eb 62 7e 79 3f
       0.07107432420865403 0.006224047097608887
000780 76 8a 7d 70 39 26 7b bf f2 53 31 f7 b9 a7 b8 3f
       -0.006628250477521127 0.0963093021867534
000790 6c 37 ce 28 d5 f7 81 bf 95 9b ad fa 1d 25 a4 bf
       -0.008773484523569151 -0.03934568104778361
0007a0 ef 09 d4 c9 8e b7 c1 3f ab 0b 0e f7 5c 19 60 3f
       0.1384142384996063 0.0019652190898695374
0007b0 d4 33 43 dd b9 46 be 3f d7 d1 b8 09 ba 55 bc 3f
       0.11826669361035097 0.11068308579780904
0007c0 d2 3f 4f 63 39 af b4 3f 5f 4c 52 1a 2c 70 c0 3f
       0.08079870867300024 0.12842322621563348
0007d0 9c 54 c8 ec e6 4e b3 bf d7 21 f5 10 9d 26 f6 be
       -0.07542269974540478 -2.1124681606894888e-05
0007e0 5a c0 bb bd f0 90 72 3f cb 50 7a 57 8b f0 c2 3f
       0.004532757182218539 0.14796582957627033
0007f0 56 46 7b e7 e5 f0 c5 3f eb 63 9c 7b e9 87 ab bf
       0.17141412546929996 -0.053771301593037744

onnx::LSTM_119 f8 [1, 288, 72]
000000 f7 e4 11 2a f3 56 f3 3f ca b6 23 7e da 12 b1 bf
       1.208727993331477 -0.06669393138482885
000010 56 e8 56 f4 e6 7c e4 bf bd ab e4 de 97 cf dc 3f
       -0.6402468464141389 0.4501704861347056
000020 ff 41 40 61 02 bd 9f 3f 9e 43 10 4c 5c 03 f1 bf
       0.030994450746279153 -1.0633204432708463
000030 67 ad c0 e9 9f e6 e8 3f dd 1b 33 42 50 d2 e8 bf
       0.7781524243813863 -0.7756730359041019
000040 51 5e 4e 7c b9 02 c6 3f 27 9b 1f 0d f3 1a e7 bf
       0.17195814675936785 -0.7220397239987947
000050 d3 d2 d8 cd 96 83 a9 3f 2b d9 55 de ca 3c dd 3f
       0.049832069995692806 0.4568354769939044
000060 42 8d 1b 4c 37 cb 7d bf 63 50 d1 c9 ae 46 a3 bf
       -0.007273880009708579 -0.03764864171594764
000070 ed f8 81 a1 2a bd e7 bf 45 1e 3e 17 bb d0 91 bf
       -0.741841617054687 -0.017397807401293503
000080 a8 cf 6e d6 fa 83 cc bf ec c8 8d 4e 15 2f e8 3f
       -0.2227777049098425 0.7557474645857645
000090 72 ae 47 79 fa 5e d7 3f e4 00 ee 1f 4f 99 d8 3f
       0.36517202228308243 0.38435724371085045
0000a0 7b 54 47 24 10 ee a2 bf 95 eb ab 90 dd 03 c0 bf
       -0.03697252695898442 -0.1251179653553122
0000b0 19 df 59 b0 ad 87 e6 bf 54 ee c4 56 04 1f e0 3f
       -0.7040623134953164 0.503786248656477
0000c0 95 08 ca b4 f3 7e ce 3f d7 ae 2f 75 21 ba e2 3f
       0.2382492668876394 0.5852210320276424
0000d0 de f2 a5 a0 78 5d ea 3f 57 5f 0e 4b bc 6e d0 bf
       0.823910058752144 -0.25675875978185075
0000e0 b2 15 d5 00 d5 0a d3 3f 25 0d 09 f8 7a 5c c7 bf
       0.2975361354950464 -0.18250977622128875
0000f0 1b 62 70 41 be 1b a1 bf 57 1b d7 2a f2 9c e6 3f
       -0.033414788711699304 0.7066584431384894
000100 4e 34 94 d9 32 6e f1 bf 04 f1 23 a7 df 09 e5 3f
       -1.0894039630104717 0.6574552788220278
000110 be 53 60 6c 4e 8b d7 3f 43 e7 b4 4b e7 e9 bc 3f
       0.367877584301194 0.11294408415133454
000120 bb 03 23 90 ac ef f0 3f 29 65 a9 a0 ec 4c c5 bf
       1.058514178308754 -0.16641004414376795
000130 2a b7 1f 2e ec 63 ac bf 5c 6b 90 f2 01 26 e2 3f
       -0.05544984877620458 0.5671396005230736
000140 c1 ef 5d de da cb fa 3f 7b 9f 5d 04 c7 39 e7 bf
       1.6747692762573794 -0.7258029065387598
000150 ab 7e 09 22 ec 9f b9 bf 16 eb 8c 04 d1 49 97 bf
       -0.10009647208198184 -0.022742525007951896
000160 be 48 56 c5 47 ff c8 bf 94 fe 06 6b 75 65 ed bf
       -0.19529053817365666 -0.918635090863932
000170 7a 30 8f b6 06 35 b4 3f 4b 38 02 85 f0 c0 b7 3f
       0.07893411595358826 0.09278777358324068
000180 00 c3 34 51 a7 44 e6 bf 04 cd 49 96 49 82 c1 3f
       -0.695880564313569 0.13678855741782325
000190 34 20 85 9c 93 13 c8 3f 59 ab 48 34 25 7d e1 3f
       0.1880974306352542 0.5465265294236402
0001a0 e5 05 9e cf 98 36 ba bf 45 db 30 8d 56 2d 95 bf
       -0.1023955828550452 -0.02068076359520467
0001b0 d0 f3 ca 24 b2 6e ee bf 7f 6c a3 bb b7 16 b8 3f
       -0.9510126799210585 0.09409664469733235
0001c0 dd 10 25 b2 32 47 e7 bf be 84 de 96 37 4c ba bf
       -0.7274411658659364 -0.10272548135118861
0001d0 76 c1 01 6b ee 8a c7 3f 26 ff a2 4f 2d 0b cf bf
       0.18392734742111444 -0.2425285948611357
0001e0 a1 4f 8e 94 9a 4e e9 3f 4e d5 2e f5 b7 2a cd bf
       0.7908451940042945 -0.22786616775344232
0001f0 db f7 12 59 aa 9a b4 bf e1 c6 75 69 41 bf eb 3f
       -0.08048500704441557 0.8670966205374634
000200 ad de 3c 05 96 f2 e8 3f 9d 3d a9 89 75 b0 e4 3f
       0.7796125509548425 0.6465404213612832
000210 a3 f6 8b 4c 18 a1 e8 3f 19 a4 51 f5 c8 12 eb 3f
       0.7696649069836962 0.8460430899987187
000220 b9 41 0a 29 60 d9 de bf 59 81 25 da 4e 6e e9 3f
       -0.4820175553113831 0.7947153340028691
000230 e1 ae 76 62 2e 94 c3 3f f1 85 8c 90 21 b1 e6 3f
       0.15295963104050883 0.7091224501820631
000240 4e 45 46 32 31 77 9c 3f e2 28 b5 18 2b f5 b0 bf
       0.02779843205786863 -0.06624097207273708
000250 f5 30 70 bb e1 f5 bb 3f 90 87 32 6b 51 42 8e bf
       0.10922060800675466 -0.014774929126648378
000260 0e 5a 03 c6 74 1f aa bf fb a5 c4 8e 81 cc 98 3f
       -0.051021241351623656 0.024217628802182017
000270 18 ea 63 1a 1c dd bd 3f 43 75 c7 35 93 23 a3 bf
       0.11665511745733459 -0.03738079101069982
000280 64 d7 a5 d6 99 62 ab 3f d3 6b 52 f2 b2 a3 b1 3f
       0.05348664040768261 0.06890409866393492
000290 3e 63 97 44 b9 3c c1 bf 70 af 5a 9a cb fc 7b bf
       -0.134665640346407 -0.006832881282814771
0002a0 20 96 20 67 25 f9 c0 bf c9 74 89 5a a9 c3 a2 3f
       -0.13260333571922533 0.036649029065964074
0002b0 da 03 5e d2 43 c4 8a bf b2 b1 31 86 5d 44 b6 3f
       -0.013069658143423913 0.0869806721327169
0002c0 42 fb ad d9 03 ba a8 bf b0 36 29 f3 09 c7 a7 bf
       -0.048294182131022115 -0.04644042104028523
0002d0 7e ad 80 54 d0 76 b7 3f 40 e6 27 48 6f df b3 bf
       0.09165670455029404 -0.07762809287660222
0002e0 51 d3 00 fe 2e 1b b5 bf 1e 08 4c 81 26 15 9d bf
       -0.0824460382580814 -0.028400994912779358
0002f0 cb eb 28 aa bf 04 86 3f 3d 46 38 01 57 88 c2 3f
       0.010751244907728627 0.14478576240121468
000300 cc 70 e2 91 5a da 92 3f 8b 0c 58 d0 eb ee ae 3f
       0.018411078600011163 0.060416573698625596
000310 93 67 33 53 d0 6a a5 bf 92 09 b1 4a ca b4 a6 3f
       -0.04183054938921695 0.04434806977998841
000320 aa f0 64 38 5d 3a 68 bf 04 13 04 4b 4f cc a7 bf
       -0.002957517691497176 -0.04648063460084553
000330 73 92 e8 c9 0c 55 a0 bf ef 1d fc 51 e9 4f b0 bf
       -0.03189887966826612 -0.06371935130675131
000340 6b 32 72 7d a1 f2 96 bf 09 ea a1 a4 90 b8 9c 3f
       -0.022409938127156453 0.02804780964695833
000350 6e 1d d4 29 f3 2c 8e 3f 3d 84 37 87 7f f8 a3 bf
       0.01473417254830053 -0.03900526548000769
000360 ee 59 c0 9a ff a4 b7 bf 90 4a b3 02 04 6f ae bf
       -0.09236142662152932 -0.05944073231662117
000370 c4 57 ce 95 77 05 b2 bf e0 70 c7 0b fc 45 c4 bf
       -0.07039592177747439 -0.15838575911664687
000380 44 26 8f 92 69 13 b0 bf 7b 75 78 5a 4e 85 c4 3f
       -0.06279620960335658 0.1603181783438393
000390 d7 7b 72 f4 37 ec a7 3f 5f 2b 69 96 4d 39 a5 bf
       0.04672407969450603 -0.04145281277722889
0003a0 5e 99 09 33 3a 04 aa bf b8 2e ec f1 aa 54 a2 3f
       -0.05081350205437006 0.03580221369892683
0003b0 5a c0 97 0d 32 00 ab bf 0d 84 4b 5e 71 f7 a9 3f
       -0.052735866698527104 0.05071596408902943
0003c0 9c 75 b5 10 11 60 93 bf 86 08 01 c4 c8 78 c5 bf
       -0.018921152729821963 -0.16774854250440202
0003d0 bb 60 1c 47 6e e5 94 bf 22 3a 9d a5 f5 8c ac 3f
       -0.02040645894075575 0.055762936083386686
0003e0 08 3f 4d 87 f4 dc 98 bf 84 30 9f 38 5c 00 bf 3f
       -0.024280377157366778 0.1210992468106174
0003f0 04 75 b3 0c 99 31 c4 bf c9 a3 9a 9d 9d a6 c4 bf
       -0.15776360626379227 -0.1613347072173197
000400 c1 c8 ad 2d 27 73 a4 bf 75 f1 b5 c3 5a f0 b8 3f
       -0.039941047979384255 0.09741751936048167
000410 20 5c b3 30 5c 17 8c bf ca a2 bc 66 b3 27 b2 3f
       -0.013716430889344322 0.0709182859251413
000420 83 c4 8c 9a 59 df b0 3f 08 df f1 6a 3f 8a ba bf
       0.06590805075826904 -0.10367199288327467
000430 8b a8 c0 14 06 8d ac bf a8 0e 4c 31 d6 10 98 bf
       -0.0557634258587579 -0.023501726874214285
000440 a7 41 4b 25 93 5f ad 3f 58 fb 9d 6d c7 08 c1 bf
       0.05736980276344932 -0.13308041431806816
000450 6e 40 3e 3c 98 ff 9b bf ab db cc 6f 80 58 9e 3f
       -0.027342203785849888 0.029634482215637508
000460 4b e4 ef 6b b6 f5 ba 3f 8b 41 f6 26 75 1b 86 3f
       0.10531177649672079 0.010794558764957404
000470 90 82 3c a4 3e 7d b2 bf b1 57 03 2f c1 9d b3 3f
       -0.07222358236004767 0.07662589452533443
000480 46 d4 a0 62 df 9c cc 3f 7a 97 96 ce 23 90 ad bf
       0.22353737178642258 -0.057740324943821045
000490 d2 ce 8b 85 c1 5a a5 bf 6d 10 58 aa d9 e0 d9 3f
       -0.0417080379028484 0.4043487704768783
0004a0 0b 51 85 aa 8f aa d3 bf 9d ac bd 3b c0 c6 c8 3f
       -0.3072852292291521 0.1935653964713752
0004b0 2e 9f 87 95 55 c8 d3 3f fc a2 dd f5 aa b2 b2 bf
       0.30910243608967647 -0.07303875448782188
0004c0 41 c7 0c 08 68 c2 9a bf 25 7d da 04 a9 f8 b8 3f
       -0.026132226458862155 0.09754425400250406
0004d0 33 bc c7 42 11 c2 a8 bf d1 cd 2f 0f 56 b6 cd 3f
       -0.04835561695278336 0.2321269582895256
0004e0 3e d1 f6 23 09 27 a8 3f 67 22 b9 dc 08 62 c4 bf
       0.04717281879439604 -0.1592417791128071
0004f0 9e 44 55 bc b5 02 b2 bf 18 18 c5 5f 18 e3 c2 3f
       -0.07035384986854118 0.14755539585365862
000500 82 c3 0c 69 00 4d d6 bf 1e 1d 2e c8 dc c9 b5 bf
       -0.3484498048665544 -0.08511142623148202
000510 0e 1f 87 f1 d9 d6 d9 3f 5d c5 51 4e 36 cc c7 3f
       0.403738485209474 0.18591955970945664
000520 6a c1 bd 50 47 1e a4 bf 5c 35 6a 0e 3e 0c a2 3f
       -0.039293507200343594 0.03524965215647555
000530 73 96 4b 57 22 54 ae 3f d1 c6 9b 67 9c ad d3 3f
       0.05923564258209248 0.3074713718225271
000540 6c 84 9b 58 28 5b 87 bf 7f ad 55 a6 ce 09 95 3f
       -0.011404338077627162 0.020545224096549127
000550 3f b7 27 61 ae f9 a1 bf 85 0e 95 b8 1d 30 d3 3f
       -0.03510804115272358 0.29981177354441285
000560 21 57 c7 2c 5b 96 d6 bf 29 ef 22 f9 8c 6a a1 3f
       -0.3529270112315875 0.034016042148748156
000570 f5 04 90 fc 91 34 9a bf 0c 20 f5 18 4d 92 c6 3f
       -0.02559116462726237 0.17633975714329642
000580 39 4d 46 e3 b5 2c cb 3f 49 76 8f 93 27 b9 b6 bf
       0.21230195615189887 -0.08876273491429133
000590 74 7d b6 c8 a3 1e c4 bf ff 98 22 7e 47 67 9a 3f
       -0.1571850519221517 0.025784604142836006
0005a0 d8 99 dc d1 e7 15 27 3f 89 54 75 90 1e d8 b2 bf
       0.00017612891036229597 -0.07361022021116716
0005b0 2f bb 92 21 4a e3 b4 3f d0 64 d8 26 de fd e3 3f
       0.08159316367776336 0.6247397192666089
0005c0 11 ab 3b 7f 28 20 5b bf 33 89 66 59 da 45 cd 3f
       -0.0016556163290554796 0.22869424214611342
0005d0 bc 3d 9f f8 ce 17 b4 3f e6 3d ae 51 e5 68 d4 3f
       0.07848828859208984 0.31890233017563074
0005e0 30 97 93 4f 95 51 95 3f 4e 49 d3 58 51 e6 e6 bf
       0.020819027883496932 -0.7156149611348981
0005f0 68 ed 39 a2 c8 a4 c0 3f 1e f6 ef 55 e3 57 c8 bf
       0.13002880021290797 -0.19018212982329968
000600 68 8f b6 08 3c 42 db bf bc 21 30 17 76 39 c2 bf
       -0.42591763354197676 -0.1423785794470528
000610 c0 93 3d 3f 32 38 d5 3f c8 24 30 41 f1 16 c8 3f
       0.33155494857629364 0.18820014651308825
000620 49 e0 20 13 8d 06 c6 3f 79 f4 e0 80 2d 11 bd 3f
       0.17207492288594242 0.11354336162999513
000630 1d 86 09 50 9a 0d c2 3f e2 aa df f8 31 34 70 bf
       0.14104012401644264 -0.003956027225266752
000640 21 c3 bc c3 cf 52 a0 3f af 34 3f 3d dc ea ba 3f
       0.03188180221912363 0.10514618392263018
000650 e6 d6 96 53 78 7b a5 bf d1 28 21 ae 2f 5c d1 bf
       -0.041957626537095824 -0.2712516022189791
000660 d4 b4 d0 c0 02 c9 de 3f 77 9f 04 23 6f 21 97 3f
       0.48101872281661184 0.022588478576977402
000670 a6 67 c9 1b 1e 30 45 bf 4b e7 5c 95 cf 53 d2 3f
       -0.0006466052069058383 0.28636540971966856
000680 a9 aa dd 66 6a d4 c6 bf 11 ab b6 81 f2 18 c2 bf
       -0.17835741064785296 -0.14138633092564892
000690 aa ef 9e 4f b4 61 d7 bf 8e bb dc 3f cc 44 95 3f
       -0.36533839965317816 0.020770255468217473
0006a0 f9 51 af ad 1d 31 89 3f 2e bb 42 c9 a5 06 a6 bf
       0.012300712454739392 -0.04301946718020698
0006b0 b8 90 72 91 00 f0 c4 bf a0 fe 5f 65 b9 ba d9 3f
       -0.16357428647927974 0.40202174091244025
0006c0 d7 db de 9c 98 1f 6b bf 94 83 75 ff 3b c1 ab 3f
       -0.0033109646528503944 0.05420863622089836
0006d0 3f ac 43 86 d3 70 a8 3f d1 c6 b9 8c 78 c3 c3 bf
       0.04773579610795097 -0.15440279837962703
0006e0 4a 40 12 93 7a 13 a8 3f 95 c8 b6 cd 58 9a b2 bf
       0.04702361150077701 -0.07266764662088783
0006f0 85 22 61 ca 45 c9 c2 bf 35 75 eb 8a 16 a0 b2 bf
       -0.1467673528843713 -0.07275524989696154
000700 dc 42 85 d0 7a a1 d0 3f 0f 27 b4 e2 52 82 91 bf
       0.2598559414227972 -0.017098708235642465
000710 20 20 91 98 12 4b 90 bf 5c d7 86 9e f8 05 c1 3f
       -0.01591137939638554 0.1329947256141918
000720 68 70 18 ac 7a 9b 8e bf b3 f9 4a d8 8c 46 a6 3f
       -0.014944990517556003 0.04350700512212615
000730 a2 e8 52 04 b6 8b 93 3f 50 2e 8c 22 4c 87 b2 bf
       0.01908764268294106 -0.07237697452017611
000740 ee a0 06 8d 2e ee 60 bf 5d 37 f6 55 26 fc a5 3f
       -0.002066698951427629 0.04293937491739428
000750 43 3c 24 3d 24 dd c8 bf 6b c2 00 9d c8 a4 b2 3f
       -0.19424870477129916 0.07282689889030684
000760 9a a2 57 d5 56 b9 b2 bf f7 18 fd 94 5c c4 c2 bf
       -0.073140551648644 -0.1466174819453909
000770 31 42 37 eb 29 58 64 3f 6c 8e b4 c9 89 94 91 bf
       0.0024834459997935755 -0.01716819089518966
000780 9e 87 80 4f e1 95 bd 3f b7 43 77 71 cd 9d b8 3f
       0.11556823912590494 0.09615787525332463
000790 5d aa 80 b3 cb ce 78 bf 0c 32 a6 73 b7 f8 c7 3f
       -0.006056590755216887 0.18727772852834368
0007a0 2f d3 eb 4e ee 13 c8 3f 5a 18 63 db 12 d2 ae bf
       0.18810824254583156 -0.0601964848333842
0007b0 8c c8 59 d5 49 0d c7 3f 7a 80 25 b8 94 ec d2 bf
       0.18009303014293143 -0.29568975432449174
0007c0 77 f0 8c 04 08 1f d5 bf 77 a6 36 58 2e 20 b1 3f
       -0.33001900143040735 0.06689729360246043
0007d0 22 20 ce c7 ac fd 91 3f 8e 85 8c 31 14 0b b8 bf
       0.017569255538120505 -0.09391905030908829
0007e0 87 28 18 ea 03 ba b9 3f 25 76 6d de 27 81 b0 3f
       0.1004946180839018 0.06447076015816629
0007f0 43 3d 5c 80 7d 77 ae bf 4c be 03 ba 77 37 b1 bf
       -0.059505388182623985 -0.06725261966107005
