model/onnx_model.onnx (onnx, 180378 bytes, 4 tensors)

fc1.bias f8 [96]
000000 4d f7 28 07 84 07 d5 bf a3 9a ec dc af 9f be bf
       -0.32858372401448294 -0.11962412971170493
000010 60 b4 58 90 3f 6f ca bf fe 2e 32 51 d5 92 c3 bf
       -0.20652002857369478 -0.15291849579477196
000020 8e 8b 95 bd ee 0b c6 bf f1 ba 71 cf 16 07 e2 bf
       -0.1722391534522924 -0.5633653690000228
000030 f0 a8 ca d1 e3 8c ce bf 0e ed 96 ba a0 22 bb bf
       -0.2386746191380733 -0.10599712901505517
000040 03 15 b2 63 c7 76 c5 bf 75 9b c9 07 9e 1e cc bf
       -0.16768734329176746 -0.2196843660378495
000050 b2 0f 5a ba 01 d2 c5 bf 62 ac fe 9f ee 96 dd bf
       -0.17047139739235956 -0.46233716606611186
000060 28 60 c8 f2 f9 4e c6 bf 75 cc 97 a7 ca f5 c4 bf
       -0.17428516726136078 -0.1637509649586694
000070 c2 f3 92 3c 1d 56 cd bf cd d4 a4 f0 d9 ca c0 bf
       -0.22919049699512867 -0.13119053125561778
000080 a1 fd bf 24 1a a1 cb bf da ff ca 12 f7 fa c2 bf
       -0.21585394663268878 -0.148283847976926
000090 8c 2e eb 12 01 fd b5 bf 5c 49 2b 12 ee cc 91 bf
       -0.08589178764230548 -0.017383308276131756
0000a0 82 45 c1 ed 51 e6 d0 bf 8b 8f 94 66 e1 5d e9 bf
       -0.2640576192689751 -0.7927100184938224
0000b0 fd 69 3c 64 aa d7 cb bf 1c d4 40 59 0f 41 bd bf
       -0.21751909155211982 -0.11427398613962264
0000c0 c0 39 11 1b dc 48 bb bf 62 05 56 b7 82 56 d1 bf
       -0.10658050213644454 -0.27090518859775703
0000d0 63 e3 f7 3d 09 15 0e 40 e9 ad d2 ea aa b5 d5 bf
       3.7602715340876087 -0.3392131131356267
0000e0 c8 1d 7a c0 0e 30 e0 bf 50 4e fe 02 99 d5 e7 bf
       -0.5058664092365968 -0.7448239382233144
0000f0 5a fb d2 a9 43 99 c3 bf c9 1a 0e d0 35 2a cc bf
       -0.1531147555560562 -0.22003815325680012
000100 9c 7e 04 a7 0a f9 c6 bf 25 6e 5e ab 3c 81 e2 bf
       -0.17947514681963106 -0.5782759997413832
000110 a6 bc b1 99 e7 60 ca bf fe 82 66 53 6b 30 d7 bf
       -0.20608229641536474 -0.3623302759606729
000120 bc 7b 74 c1 9c 72 c5 bf 30 a6 fe 32 ad 7e c9 bf
       -0.16756019063993033 -0.1991783617971108
000130 46 ba b4 52 91 5d be 3f aa 8d e5 1b 76 ab d0 bf
       0.11861522931278853 -0.2604651710919038
000140 95 8b 5e 90 a3 a5 e1 bf 17 f8 b1 1c ca c1 a5 bf
       -0.5514695949280958 -0.04249412155421355
000150 c3 b1 7b 3f fc 23 c9 bf 74 0c d4 47 f5 33 c9 bf
       -0.19641068553700167 -0.19689813620798058
000160 e8 a2 96 98 d3 c2 c8 bf 47 7d 7a c3 66 9b da bf
       -0.19344563437086681 -0.4157349499673341
000170 9b 73 fd aa 1b 3b d3 bf c4 2a c1 37 e3 7d c5 bf
       -0.3004826707672749 -0.16790428373709265
000180 90 51 c6 10 29 01 c0 bf ea f4 47 6a e3 5d ce bf
       -0.12503541297031662 -0.23724024476533795
000190 ee c2 ea 41 ab e0 e7 bf 4c 40 4a 01 da a8 c9 bf
       -0.7461754119341018 -0.20046544135084543
0001a0 20 6e 9e 34 d9 b7 cf bf 6b 99 0f 84 4f a5 d4 bf
       -0.24779810971527727 -0.32258975884032876
0001b0 ff f6 f9 da e0 d7 da bf ac 53 9d b6 de f3 d5 bf
       -0.41942616829315676 -0.34300964196637085
0001c0 fd d2 b0 58 95 ce c1 3f 6c a9 4e f9 59 87 bb bf
       0.13911692457772765 -0.10753404938319527
0001d0 c4 f1 3c 6d 25 18 da bf 6e ee 5e af 9d f4 e0 bf
       -0.4077237669733018 -0.5298603463374556
0001e0 59 45 b5 71 96 43 b5 bf 77 68 97 4e 8a 3c d6 3f
       -0.08306255603863145 0.34744508433289617
0001f0 b6 c8 1b 47 30 44 d5 bf 4c b3 4a 02 87 92 dc bf
       -0.3322869009417774 -0.44644332145508225
000200 19 ca 73 11 90 fb e2 bf bf 20 ef 29 e9 db a5 bf
       -0.5932083454957279 -0.042693411225231064
000210 8b 75 73 31 39 0d e9 bf 8b 47 83 4a da df ba bf
       -0.7828641858902058 -0.10497822112236414
000220 be 2a 03 e4 d1 85 c7 bf a2 ed 30 14 21 10 e1 3f
       -0.1837713588086753 0.5332188982351236
000230 65 0b f7 ce 69 19 e6 bf 80 9b 92 4b ac bd e2 bf
       -0.6906022112164975 -0.5856534458188065
000240 e1 16 26 47 ff 03 cc bf c1 e0 2d 4a 8b c9 c4 bf
       -0.218871984234446 -0.16240063783675932
000250 bc a3 52 35 14 62 cd bf 76 6a ee 2c d9 2b e1 bf
       -0.22955563167240978 -0.5366025807919204
000260 a1 25 e6 f7 0d f4 db bf 4a 1f 31 31 12 31 e6 bf
       -0.4367709084404741 -0.6934901200083712
000270 c6 99 64 fe 62 8c cc 3f 50 74 43 bb 09 06 c0 bf
       0.22303426190883452 -0.12518426555371542
000280 ce 75 ce 15 95 8b bf bf 6e bf 71 4a 5f 9b e0 3f
       -0.12322360784897698 0.5189663366308943
000290 d0 f0 61 d9 8a 10 c6 3f b8 8d 44 ce a4 3f c4 bf
       0.1723798333586104 -0.15819225379628477
0002a0 be 51 f5 1b 37 f4 be bf 87 b1 29 bd 1d c9 d8 bf
       -0.12091392929625663 -0.3872751567166905
0002b0 dd e0 19 7d df 10 aa bf 31 0a b7 49 98 5d e2 bf
       -0.050909980794075806 -0.5739251556154327
0002c0 7c 89 b2 a0 f2 c2 e8 bf 2b 4b 40 b9 f6 76 ce 3f
       -0.773797334539537 0.23800548596826707
0002d0 b5 49 ed 82 5d f6 bc bf 9d e3 f8 23 07 4f d4 bf
       -0.11313423582513489 -0.31732347977554715
0002e0 7b 4c 83 ef 98 50 c3 bf 10 33 d9 7a 29 0c da bf
       -0.15089713759389042 -0.4069923114482643
0002f0 7e 2f c4 7d 6e e1 c9 bf c2 b0 d3 8c 53 90 e2 bf
       -0.20219212666449587 -0.5801179647947026

fc2.bias f8 [63]
000000 75 69 a5 c5 bf bb 21 c0 96 0f 12 0e f0 fa 2a 40
       -8.866697479669464 13.490112724022577
000010 3f 8f e9 e7 06 d2 0c c0 7f 1f 51 3a 6b b7 3e 40
       -3.6025522344733925 30.716479916387012
000020 bb 41 3b 88 56 d1 3d 40 7e 68 6f f3 46 51 3a 40
       29.817726625887854 26.317488875102292
000030 5b 66 fc 81 20 dd 31 40 21 e5 99 ce fe 0b 2d 40
       17.86377727901559 14.52342839840509
000040 d5 42 9a 7f 12 d3 f1 3f 90 6b 12 39 28 62 34 40
       1.1140313133693571 20.38342625331603
000050 ae 21 dc ad da 92 1c 40 36 0e 02 e9 75 ad 28 40
       7.143412319718136 12.338790208340566
000060 bd be 2b 6a 5b bf ea bf 0a c8 0b b2 c3 af 3c 40
       -0.8358590196275696 28.68657982623703
000070 3b fb 64 db 97 08 33 40 94 e5 fb 50 1d 9c 1c 40
       19.0335671540772 7.1524555829759215
000080 5b 3e 66 43 b6 b5 2d c0 61 d3 ca 78 78 63 37 c0
       -14.854906183463006 -23.38855700446891
000090 dd ce c1 df 32 5b 47 c0 72 d9 09 ef e9 4e 31 40
       -46.71249005282673 17.308257045654905
0000a0 95 72 e4 0f ee ec 13 c0 b8 c5 7e c8 c8 46 32 c0
       -4.981376884764036 -18.27650120825794
0000b0 6d 03 3b 08 62 ac 3d c0 bf c4 50 60 b4 0d 3a 40
       -29.673370851905407 26.05353357288254
0000c0 c2 ec a4 10 10 44 3e 40 b4 b3 31 97 9c 55 35 40
       30.265870132698872 21.33442063296725
0000d0 2b 29 68 4a e6 fa 22 40 4b 88 a9 2e 95 52 20 40
       9.490038228239959 8.161294420428154
0000e0 1a b9 37 d8 36 26 00 c0 16 17 f9 1a cf 89 38 40
       -2.018659295273335 24.53831642705253
0000f0 83 bd a5 92 28 15 22 40 78 88 42 ad 5e ab ba 3f
       9.041325171215027 0.10417739610650922
000100 51 97 08 1f 98 d3 15 c0 19 df b1 6c 6a fa 36 40
       -5.456634983920439 22.97818641035619
000110 b0 85 fa ec 79 b4 13 40 b7 88 3f c9 bd 8a 1b c0
       4.926246359625495 -6.885489601614771
000120 01 8f 8a fa f7 6f 0d c0 97 70 ff 90 44 5a 26 c0
       -3.67967220054004 -11.176304370099656
000130 6e f2 b5 41 15 dd 29 40 92 bc 09 91 22 54 17 c0
       12.931802800617529 -5.832163110942149
000140 71 ab 7d 1a ee ad 36 c0 db 61 ed 14 fc 5e 37 c0
       -22.679414420777395 -23.371033962206507
000150 4b 0d 07 d3 47 1d 23 c0 88 3d bd 66 ab 5a 3c 40
       -9.557188601122695 28.35417787666441
000160 f1 57 ff b1 8e 26 38 40 13 c3 41 be 3b 5f 20 40
       24.150614857520797 8.186002679374303
000170 26 57 a7 a6 d2 85 27 c0 73 9e 9f 47 8b e0 2a c0
       -11.761372764518068 -13.438562620386824
000180 ed c1 ff 3a 9f 7c 47 c0 a1 21 4b e3 24 54 32 40
       -46.973609328157046 18.328687864153498
000190 ca 82 8f 93 1f d9 d2 3f d9 45 d9 f8 33 a2 38 c0
       0.2945021573087102 -24.633605530781868
0001a0 5f d0 be a9 ec 55 40 c0 7e 20 3e e0 98 49 37 40
       -32.6712848836621 23.28748895184298
0001b0 c5 4b 7a 42 5b f6 13 40 2d 53 7a 0c 04 a2 36 c0
       4.990582503046373 -22.632874278892974
0001c0 f6 1d c6 b4 16 ab 40 c0 e9 55 f7 cb 35 5e 4e c0
       -33.3366304366463 -60.73601674630101
0001d0 fe d2 63 ee ff 02 24 40 e0 bb c0 c5 cd 4c 28 c0
       10.005858850179262 -12.150007419373594
0001e0 d9 12 37 ca 3f 49 42 c0 34 c3 97 4c 3e 4f 4a c0
       -36.57225921334402 -52.61908872041968
0001f0 93 16 b0 0a 73 5e 11 40
       4.34223572444684

onnx::MatMul_12 f8 [150, 96]
000000 43 51 5c 38 bf 1e e7 3f 66 72 0d 3d 60 f6 85 3f
       0.7225032902520429 0.01072383104627157
000010 6b 56 84 9e e3 09 ac 3f 61 29 f9 6c dc 0d 92 3f
       0.054762948131764265 0.017631000662995947
000020 4e 89 dc d0 b3 2b a5 bf f2 1f 5b 10 55 03 da 3f
       -0.04134904789522641 0.40645338628064487
000030 f4 4d 81 7b 42 39 93 3f 84 09 cd 03 e9 09 c4 3f
       0.01877311590972215 0.15655243573753463
000040 b9 5c cf 6d 67 87 b4 3f ec a5 43 b9 43 50 95 3f
       0.08019110136898434 0.02081399744284866
000050 64 bc fd 9c 92 af 6d 3f 18 8d 3f 95 71 18 b3 3f
       0.0036237586536383305 0.07459173101192496
000060 d9 a4 51 69 ac 00 86 3f 20 f0 1a 98 ea d0 8b 3f
       0.01074347206504671 0.013582070128329404
000070 a6 dd b6 8e c0 36 91 bf 49 ab 9d 18 80 08 b6 3f
       -0.01681042548235969 0.08606720543836589
000080 90 54 7f 38 fd 45 8d 3f e9 e8 a6 9f e2 7b b9 3f
       0.014293649946845371 0.09954658887628266
000090 53 19 b1 79 77 c9 9c bf 91 26 09 f1 3a 6f bd 3f
       -0.028112284471967296 0.11497848877584206
0000a0 b1 63 c6 9a 70 3b d5 3f 4f e2 4a 47 95 92 80 bf
       0.33175292124502237 -0.008092085111784856
0000b0 54 82 98 7b 59 64 a2 3f e3 fd 58 0b 0f a1 6b bf
       0.035921856248255196 -0.003372697242212773
0000c0 c9 65 53 0b b8 67 82 bf ff e4 18 f5 d8 b3 d8 3f
       -0.008986890645632866 0.38597701964643244
0000d0 89 93 1c 64 8a f8 f4 bf eb 03 87 7d ca 55 d5 3f
       -1.310678855000534 0.33336126574073316
0000e0 a5 ce fa 37 ed a9 d0 3f ae 1e 80 d1 fe bd cb 3f
       0.26037149874466997 0.21673569898142858
0000f0 43 cd e9 7c 39 ce b8 3f 8a f4 82 a2 4d 4c b1 3f
       0.09689673709526851 0.06757054536406507
000100 9e 62 e4 d2 c3 7f 99 3f c6 3c 75 80 a4 63 d8 3f
       0.024901447054704755 0.38108170075151937
000110 55 b2 fa a2 20 5d 5a 3f 8c 6b 1a e6 d8 ea 9f 3f
       0.0016091173855940129 0.031169308704743368
000120 9a bf d0 f2 c8 20 92 3f 2e 4a 38 4e 7d db b4 3f
       0.01770318967845661 0.08147414359726987
000130 6e c8 82 94 f8 6b b1 bf c1 34 b0 e0 ec 57 d7 3f
       -0.06805375695947344 0.36474153463570863
000140 a4 2e da 4d 61 4b 96 3f 5e 76 71 d2 95 00 b2 3f
       0.021771927239156455 0.07032143008970013
000150 43 eb fc 6a 1a 9d 8a bf 3e 6f 17 77 f1 da c2 3f
       -0.012994963064206671 0.1473066169263521
000160 40 04 c0 24 47 d8 85 3f 0c fb 30 1a ae db ba bf
       0.010666423615477538 -0.1049145521110228
000170 a2 d4 21 71 a3 50 97 bf 50 a4 75 0b 7f 81 ac bf
       -0.022768548755682468 -0.055675478123540345
000180 28 de 3c 0c 85 4f a1 3f 89 fc c2 7a a4 53 8f bf
       0.033809812301509645 -0.015296254154576043
000190 5c 06 d2 a7 f6 de d1 3f 22 ec 10 d1 39 ff b2 3f
       0.27923361195289487 0.07420693735268505
0001a0 b9 ce d6 d8 77 96 b3 3f 0f e3 e4 a4 c1 88 d8 3f
       0.0765147117988886 0.3833469496053547
0001b0 25 e4 cc 83 b4 16 ba 3f 6d 2f 9d d1 20 99 c3 3f
       0.10190895288259634 0.153110601759518
0001c0 e5 7e 7b 9b c9 86 d8 bf b7 d1 d7 25 19 5b 95 bf
       -0.38322677787617315 -0.02085532468295678
0001d0 89 70 32 eb 6d ed 9c 3f 85 f6 ae dd 07 21 b9 3f
       0.028249471168792204 0.09816025888627607
0001e0 6b 1d 7b 51 91 40 b7 3f 85 19 9b 71 c8 66 ce 3f
       0.09082897414474693 0.2375116877285103
0001f0 7c 53 98 0a 5b 28 b2 bf 84 5d ea af 48 e0 e7 3f
       -0.07092827805202079 0.7461284099435237
000200 21 ef 86 ec 88 41 bd 3f 7e d9 a9 33 59 68 a7 bf
       0.1142812325915057 -0.045717990452362564
000210 27 e0 76 bc 16 7d d8 3f c7 2f 2d 9c 2c 3d b8 3f
       0.38263481526110116 0.09468344509986003
000220 6f 12 39 6f 2a ec d7 bf 7f 20 58 3c 16 5a df 3f
       -0.3737894140397548 0.48987346547119864
000230 38 21 b3 d4 69 0d cd 3f 1c 3d 74 a6 41 10 ce 3f
       0.22697184453705588 0.23487110736503147
000240 b8 f8 56 fc 35 8a b0 3f af 67 db 6a 71 5c ba 3f
       0.06460893068922047 0.10297306879820554
000250 41 dc 12 31 29 ed 94 bf d6 22 8a 5b cf a8 20 c0
       -0.02043594705602581 -8.329707012760462
000260 9e 6b 12 f6 be f0 b8 3f cc 45 9b d7 59 94 d1 3f
       0.0974234915505989 0.27467962317777217
000270 f1 65 70 d4 83 1a ee 3f 8d a6 bd dc 58 85 b5 3f
       0.9407366894913008 0.08406596554928054
000280 3c 66 64 37 3f 48 dc bf 90 67 f2 af ba c5 b1 bf
       -0.4419096032084757 -0.06942335887506901
000290 b2 a1 9c 42 d6 86 45 3f fa 77 21 05 b6 0c 80 bf
       0.0006569429581065238 -0.007836744338586488
0002a0 d4 7f 73 c7 35 e9 ea 3f 6b 3b c4 27 98 a7 15 c0
       0.8409680266886377 -5.413666364051873
0002b0 b5 ef 4d da 5e 13 e1 3f 6b 33 92 77 de 29 d6 3f
       0.5336145652540752 0.3463054816900725
0002c0 21 0d fb 51 ef 2a cb 3f 65 13 13 bb 27 af b0 3f
       0.21224776747667654 0.0651726562237634
0002d0 9a de ed 8d ab d1 94 bf d8 55 59 63 c2 39 c1 3f
       -0.020331078088445233 0.1345751748182653
0002e0 ce fc f3 29 78 ac 72 3f d0 8e 2e 27 0f af e9 3f
       0.0045590108777552995 0.8026195302267869
0002f0 0d ff 62 a0 07 ed 89 bf 02 03 1e 31 0d 97 a2 bf
       -0.01265912969790819 -0.03630868172240832
000300 dd a5 8f f8 1c 6e a0 3f 61 82 8a 2c 5e dd 96 bf
       0.03209009679978767 -0.022328826397485794
000310 89 e9 e7 a6 16 de 9f 3f 57 f8 73 f5 ef 14 66 3f
       0.031120637833717466 0.002695530576260412
000320 1c bd 1f f0 e2 07 99 bf 2c 62 b9 fe 0b 49 d7 3f
       -0.02444414702034435 0.36383342624097526
000330 5f 8d d9 3b 9c 79 93 bf 24 95 11 50 96 fe ce bf
       -0.01901859393400451 -0.24214438352206813
000340 53 5e 22 09 3f 5d b0 3f 85 bf 49 f6 0e 92 bc bf
       0.06392282460216707 -0.11160367501156372
000350 b1 8a 16 f1 c7 c3 a1 bf da d0 af d2 68 e1 96 bf
       -0.03469681566209227 -0.022344243869114468
000360 0d da 30 3e ad 46 74 3f 25 1d 7b f0 c4 c5 83 bf
       0.004950215082365717 -0.009654558743376793
000370 4e ed 79 9c b0 97 79 3f 0c 36 28 f8 e3 08 96 bf
       0.006248178374899395 -0.02151828958635886
000380 b5 ec 81 a9 7a e6 c5 bf 9f 4e df 8a 8a de 9c 3f
       -0.1710961654351643 0.028192677236644866
000390 f6 14 4f 29 fe 20 89 3f 4f 3b 0a 9d b6 40 a0 bf
       0.012269960055969236 -0.031743723554532914
0003a0 27 dc ca 7c 61 9e d8 3f 6a 7e 68 18 ee 31 c3 bf
       0.3846667975116724 -0.1499612445049821
0003b0 7f 0a 3b 17 1c 20 a4 bf a6 9e 07 a0 d1 b7 af 3f
       -0.039307477794427996 0.06194930151451432
0003c0 95 ae f1 d4 38 1a 87 3f e4 bc db 62 15 a7 c9 3f
       0.011280483244454667 0.20041148497646255
0003d0 3b 4f c4 eb c2 51 15 c0 1a 19 d8 ce 8d e3 74 bf
       -5.329845126969128 -0.005099824845734591
0003e0 bb 4d bf b3 6a a2 cd bf c7 2b 4b f6 97 c7 be 3f
       -0.2315190675422921 0.12023305666950455
0003f0 15 1e 5b f0 ac 8f 7c bf 66 25 2e 95 92 ed 7f 3f
       -0.006972957174816515 0.007794926251230327
000400 0d 38 ba 5c 2e 34 c1 3f 3c 1e 83 52 24 ac bf bf
       0.13440494086938806 -0.12372042669732591
000410 8e 41 66 95 dc db be bf 8d 56 ad 2e 61 2e bc 3f
       -0.12054232261130535 0.1100826968152779
000420 a3 53 34 d5 49 28 b2 3f bf 8d 4e 94 d6 3f b1 3f
       0.07092725234208656 0.06738034363529886
000430 a2 ce 6b c7 ab 30 bf bf 89 1c 04 99 6e 22 cc 3f
       -0.12183641070060472 0.21980078193175626
000440 d0 03 fa ca 58 2d c1 3f 4a ce 6f 4b 2e 50 91 bf
       0.13419637595145995 -0.016907428125661185
000450 94 95 85 1c f2 20 a5 3f 74 0e 34 e5 be ed 87 bf
       0.041266981107393935 -0.011683932656985287
000460 f6 95 fd 02 9f bb a4 3f d5 ac bc 2b 03 10 8f 3f
       0.0404939356947515 0.015167259952781379
000470 2c 5b 40 e1 e8 39 ab bf 42 e6 81 bc 9a 4b 90 3f
       -0.05317619084978839 0.015913408046321693
000480 66 3d d7 0f 0d fe 93 3f 0e 6e d4 26 45 2a a4 bf
       0.019523815242619057 -0.039384995450941415
000490 6b bc 76 a1 da 24 4a bf 95 54 71 be dc 9b aa 3f
       -0.0007978503735354253 0.05197038483371689
0004a0 00 6c f0 42 87 9d 95 3f 68 59 7f 1a 62 5b b6 3f
       0.02110873552383552 0.08733189722929569
0004b0 0b bb 5a f2 70 5b 67 3f b6 73 bd d7 80 60 76 3f
       0.0028512197485136607 0.005463126460964076
0004c0 e3 78 cd 9c 4f 5a cc 3f 88 4c 44 8f e4 1f a7 bf
       0.2215060725820371 -0.04516519783842293
0004d0 44 16 5a 91 09 e1 bd 3f 7d dd 49 4b dd 4f c6 3f
       0.11671504782324243 0.17431226898382227
0004e0 06 92 bc 63 99 12 b0 3f c2 43 2e c3 a7 8d e1 bf
       0.06278380093551314 -0.5485419094203439
0004f0 eb d7 0b af c6 f3 9b 3f 1f e2 23 39 10 f2 a3 3f
       0.0272971195544968 0.038956171965711876
000500 f4 12 65 38 57 be b4 3f 04 46 2e 86 9d bf c3 bf
       0.0810293686564128 -0.15428513576311798
000510 2d 57 a2 49 bd aa bf bf b1 43 dc a5 7c 93 a5 3f
       -0.12369902656277239 0.04214086079276259
000520 f7 e6 0b cb 08 26 be 3f 1c c0 b3 0c 94 4e da bf
       0.11776785809697886 -0.41104603996700617
000530 fb 9d 81 93 38 21 be 3f 30 87 90 95 69 99 cc 3f
       0.11769441224316061 0.22343177607495468
000540 48 b5 59 50 ef 56 9c 3f 00 bf 36 6d 00 ed b5 bf
       0.02767538001937922 -0.08564760843614394
000550 88 c3 e8 5e f5 d8 99 bf ca 82 65 a7 dc ce 2a c0
       -0.025241693418311978 -13.404027205602137
000560 12 e3 b8 68 eb 43 c8 3f 0f ba c7 e8 df 04 bc 3f
       0.1895727406825008 0.1094493811903947
000570 00 7a 79 01 b2 08 cd 3f 08 02 3b 7d 4c 25 9c 3f
       0.2268278605651659 0.027486033576453323
000580 d9 83 ea 2b 52 75 c2 3f 31 d0 39 5e ae 56 db bf
       0.14420535225238387 -0.42716559602490906
000590 14 3c 2e 4e 7d 22 cf 3f f8 93 6e ea e1 d0 8b bf
       0.24324003522312465 -0.013582005469126898
0005a0 8d fb e5 24 85 3d bb 3f 64 df 1b 79 af 8c 1e c0
       0.10640747214163877 -7.637388126684389
0005b0 04 c7 e7 2e 26 0d c6 bf cb 6d ab 88 cc fa a7 3f
       -0.1722762803106478 0.04683531921702019
0005c0 8d f5 ee a9 00 57 ac bf 90 65 bb b7 07 0f ca bf
       -0.055351277107074194 -0.2035836836937901
0005d0 69 6a 2f 2e 10 47 b9 3f fd 13 5b 8d 49 6a c0 3f
       0.09874058845108781 0.12824363138329878
0005e0 62 b1 2a 9b 65 aa 66 3f 02 61 d3 02 d1 7a c1 3f
       0.002766798448041439 0.13656056058858473
0005f0 82 fb 7c 66 09 a4 63 3f cd c1 6c d5 75 09 77 bf
       0.002397554740951547 -0.005624256408552642
000600 9e c2 4a 8d 3b 06 cd 3f 30 16 11 df 45 76 c1 3f
       0.22675270461106306 0.13642190353327655
000610 24 90 35 17 8b 03 90 bf a9 13 97 bf 9c 61 b2 3f
       -0.015638516704157848 0.07180194547170395
000620 0e 28 07 04 d9 22 8e bf 6f 48 5a 24 2d 5f d6 3f
       -0.014714904246734075 0.3495591025358697
000630 89 1d 52 1a 18 64 b8 3f da 95 36 26 22 12 ed 3f
       0.09527731554600484 0.9084635492660553
000640 b6 0f 79 81 3a 4a 8f bf 13 d4 54 09 e0 40 b4 3f
       -0.01527829845065996 0.07911491611305647
000650 bf ef 92 e7 1b 45 bd 3f a3 b6 bc 4a e7 04 cd 3f
       0.1143357696882381 0.2267121424605892
000660 2c 8c 72 ff 67 17 b9 3f ff 66 f3 e1 a6 f0 91 3f
       0.09801340090284388 0.017519576588575166
000670 3f af b6 c7 61 d2 c0 3f 87 77 22 bf 0b 0e ad 3f
       0.13142034770623387 0.05674778659998397
000680 b7 5f 83 01 f1 52 c7 3f 64 79 4d ac 00 f9 b0 3f
       0.18221867154966073 0.06629947859389557
000690 ea a5 b9 87 c9 14 c0 3f 8d 1b 9a 47 60 50 c1 3f
       0.12563437583166542 0.1352653836840684
0006a0 71 55 bd 5c b4 8f dc 3f 9b 5a d8 a9 50 49 87 bf
       0.44627102905845734 -0.011370306189787007
0006b0 ba 4b c1 e6 c0 ab 97 3f 8c 77 54 8e fb 0b c2 3f
       0.023116125187083482 0.14099068116859959
0006c0 b2 6b 8f 03 98 2c a3 3f 2e 69 21 02 65 81 da 3f
       0.03744959872684407 0.4141476174169324
0006d0 5c ce d5 5a b5 f8 03 c0 80 98 22 44 8f cd d6 3f
       -2.496439656877369 0.35629636434385503
0006e0 79 6e e6 cb 87 47 b5 3f 72 2f 9d 32 fe 66 d4 3f
       0.0831227181246791 0.31878619139455744
0006f0 f1 71 ac f9 0b c7 bb 3f b8 8e e1 c0 10 f1 a9 3f
       0.10850596280619819 0.05066730837350292
000700 02 62 ae 4a 57 eb c2 3f 47 b1 ed 1c 03 26 ce 3f
       0.14780703684370172 0.23553503906749482
000710 56 a7 b0 7a 1e 9f 67 bf 7b 7b 17 a1 62 2a cb 3f
       -0.0028834910676964016 0.21223099580580737
000720 53 ba 2c cc a8 7e aa 3f 48 5f f8 22 2a ee c0 3f
       0.05174758427016415 0.1322682066681813
000730 f0 16 a3 b1 5e ac eb 3f 60 6b a5 fb ad 70 d2 3f
       0.8647912473176955 0.2881274182779432
000740 5a a5 38 ea bc 98 c0 3f 03 b4 c6 7b 2b e4 b3 3f
       0.12966119228921508 0.07770034572486399
000750 e6 7c 35 dc b1 b1 a7 3f 85 39 75 79 a9 af b9 3f
       0.04627757847878815 0.10033663955002765
000760 2a e5 05 09 b2 ad ba 3f 87 da b3 e6 bb 7b c9 3f
       0.10421288223541994 0.1990885616757689
000770 cb ba 28 6c 14 f8 b3 3f b5 6b e9 85 2c 47 bd 3f
       0.07800414696314843 0.11436727780657814
000780 5b 0d 22 a0 a8 69 9e 3f 00 50 93 bc 33 c0 d4 3f
       0.029699930928939505 0.32423108497209796
000790 b5 84 be 2c 99 be cb 3f 7f c8 3a 77 da 72 ac 3f
       0.21675409970069884 0.055563761762997814
0007a0 54 f1 d7 42 db 1a 89 3f 44 1e d0 a2 1a 5c cd 3f
       0.012258255937006503 0.2293732924447217
0007b0 77 20 42 7e 8d 95 bf 3f c2 bf a2 84 f3 40 b5 3f
       0.12337574322202892 0.08302232731034478
0007c0 6e 04 96 76 e8 c2 b6 3f 2f 20 b7 62 6f 85 80 3f
       0.08891156096616878 0.00806700725560469
0007d0 1e e3 5a 14 b0 64 d9 3f 54 11 62 fb 64 9b d5 3f
       0.396770496252019 0.33760952519539456
0007e0 f3 f8 49 9d 1c db c0 3f b3 6a ce a7 05 fa f5 3f
       0.13168676071285965 1.3735405497488216
0007f0 2a a6 22 e4 61 d4 bf 3f e8 6c b1 44 a6 7b cf 3f
       0.12433444804869312 0.24596098283914292

onnx::MatMul_13 f8 [96, 63]
000000 2d 38 a8 ad 28 4e c3 bf 6a f2 b7 c5 f9 5a c0 bf
       -0.1508227203307241 -0.12777635721421926
000010 61 2f f9 69 71 c1 dc 3f 8f 7c 2a a6 bb 31 cc 3f
       0.44930682515108883 0.2202677308423273
000020 18 a8 13 4f c1 a4 c9 bf fb ab 04 b6 3e 52 b0 bf
       -0.20034042702838017 -0.0637549585705272
000030 1f 67 bd 46 b4 db d5 bf 36 3c b5 6c 47 a2 cd bf
       -0.34153468044461194 -0.23151486213689204
000040 7f 23 e8 43 d3 04 d4 bf f9 7e 91 7c d2 59 a4 bf
       -0.31279451018831844 -0.03974778910264649
000050 73 b1 d9 2e 0f a4 cb bf c3 31 78 95 3f 45 b5 3f
       -0.21594419276824403 0.08308789633901541
000060 93 b1 80 dd 01 ca 98 bf fa be c1 91 7b 98 d3 bf
       -0.024208096641972054 -0.30618180498184666
000070 cd 74 41 0e 17 a7 d9 bf 7f 5f 29 df b6 1f bb bf
       -0.40082336799771384 -0.10595267246514871
000080 1d 75 c0 f6 00 b5 c8 bf d8 70 c2 6e f9 36 c7 bf
       -0.19302379654337978 -0.1813651839082755
000090 33 1c 6d 6d a5 f9 ce bf ff f2 35 ab e7 ea bb bf
       -0.2419935974414514 -0.1090531151766747
0000a0 a0 0e 5c 72 f3 fe c6 bf f6 25 ca 3a 84 19 d5 bf
       -0.17965548595394853 -0.3296824049108119
0000b0 17 45 67 d3 d1 a4 b9 bf 85 ea ae 7f 66 4a b8 bf
       -0.10017119799819728 -0.09488525979296909
0000c0 24 af ad b2 14 48 b3 bf 66 c8 93 2d a7 73 d2 bf
       -0.07531861650721489 -0.28830890131860654
0000d0 d5 06 3e 9b 01 f2 ca bf e8 0d 73 85 7d ee 90 bf
       -0.21051044540586497 -0.016534768362147206
0000e0 87 ab 28 ab 02 56 b2 3f 25 82 3d bb eb 0a c1 bf
       0.07162491491969379 -0.13314577715483825
0000f0 8a ec 8e e0 25 bd ad bf 4b a3 d7 7c 40 cb b2 3f
       -0.058083709394360986 0.07341387794407443
000100 c9 db 62 90 79 c1 b0 bf 5b 47 63 d8 17 7d d1 bf
       -0.06545219206860432 -0.2732600796854194
000110 2f 95 1d ba 96 2f ba bf 73 66 ff f5 b4 fb da bf
       -0.10228864711605888 -0.42161296866615955
000120 d8 a9 d6 59 09 df dc bf 90 57 d2 ba 8b 38 da bf
       -0.45111306927961214 -0.4097012829237139
000130 36 33 3d 4c 95 fb a5 bf d7 8c 34 ca 0c b5 b4 3f
       -0.04293505244877453 0.08088760315563391
000140 f7 17 1b c0 9e 32 b3 3f 80 95 8a 34 65 fe d0 bf
       0.07499115171512459 -0.26552705889692874
000150 41 3e 48 e4 ed 8f d8 bf 3c 9e c2 cf b9 37 b1 bf
       -0.38378474515136324 -0.06725655863066832
000160 2d b8 30 9d 51 7c 9b bf 37 25 55 c8 55 a7 da bf
       -0.026841426104674482 -0.4164633232472456
000170 e3 fc dd 30 3a aa e2 bf bc 62 66 a8 be fe d8 bf
       -0.583279700702317 -0.39054838605219877
000180 fc 42 b9 ad f7 ad da bf a2 d9 7e b8 3e fe cc bf
       -0.4168681332130715 -0.22650894173211805
000190 60 5e 5a 4d ac 13 bf bf 4e 6c fc 2b 44 72 d1 bf
       -0.12139393700123824 -0.2725992612410594
0001a0 6f aa 8a 61 95 77 d4 bf e7 57 ea 48 33 a3 d4 bf
       -0.31979879880478895 -0.32246095772404576
0001b0 48 fc c9 54 fc e2 8c bf a3 1a 35 a7 86 ef aa 3f
       -0.014104815805010898 0.05260868826967637
0001c0 e6 45 88 17 32 59 b3 bf 45 01 d5 39 d4 f9 b6 bf
       -0.07557976793784568 -0.08974958812632845
0001d0 dd 4c d9 35 53 6a d0 bf da cd 97 9a e5 b6 cc bf
       -0.2564895654551956 -0.22433157013402544
0001e0 77 12 f8 4c 9e d3 d7 bf 2b a8 40 0d 45 5b 76 bf
       -0.37229115978724486 -0.00545813535067378
0001f0 df 3f 6b ce f4 1c cb 3f 9f c0 f3 fe 5b 98 8c 3f
       0.21182117537546127 0.013962477415106199
000200 2c 04 7a 46 48 76 a7 bf 3a 6d f1 f5 50 c3 b0 3f
       -0.04582429752645853 0.0654802895018535
000210 f9 59 49 6d 78 86 94 3f 99 32 2c 45 ab 62 bb bf
       0.02004421393425024 -0.10697431982789353
000220 50 17 f2 d9 2d 1e 63 bf 99 8a 87 f7 0a ec a5 bf
       -0.0023337264570412533 -0.04281648894882046
000230 7d 30 a0 d3 2d 35 bf bf bc 05 8b 0a 52 2e 96 bf
       -0.12190519730228462 -0.02166107358312329
000240 28 41 60 4e 09 5d 90 bf 42 f4 d3 61 59 08 56 3f
       -0.015979905518237164 0.001344764029737947
000250 99 91 ba 7f 02 ae ae bf db d6 5c 2a fa 55 8f bf
       -0.05992133912266979 -0.015300707261853777
000260 4b 71 92 fc 02 d8 b0 bf 3b 5f 32 55 16 2e 93 3f
       -0.06579607645330048 0.018730496358869458
000270 05 92 2d dc 50 54 89 3f cf 8e e5 9e e6 3d b8 bf
       0.012367850989627458 -0.09469453219713418
000280 a1 ba b9 43 36 f7 a9 bf a2 d4 fa 99 f7 28 a0 3f
       -0.05071420265891403 0.03156255488048855
000290 e1 c4 19 fc 21 15 b3 bf d9 73 88 75 41 f0 c5 bf
       -0.07454121022034911 -0.17139452208439712
0002a0 fc 5f ef b8 4a 14 c1 bf 09 e8 04 1b fa e3 99 bf
       -0.1334317591670241 -0.025283725642317765
0002b0 fe 37 14 05 bc 80 b5 3f 9b d7 0d 91 23 09 a9 bf
       0.08399558185575981 -0.04889784951858119
0002c0 c7 47 e6 d2 40 ef a0 3f 37 cf 47 cc bb f0 bc bf
       0.03307535719353854 -0.1130483030063346
0002d0 60 e7 eb ce d4 21 c1 bf 76 68 48 f4 93 27 c4 bf
       -0.13384494880284148 -0.15745782306550254
0002e0 7e d2 63 9b 7e dc ad bf 38 dd 59 31 2b e1 c1 3f
       -0.05832286497926463 0.13968410405844067
0002f0 6f b5 b5 dd 4f cc b1 bf 62 05 68 41 29 2d bd 3f
       -0.06952380335652263 0.1139703545268467
000300 76 f6 d9 66 4d bd ab bf 38 be b3 4c 9e b4 c3 bf
       -0.05417863731871091 -0.15394953484745755
000310 90 23 15 98 46 11 a3 bf 33 93 c9 0b aa b4 a1 bf
       -0.03724117857434017 -0.034581483782665144
000320 a6 28 b7 8f fd 13 a2 3f 2f d9 e7 1d 43 9a b1 bf
       0.03530876521433983 -0.06876010398977848
000330 97 05 9c 53 65 bc 93 bf d5 0d bd 8b d3 a6 93 3f
       -0.019273360469929193 0.01919107952495643
000340 3e 88 fb 8f 91 b6 b7 bf 8b 16 57 fc c3 5a b6 bf
       -0.09262952580641667 -0.08732247267388453
000350 01 ec 5e 34 36 33 81 3f a4 8d 40 5d 51 81 c1 3f
       0.008398459885816225 0.13675896695450007
000360 ac f8 90 c0 d6 9e 9e bf 26 cc 9c a4 9c f1 a2 bf
       -0.029902797225297803 -0.03699960240773974
000370 87 a4 19 06 07 02 be bf 6b bd 80 fc 7a a5 74 bf
       -0.11721843623094418 -0.005040626922024098
000380 ff 66 2c 29 ce b2 be bf 3c 65 92 e2 ad 64 90 bf
       -0.1199158525963888 -0.016009060815666873
000390 c1 7c 92 e6 e9 b6 84 bf c5 c9 29 30 55 0f c0 bf
       -0.010114505146985643 -0.12546791888924083
0003a0 6a 40 10 98 df bd a9 bf 09 77 a5 83 bc b1 bf bf
       -0.050276744186818004 -0.12380579198858412
0003b0 46 b7 38 5f c8 d5 ab bf cd 09 f0 db 86 18 c3 bf
       -0.05436540758488077 -0.14918599833624882
0003c0 27 37 88 d4 d2 0c a2 bf 3c de 22 03 0b 19 be bf
       -0.03525408596406825 -0.11756962610785932
0003d0 48 f5 a3 59 88 11 a8 3f c6 93 4e 97 35 9f a4 3f
       0.047008763258399144 0.040277170868001685
0003e0 7f de 15 1e 7e 2f c3 bf c4 83 84 09 e7 1a a0 3f
       -0.14988686055197672 0.03145524970228267
0003f0 a7 90 5b 25 97 cb ab bf 0b a9 ed f9 d8 60 c2 bf
       -0.05428764658953016 -0.14358055308850512
000400 cf d3 9a 6a 09 48 9d bf 6c df 05 d6 9a 7c b6 bf
       -0.02859511101879147 -0.08783881879014438
000410 50 1e 42 86 cf fe d3 bf 71 17 f4 e8 de 1f b2 bf
       -0.3124274073711364 -0.07079880893078695
000420 b2 c4 f3 78 09 fa ac bf a7 43 bf 3c f8 44 8c 3f
       -0.056595130934405616 0.013803424218993344
000430 da 15 25 ab ac 3e d3 bf 0a 43 13 dd 18 23 c0 bf
       -0.3007003470741815 -0.12607107920350585
000440 26 73 52 74 ca 31 d2 bf 96 ba be 70 06 03 94 3f
       -0.2842889915425978 0.01954279006138878
000450 51 b3 53 64 b3 db 98 3f c1 e5 81 75 27 e4 d3 bf
       0.024275591848822945 -0.31080042338689046
000460 ec 5c 6e d3 b7 f5 b8 bf 7e 57 1d 68 7e 3b be bf
       -0.09749936019794675 -0.11809530298100232
000470 ae 0a a1 e0 44 04 b3 3f ab fe a3 1d 36 f6 96 3f
       0.0742838905726255 0.022423596915358484
000480 21 4e 84 f6 e5 50 a8 bf 6f a9 33 49 5c 26 ab bf
       -0.04749220499266139 -0.05302704232765875
000490 9e fb 33 9f b7 20 4e 3f 2a e5 c3 5a 94 9b d0 bf
       0.0009194275466198781 -0.25949581970015123
0004a0 b4 53 0e b2 84 69 ae bf b7 d1 19 2f 15 3a cc bf
       -0.05939879106077886 -0.22052254485937592
0004b0 7b df 8d 5a e0 0b 80 3f c0 6d 15 72 9a 9f 69 bf
       0.007835152400488479 -0.003127862598075487
0004c0 6e a0 a6 88 ee 32 c4 bf ef 35 9b ed 4c 2f a0 3f
       -0.15780431435019032 0.03161087418048313
0004d0 67 9a b2 53 96 d2 b3 3f 60 eb c1 8c 36 1b 9c 3f
       0.07743205588722334 0.027447559682041045
0004e0 4a f9 1b 6e 1b e9 a8 3f d7 f5 cb 3d 7e 24 a8 3f
       0.048653466406892124 0.04715342048983089
0004f0 2b 4c dc c7 a0 68 c1 bf fb 29 0d d1 6e 33 7a 3f
       -0.13600549467864317 0.006396706464168118
000500 7b 2a 29 d7 3e e5 b9 3f 88 f4 98 76 e9 07 a7 3f
       0.10115425827931716 0.04498223850939903
000510 65 e5 b4 d8 f4 55 a4 3f fd 87 79 6b 32 80 c2 bf
       0.03971829552979037 -0.14453726051129925
000520 a5 00 06 67 89 b3 67 bf 77 49 0b 1d fc 45 8c 3f
       -0.00289322697079804 0.01380536044726875
000530 9d 4e b1 a6 63 94 ac 3f c8 5c db a7 cd 71 9d bf
       0.05581962022611473 -0.028754437799616978
000540 a6 1b 2f 8c 3a 69 a3 bf 92 4f b4 8c 2c 55 b7 bf
       -0.03791220628004703 -0.09114340243496447
000550 b3 a9 82 d2 5f 22 89 3f 23 72 b1 d8 c2 c7 ce bf
       0.01227259503533138 -0.24047122555465802
000560 c0 b8 a9 fc 3c a4 bc bf f3 2b a2 8c fc 77 d0 bf
       -0.11188107651261969 -0.25732339605082116
000570 3d 0c 40 01 f4 4f a3 bf a2 32 b7 50 5e 1a 98 bf
       -0.03771936908017224 -0.0235380875363257
000580 6e 13 d6 36 22 ac b4 bf 58 0e cf 40 d9 d5 b8 bf
       -0.08075155104422801 -0.09701307136770632
000590 1e 87 ee 3f fc a2 c3 bf 16 e4 53 f2 f0 28 ba bf
       -0.15341141816775744 -0.10218721309856024
0005a0 82 5e 27 24 d0 70 ab bf 14 f8 f0 55 af 33 a9 3f
       -0.05359507027941125 0.04922244953239399
0005b0 a2 e8 56 69 85 40 af 3f 96 2c 63 cb b3 f9 bf bf
       0.061039132222007866 -0.12490390506279633
0005c0 50 05 7a 0b f0 86 a1 bf 5a 2f 1b b4 af ae c2 bf
       -0.0342326177606177 -0.14595600408790227
0005d0 64 14 d8 92 79 b7 9a bf 1d 20 42 5a 98 5f b3 3f
       -0.02609052618756315 0.07567741588184203
0005e0 7f e8 7f 24 e5 f0 b4 bf 8d 91 a8 fd 09 4b 89 3f
       -0.08180076733688856 0.012350156835119442
0005f0 03 ed ea 54 89 b9 80 bf 6b 0c 19 67 5d 68 89 3f
       -0.008166382698041824 0.012406091412350237
000600 94 f0 49 57 37 97 b8 bf e8 c4 e3 1d b7 04 c0 bf
       -0.09605737572741396 -0.12514389953097482
000610 9d ef fa 11 92 16 b6 3f e7 6c 5f 63 2b 12 c5 bf
       0.0862818998238581 -0.16461698867974592
000620 2e a7 6e 96 01 39 b1 bf 82 68 9e d8 77 95 c2 bf
       -0.06727609560644218 -0.1451864059170625
000630 b3 31 a5 8a e0 97 b0 bf 00 69 c7 47 b6 9a a0 bf
       -0.0648174608697392 -0.03243035913665615
000640 a4 9d 3f 5b e5 a8 86 bf c0 9c 9b a9 fb 75 a6 3f
       -0.011064330908950044 0.043868889288029234
000650 c3 44 18 dc b8 76 be bf d1 f6 3c f9 8a 28 8e 3f
       -0.11899905560882744 0.014725766879219478
000660 91 d1 ba 60 34 d6 b0 bf a0 97 bd 2e 22 0a af bf
       -0.06576850282255566 -0.060624187665595075
000670 b3 02 57 fc 59 88 56 bf b4 2e 6b 69 5e 6e ca bf
       -0.0013752821699741069 -0.20649318835636665
000680 23 32 68 12 53 4f a7 bf b2 75 42 b1 c7 e0 b0 3f
       -0.04552707290358551 0.06592987134577902
000690 e5 a8 07 16 73 bd 9e bf f4 dc c7 5d 86 46 a7 bf
       -0.030019567699050582 -0.045459937045899595
0006a0 33 79 97 3f f5 d8 c8 bf 89 c0 3a d9 15 dd ac bf
       -0.19412103276312961 -0.056374247329018586
0006b0 a0 72 49 50 89 d8 99 bf d7 e8 dd 3b 7a 65 b8 bf
       -0.025240083241771516 -0.09529842340080862
0006c0 f6 df 45 66 d7 ca a4 3f b4 ff 6f 60 87 9d b3 bf
       0.04061005710076408 -0.07662244896346132
0006d0 48 60 2a 6d e7 58 c2 bf 88 04 b6 b1 b7 e8 bd bf
       -0.14333813505504822 -0.11683223808906196
0006e0 5b 99 d5 94 46 73 7b bf 31 58 44 cc 1c aa 88 3f
       -0.006701732357532765 0.012043213828786122
0006f0 07 ef 0c 86 40 80 a3 3f 8b 50 24 56 98 9f 88 bf
       0.0380878604541675 -0.012023153427925834
000700 c7 a4 85 a3 ca ae b0 3f 6f e5 89 e2 bf b7 c6 bf
       0.06516710750806275 -0.1774825912614619
000710 71 da 8a d9 89 54 b8 bf 9a a0 8b a6 02 a4 9f bf
       -0.09503995476812023 -0.030899087348104183
000720 0e 6d d3 46 14 39 b8 3f 92 33 84 8a 0c 48 a6 3f
       0.09462095955989389 0.04351844015955132
000730 f3 a7 0b 0a 29 fc b0 3f a1 25 9f 19 fe 04 9c bf
       0.06634766097309334 -0.027362795175383096
000740 f8 5e dd a9 13 8b b5 bf 72 19 ca a5 75 f4 b6 3f
       -0.08415339371765274 0.08966765687555325
000750 07 c2 2c 1b 6c 1c c3 bf db 92 4d 57 f3 dc b4 3f
       -0.14930487944504042 0.08149643784924925
000760 00 e7 aa b1 e8 98 b2 bf ca 4f 1a a3 e2 65 c0 bf
       -0.0726457055815466 -0.12810929264071397
000770 d2 86 28 0e 2c c6 ab bf 24 c8 52 cb 7f a1 b7 bf
       -0.05424630806761645 -0.09230803216885924
000780 6c f3 07 1b 7a b5 a2 bf de a0 18 89 09 bb c7 bf
       -0.036540809440316874 -0.1853954238333761
000790 1f 4e e9 71 4f 6c b7 bf 9f 6e 71 5c 89 fd a5 bf
       -0.0914964345077398 -0.042949955496365926
0007a0 48 ba a5 7a d3 2d c2 3f 2d c1 4f 97 e3 67 83 bf
       0.14202350128785413 -0.009475496344720636
0007b0 b1 2c 87 58 18 d5 be bf d7 bc 9c df a4 db b2 bf
       -0.12043907319382431 -0.07366400203021627
0007c0 f6 93 f2 0d f4 25 9d bf 56 cc 20 f2 16 74 a9 bf
       -0.02846509299401486 -0.0497138186041403
0007d0 d3 b0 20 22 e1 89 b1 bf 7e 2d 80 f1 f6 f8 b4 bf
       -0.06851012309261088 -0.08192389865887681
0007e0 ed c2 da 9b 33 a0 6e 3f fc 3a 28 c9 c4 03 c4 bf
       0.0037384994492061147 -0.1563650114262244
0007f0 23 45 e4 a5 50 60 b6 3f 4f 07 e4 07 2c 80 7c 3f
       0.08740715074624865 0.006958171840098461
