model/onnx_model_LSTM.onnx (onnx, 585976 bytes, 5 tensors)

fc.weight f8 [7, 72]
000000 bc c4 2a 84 fa a1 81 3f 6d 36 bd 11 e7 c8 a3 bf
       0.008609730871599879 -0.03864214030782596
000010 98 c0 27 14 6c b0 ea bf f0 5e 0f 9e a5 20 60 bf
       -0.8340359109552251 -0.001968692275550292
000020 e8 e9 32 a9 61 2c b0 3f 8d 68 ba 8d b7 59 cc 3f
       0.06317720776397773 0.2214879457504292
000030 f0 0b 2a 20 41 76 b0 bf fe e7 1b 3d bb fc d2 bf
       -0.06430441890010719 -0.2966755005614913
000040 af c0 8a 02 9c 29 f5 3f ae d4 e0 ce 78 88 f8 bf
       1.322658548288057 -1.5333183365994887
000050 67 1a 11 3e d5 c8 a1 bf 61 65 5d dd 04 10 a3 3f
       -0.03473535902644614 0.03723159029204726
000060 9d 99 fb 8f 0c 9c e0 bf b3 f4 b3 fd 63 ba f0 bf
       -0.5190489589847861 -1.045505515124472
000070 b4 7a 37 53 29 fb b8 bf 45 37 8c 32 92 08 cc bf
       -0.09758241922052485 -0.21901156871939
000080 0e ef 6f 2a 83 0f e9 bf e6 e5 e0 cc e1 e7 bc bf
       -0.7831435994007465 -0.11291323902050684
000090 5f 50 ea 33 37 54 d4 bf 3d c6 bc d6 50 22 cc bf
       -0.3176401144967311 -0.21979723439430812
0000a0 42 bd b0 18 9a 2f b0 3f b1 37 2c 1b cf 9d bd bf
       0.0632263479499118 -0.11568922437092401
0000b0 8f f5 ef 8f 8a 0b d3 3f 74 2b 25 f0 04 a0 e8 bf
       0.2975794225347607 -0.7695336046539141
0000c0 ad cc d9 d9 1a 14 b0 3f 2c 72 99 9e 89 1d c5 3f
       0.06280677622435134 0.16496391529189347
0000d0 69 8e 3a 0b be 49 d0 3f 4f 32 77 54 66 4a bb 3f
       0.25450087639385416 0.10660399973057476
0000e0 e5 09 73 09 92 90 e0 bf 96 4a bd 4d 40 ab ba bf
       -0.5176477608259203 -0.10417558572707217
0000f0 7f df e2 44 96 dc b0 bf 27 9b 11 f4 b2 93 68 bf
       -0.0658658903292899 -0.0030001158889264748
000100 11 fa c6 57 7e 9a e7 3f cb 91 d4 88 9f df 9a 3f
       0.7376090731048085 0.02624367973943879
000110 45 ce 3b 62 ef 2e 84 3f cf 42 e1 ea 06 f4 a2 3f
       0.00985514658484655 0.037018028423181464
000120 da ba f9 9b 9f 4b b0 3f 9d 82 58 96 1f a4 bc 3f
       0.06365392263408456 0.11187932415533415
000130 e2 24 8b 66 77 8e f5 3f 16 d9 97 1d 65 5d 14 40
       1.3472818379980755 5.091206037896219
000140 a4 50 b2 79 d9 cd b0 bf ef bd 67 5e 28 32 74 3f
       -0.06564101430041319 0.004930646601209328
000150 ab 3f 94 6c a3 04 d6 bf d7 ff 75 2b f3 17 d5 3f
       -0.34403310397555725 0.3295867847846216
000160 74 37 27 8a 01 ba ed 3f 9a 22 dd 87 71 b9 b3 bf
       0.9289558122925272 -0.07704839293468027
000170 ef ff 2f ee 92 07 b5 3f a2 68 a7 46 d8 87 e1 3f
       0.0821468192589234 0.5478326206168911
000180 6c 65 bc 79 73 42 db bf 67 62 2e b7 87 d8 da 3f
       -0.4259308518245095 0.41946595085895527
000190 4e 4b 10 35 93 eb c0 bf 93 1b 10 4c cd 18 91 3f
       -0.1321891793346261 0.016696174399864438
0001a0 a4 7e e6 21 7f fc d2 bf f0 e0 13 95 35 9c a7 3f
       -0.29666117010672566 0.04611365742488427
0001b0 88 a2 d1 15 5a 94 b1 3f de b6 94 28 e5 b3 dd 3f
       0.06866992027938512 0.4641049286172868
0001c0 6c bd 9d f1 c6 a6 ca bf 55 2d 6f 38 05 7e c2 3f
       -0.20821463391937856 0.14447083716945977
0001d0 38 77 6f b5 41 d9 f6 3f d6 cc 98 b1 77 a6 cb bf
       1.4280411803551498 -0.21601768657419623
0001e0 a2 c3 83 e0 4d 15 06 40 bb f8 2f 57 26 39 b2 3f
       2.760402444859623 0.07118453625295988
0001f0 81 3e 80 0e 9d 09 e4 3f a8 05 4d 5d 42 6b b8 3f
       0.626173523256469 0.09538664605954372
000200 ce e4 a4 c9 2f 3b fd 3f d1 b0 04 5a 90 24 c1 3f
       1.8269498707507412 0.13392834086824348
000210 79 f8 e4 67 62 e4 a1 3f 29 5e 5f 32 af da d5 bf
       0.034945559675620914 -0.3414724342269176
000220 d8 aa ff 81 6d 6b c8 3f 00 a2 62 3e 74 45 d1 bf
       0.1907784352072983 -0.2698641404372495
000230 6d 68 c4 f5 d3 e3 dd 3f 7c 34 18 aa 23 02 e2 bf
       0.46703051567749904 -0.5627611467513272
000240 87 24 8c e9 a8 93 8d bf c8 9e be af 6d 1f a2 3f
       -0.014441794993688596 0.03539603014297438
000250 64 5c ae 94 07 3d 97 bf 5f 1a 28 ad 60 f8 e3 bf
       -0.022693746995710376 -0.6240695363965861
000260 88 81 53 01 27 a8 a6 3f 7f 10 d4 a3 56 94 aa bf
       0.044251650726212566 -0.05191298246248354
000270 a2 18 aa d3 d3 85 c1 3f eb 27 24 f3 6f 3b cf bf
       0.13689658961465506 -0.2440013825619752
000280 19 4f c3 18 5b b3 d7 3f e2 98 aa 55 d5 e9 e2 3f
       0.37032201212171995 0.5910441086932929
000290 1d 83 2b 8c 55 0a ba bf f8 5d b5 e6 38 66 95 3f
       -0.1017201869212951 0.020897759515120712
0002a0 bf ed a7 d1 6b ae e7 bf 0a 8e 07 32 b7 12 ec 3f
       -0.740041646465606 0.8772846200121773
0002b0 c1 a1 2c fc e9 5e a8 bf 1c e5 3c a4 08 b2 e0 bf
       -0.04759913638401115 -0.5217326362391392
0002c0 1a f0 70 03 76 3f e1 bf 67 5a 37 57 8a bf f6 3f
       -0.5389967028818348 1.4217627913364141
0002d0 e8 9a 26 14 07 74 a8 bf 39 97 44 81 24 59 e8 3f
       -0.04776022072774372 0.7608816647304827
0002e0 68 01 12 47 cd 16 b7 bf 16 eb 01 9c ae 25 ad bf
       -0.09019167885890556 -0.05692811636341426
0002f0 cb 04 10 b8 e3 af d2 bf 32 39 ad 74 9a 22 d0 bf
       -0.29198544478283556 -0.2521120204372834
000300 da cf 34 60 78 2d dc 3f 47 b1 73 99 26 a1 e0 bf
       0.440275281859838 -0.5196717259509932
000310 08 91 ca 77 dc ca c3 bf b9 e0 5f b4 15 26 73 3f
       -0.15462833260711073 0.0046749923549144696
000320 5b 72 4d ae b7 0c cd bf 9f 1c f8 61 25 14 d5 3f
       -0.2269506074034265 0.32935461585334197
000330 1f 43 6f 38 42 5a a4 bf b8 2d 8c bc ea 63 a4 bf
       -0.0397511190309443 -0.039824805751858816
000340 77 89 e7 d8 8f b0 f9 3f a7 77 aa 6f 7e 57 b4 3f
       1.605605933459257 0.07946005083291983
000350 56 05 7b 2a 66 94 a9 bf 7e 3a de f1 db 36 a5 bf
       -0.049960320172895464 -0.04143416717044078
000360 0b 75 86 42 2f 19 c0 bf f6 a1 c7 32 a9 6b 95 3f
       -0.12576857326795507 0.020918506359437893
000370 42 df c0 ef 9f 6e 0d c0 64 2b 1b aa f8 a5 c0 3f
       -3.6790159922346968 0.13006504350627346
000380 08 de ee 9e 5e fe b8 3f e4 94 16 cf 09 7c a1 bf
       0.09763137226297414 -0.03414946225101703
000390 2a 71 34 8a 87 5a b8 3f f2 d7 5a da 6c 01 c2 3f
       0.09513136982099427 0.14066849386080055
0003a0 69 40 7e 23 46 0e e6 bf 97 9a f2 be aa 3a cf bf
       -0.6892424290872557 -0.24397787402741208
0003b0 d9 47 29 19 cf 85 bf 3f 7e 5a 09 7c 91 a0 93 bf
       0.12313551296509163 -0.019167206950749797
0003c0 9a 28 f4 56 5d 61 bc bf ee c6 d4 8d 51 27 d3 3f
       -0.11086066601652292 0.2992748150892187
0003d0 88 44 cf be bd 15 c0 3f 15 db af bd a1 37 b7 3f
       0.12566348854901244 0.0906926239111779
0003e0 82 96 44 70 c1 9a b5 3f 1c 6e b7 40 48 6f 8e bf
       0.08439263335147909 -0.014860691523543905
0003f0 f1 b7 32 0f 5c e9 c9 3f 15 5d af b9 52 3f ec 3f
       0.20243407003493943 0.8827298761997634
000400 f3 15 4f 87 21 16 01 40 b6 4c b0 e3 08 52 c8 bf
       2.1358061381349613 -0.19000350110636582
000410 1a 1b 6c 37 48 02 d9 3f 6d cf 91 df cb 30 b9 3f
       0.39076428806622376 0.0984008236717366
000420 09 b3 27 37 31 3a c3 bf 8e de 55 67 d8 ae c1 bf
       -0.1502133864700215 -0.138148355919601
000430 ec 51 0b f2 2e e0 c8 bf eb c5 0c a2 45 15 bd 3f
       -0.19434153383794184 0.11360583502098336
000440 a7 4e b3 d9 b8 d2 0d 40 81 29 83 c3 e9 9c b4 bf
       3.7278916366429544 -0.08051930449724944
000450 4a db 15 de 91 27 9c bf b7 79 00 82 fe 55 da bf
       -0.02749469678880282 -0.41149866767400617
000460 c9 66 99 8c 6a c4 cf bf 17 96 ef f9 e4 ac e2 3f
       -0.24818164696880832 0.5836052781639322
000470 fa 27 6b 55 40 83 d7 bf 59 55 ac ad 0b 50 c7 3f
       -0.3673859438100632 0.18213029842506037
000480 64 bc bd 1d b2 d0 9c bf 82 f1 6b ed cc 36 91 bf
       -0.02813986116910562 -0.016810609808986417
000490 cf a6 87 96 67 9b d4 3f 57 71 f1 4c 68 f4 b8 bf
       0.3219851465242813 -0.09747936132902645
0004a0 1c 9e a1 0e 50 3c 69 3f 25 22 5f d3 63 c5 b1 bf
       0.0030805171600609815 -0.06941818151893438
0004b0 62 42 19 f2 3f 3b a9 3f d5 f8 c6 d9 3a d5 d3 bf
       0.04928016500764866 -0.3098895193796925
0004c0 ab 5a 23 83 ce 74 d3 bf f2 5d f3 c0 83 3e ea 3f
       -0.3040043144841699 0.820131184441321
0004d0 4f 60 86 1d 81 b1 be 3f 67 56 49 de 99 4b c3 3f
       0.11989600153754164 0.1507446608908822
0004e0 1a a7 95 8c ef 48 e1 bf 8c f8 0b 68 eb 47 e8 3f
       -0.5401532884399984 0.7587792427218729
0004f0 9d 61 bb 5a ed 1a c0 bf 68 25 e2 85 3d a6 d4 3f
       -0.125821751883234 0.3226465041594424
000500 47 26 60 27 23 4c eb bf 1a 65 76 b8 a1 de c2 bf
       -0.8530441063932778 -0.14741918093640366
000510 d6 cd cd af e1 24 b7 bf 26 64 47 53 63 b9 c0 3f
       -0.09040651838386479 0.13065759245253722
000520 24 cb 07 6d 29 72 95 3f b6 ab e3 08 36 df af bf
       0.020943305282297278 -0.06224984034073293
000530 0e 4e 76 53 a0 02 c6 3f 1f 1c 06 8f f2 18 c4 bf
       0.17195514750766033 -0.15701133712374912
000540 48 d5 06 7d 30 7a d9 3f 72 9e bb d1 97 e0 b4 bf
       0.3980828495944775 -0.08155201788360403
000550 87 86 71 11 65 70 c9 3f 6b 5a de aa a1 85 6f bf
       0.1987425170109882 -0.003847900158642494
000560 ae c9 6d 7c f6 9e f4 bf f4 ea d5 e4 c5 d6 db 3f
       -1.2888092861654559 0.4349837050173584
000570 66 c3 0f e3 15 67 c0 bf 67 fc e6 8c 9d 48 8c 3f
       -0.12814591967574102 0.013810377943512543
000580 91 fb bc ab b7 a8 f0 3f ce 20 a2 35 1d a2 d5 3f
       1.0411907871746033 0.33801965940120915
000590 00 bc 79 b0 41 60 c2 3f d6 6d 89 cf 96 3e b4 3f
       0.1435625182816409 0.07908003393952553
0005a0 1c ba 70 4f 7d f4 e8 bf 7e 24 17 29 04 70 94 3f
       -0.779844908863939 0.01995855809017088
0005b0 28 0e 8a 1b aa 74 0d 40 07 18 fe 8b 8c 12 b4 bf
       3.6819650794511922 -0.07840803544795004
0005c0 81 97 21 12 ae b1 97 bf 96 f8 fd e5 bd 13 b7 3f
       -0.023138732773439145 0.09014498581925276
0005d0 51 42 5e ba 67 11 ab 3f db 7b 55 4b bc 46 92 bf
       0.052867166042351095 -0.01784795961190953
0005e0 ae 69 b3 5e 46 c1 f4 bf 3e 3b 96 ae 22 fc c7 3f
       -1.2971862506152365 0.18738206410167807
0005f0 f0 27 07 66 6d 1f ba bf 01 f7 96 a6 2c 40 62 3f
       -0.10204204312245202 0.0022278663716112095
000600 2e 8b 40 3a 6d 1f b3 3f 2a 36 a4 eb 29 7c dd 3f
       0.07469828293009748 0.46070335399494644
000610 89 f1 c3 9f 00 91 b6 3f 93 39 ad c5 65 27 ac 3f
       0.08815006161234441 0.05498807943387187
000620 9b 9b bd c4 ab 58 c6 bf 34 1c f8 cc 8a 03 9f 3f
       -0.17458102327802014 0.030286949882818173
000630 40 42 10 a3 5f 8a d2 bf a2 81 79 01 e7 4a 0d c0
       -0.28969565319224344 -3.6615734210210613
000640 62 f7 4a 33 d3 7d ed 3f f2 74 42 56 74 79 95 bf
       0.9216094972432354 -0.02097112442480848
000650 a6 57 13 f1 cb c4 a6 3f 36 23 6c ad 02 34 b0 3f
       0.04447018926445816 0.06329361661859143
000660 f6 c6 3b 78 d3 f7 e0 bf a5 c8 9d 97 09 02 a6 bf
       -0.5302522037802351 -0.042984294660429335
000670 01 2d cb da 87 29 99 3f 2e 57 0c c0 cd fb b7 3f
       0.0245724894801187 0.0936859697215737
000680 48 b3 b2 f1 89 e0 f4 bf d2 8d 36 97 71 a6 b3 bf
       -1.3048190537767415 -0.07675847951627837
000690 e1 46 65 49 78 70 bb bf 04 7b 19 ed d2 d9 d7 3f
       -0.10718490402112081 0.37266991762400914
0006a0 b3 d9 93 2e ad fe e7 bf b4 ec 39 17 bf 11 dd bf
       -0.7498384389607992 -0.45420815723600616
0006b0 ed 21 95 22 6d 82 e0 3f fa 74 84 1d 5a a4 a0 bf
       0.5159211802902611 -0.03250390634841867
0006c0 a7 88 fc 3d 42 16 a5 bf 55 d2 ae 29 86 ae b3 3f
       -0.041185445849138795 0.07688177602433062
0006d0 28 66 37 e0 60 34 d9 3f 36 5d 21 e7 70 ec cf 3f
       0.393821925126391 0.249403107506376
0006e0 5f 5e 5f d7 b4 0f 6b bf ee 5f f3 7c 1f 06 b9 bf
       -0.003303387838041335 -0.09774967957071087
0006f0 0b e1 82 b9 55 f6 86 bf 0a 7c 43 b2 5b 3f e4 3f
       -0.011212033962110476 0.6327341539107476
000700 d6 b5 63 fa 92 0e f1 bf b0 1f 63 29 dc 8e e1 3f
       -1.0660581379737457 0.5486889656394762
000710 62 6c 07 de ef c8 90 bf 76 85 17 b4 d4 7a b9 3f
       -0.01639151375443893 0.09953050038122577
000720 d0 60 f9 07 3b d3 cc 3f 67 8f a6 83 bf 4b f5 3f
       0.22519624604570376 1.330993189106232
000730 a1 41 ae 0e 8a 37 a4 bf e1 d6 b8 1d e6 e9 c7 3f
       -0.03948623112876538 0.18682552768011987
000740 35 6e 86 f4 ad 6f 01 40 1c 1a 33 4b 0d b3 d0 bf
       2.1795310119175846 -0.26092846244537937
000750 f3 86 a1 c9 d0 bf de 3f 18 aa dc dd 1a 92 ea 3f
       0.48045749369167295 0.8303350766412363
000760 f7 46 ee 72 66 c6 bb 3f 6b a1 5e f9 4a 83 93 bf
       0.10849609666754732 -0.01905553004294928
000770 ea 56 37 94 72 e0 c0 bf 6f 09 1d ec b4 cb ee 3f
       -0.1318495963775413 0.9623665439215027
000780 3f 16 c4 81 99 62 e2 bf 7b cf b5 08 b1 c8 c8 3f
       -0.5745360884181493 0.1936246197252521
000790 3a a2 3e 4c 89 4d d1 3f 0f 74 40 88 66 df 90 3f
       0.27035744138496265 0.016477205339573028
0007a0 4a d8 b4 67 b9 3b b3 bf 44 66 08 49 da 2b e0 3f
       -0.0751300695600047 0.5053531099721984
0007b0 a2 f4 f5 52 cc fd 5b bf 33 7a 7e 5b 1f 8a a3 3f
       -0.0017084594108774183 0.03816316596861604
0007c0 2f bd 0e 81 3a 48 e9 bf b3 00 c5 a7 17 e3 e6 bf
       -0.7900669594436404 -0.7152212406872621
0007d0 27 af cd a1 dd c7 a7 bf 5e 7d 12 6f 5b b0 8b 3f
       -0.046446729661367585 0.013519968344836538
0007e0 97 be de ad be bf e7 bf cb e7 f1 bd f9 05 8e bf
       -0.7421563526058489 -0.014659834965858118
0007f0 09 61 fc 0a cf a2 02 c0 f4 02 ee dc 4f 5d b3 bf
       -2.329496465517995 -0.07564257758896159

fc.bias f8 [7]
000000 26 0d b0 67 ff 6f c9 3f 17 75 09 f0 56 42 bb bf
       0.1987303978240586 -0.1064810119655316
000010 c1 b5 14 02 67 f0 77 bf 9d 34 35 3b fc 09 cb bf
       -0.005844499946119298 -0.21124222651488803
000020 69 c8 cb e9 e7 05 84 bf e8 b4 44 59 ff 49 ab bf
       -0.009776889631641876 -0.05329893078519793
000030 9d 8c 51 02 77 fc af 3f
       0.062473029168154094

onnx::LSTM_118 f8 [1, 288, 150]
000000 ef 35 ac 5a 72 b8 8d bf d1 69 62 67 42 73 bf 3f
       -0.014511960403548378 0.12285246871980539
000010 04 9f a6 bf 4a 35 aa bf 94 ef 93 ca 94 25 c1 3f
       -0.05118783559310994 0.1339593876981523
000020 14 81 48 30 2f e6 5d 3f 44 aa 23 03 62 71 97 3f
       0.0018248997522576959 0.02289345878754491
000030 4c 24 69 21 38 5c 93 3f 6f 89 fe c6 3e 2c bf 3f
       0.01890647605822364 0.12176887853869343
000040 01 8a 53 b1 b6 57 a2 bf c7 38 2c 65 76 cb ad 3f
       -0.03582545199039445 0.05819292054194274
000050 de 74 20 79 40 7a b4 3f c5 1b c8 a5 9e 6f aa 3f
       0.07999041516491753 0.051632840859432906
000060 6c 82 4d 7d fd 2c 9c bf 15 7b 2c b6 39 2b b0 3f
       -0.02751537396705077 0.06315956781007188
000070 a6 8a 3e bb bd 96 c4 3f fc 77 e8 9b 55 5c 8b bf
       0.16085025446689832 -0.01335970766109184
000080 82 d0 fa 57 0d 20 c5 3f ef cc 4a 74 78 e4 81 bf
       0.16504065318952504 -0.008736554192501049
000090 be 07 fd da 8b 5f a0 3f e0 00 b4 c7 ec 73 83 bf
       0.03197896049688563 -0.009498452991920592
0000a0 40 a2 d0 de b3 15 be 3f 60 0a eb 50 ef 52 b7 3f
       0.11751865567988151 0.09110923505344592
0000b0 f3 72 77 3d 3b ca a7 3f 63 50 8a ca 8c a1 b9 3f
       0.04646477818798713 0.10012130684691693
0000c0 63 6c 4a 42 4c fb b8 3f 59 75 ae f7 64 75 a2 bf
       0.09758450144220059 -0.036051898226314
0000d0 52 a4 a7 0d c2 e3 bd 3f b9 41 fe 79 1f a4 c6 3f
       0.11675656159754169 0.17688363510798213
0000e0 6a ba c1 bd 6a f7 c1 3f 9a 69 9d 49 fd d8 a2 bf
       0.1403630663439402 -0.0368117477762155
0000f0 36 4e d1 2f 64 17 a4 3f 1a 55 55 71 40 ac b2 3f
       0.03924096187315877 0.07294085280348775
000100 e2 37 bd 61 0c 07 81 3f 5e b5 db 69 de 9b b9 3f
       0.008314224941980034 0.1000346191828689
000110 6c 5b d5 57 ba 60 c6 3f f1 1c e5 f3 f1 df c3 3f
       0.17482690132848278 0.15527176293310377
000120 d9 ea 2e 1f 12 dd 94 bf 7e 4e c9 83 55 ea b5 3f
       -0.02037456813170988 0.08560690371933252
000130 87 47 00 c4 8a 42 b8 3f 5e 07 1a 8d 55 32 aa 3f
       0.09476535115416428 0.05116526935036235
000140 8c c1 7d 4c e0 17 a9 3f 73 12 91 06 5d 9b bd 3f
       0.04901028569918528 0.11565190706557775
000150 1e 9d dd 38 30 dd be 3f a0 85 74 25 c0 b4 a6 bf
       0.12056256664583428 -0.044347767421878403
000160 d0 05 21 44 7c bf b2 3f 4c 87 e3 55 7b 88 c6 3f
       0.07323433554940739 0.1760400933626961
000170 d1 a3 c7 80 b2 12 a6 bf 9a c2 17 8d ba 21 b1 3f
       -0.04311139890689442 0.06692090935372122
000180 fc 18 48 1e bb ae c3 3f d2 bb 22 d5 d0 15 bc 3f
       0.15376986483187938 0.10970788196094297
000190 fb 7c 70 0e 23 c2 8d bf a5 5e c0 91 c4 58 c5 3f
       -0.014530443075328572 0.16677147976655707
0001a0 37 b2 78 c9 6b 5e c1 3f b8 06 2f 97 97 12 b2 3f
       0.1356940015551957 0.0705961937046834
0001b0 08 0b 5d 87 dc a4 b3 3f 66 f7 dd c2 4d 50 59 3f
       0.07673433594485968 0.0015450248133385912
0001c0 b3 98 ba 1a 0b 87 ab 3f 15 b0 09 b7 b3 c0 c5 3f
       0.05376467419891764 0.1699432986964672
0001d0 dd 8a be 06 31 65 8c bf b1 ed 79 fa 33 21 b1 3f
       -0.013864882486648461 0.06691288819450027
0001e0 1e d4 8d a3 a6 38 a1 3f 62 96 5a 9d 75 b3 b1 3f
       0.03363533731945999 0.06914458362242606
0001f0 72 9f 29 59 2e c9 a4 bf 43 4b d0 f9 f5 2a 96 bf
       -0.0405973895875026 -0.02164825761071688
000200 e5 e7 13 ea d2 8f b6 3f 79 d2 5d 7f f2 ca af 3f
       0.0881320783118152 0.06209523968474157
000210 56 ba 7e ad 9d fb 9d 3f e4 30 eb 02 02 df ab 3f
       0.02928015109471923 0.054435789924896644
000220 4e fe 62 2b f9 d1 c3 3f 6d 9c b6 58 ab 5a bb 3f
       0.1548453771447264 0.106852254065062
000230 90 49 8e 23 0e e2 b1 3f f6 66 4f 55 7c 63 ca 3f
       0.06985557907163398 0.20616106191192046
000240 16 9e d7 f2 b2 1e ad 3f f7 57 7d 14 38 88 b5 3f
       0.05687483991988189 0.08410978794321965
000250 42 65 35 5e 86 35 c2 3f 6b 94 84 c1 1a 8f b0 3f
       0.14225844955471173 0.06468360161359647
000260 8e e1 e6 2e 6f 81 c5 3f 97 23 6c 06 e4 05 bf 3f
       0.16801252164965458 0.12118363529965702
000270 4d ee e6 29 a7 9c bb 3f db 44 5d c6 1c 68 96 3f
       0.10785908482551428 0.021881532294462196
000280 5f 21 38 76 61 be c2 3f 81 22 d4 b6 0b 63 c3 3f
       0.14643495819496885 0.15146013667278527
000290 7c e3 ab 6a 89 84 9b bf 06 d4 95 5b d7 d0 b9 3f
       -0.02687277520724106 0.10084291444748325
0002a0 63 77 12 cb 74 ec 73 3f d3 f2 97 25 01 87 9a bf
       0.004864174102434979 -0.02590562622025312
0002b0 da 8d f6 96 ee 95 bf 3f 14 cb 96 c7 6f a5 8e bf
       0.12338153062460525 -0.014963982847665792
0002c0 cc fa 2e c7 a1 8b a6 bf 86 d0 5c ff 20 18 bd 3f
       -0.044034057201761095 0.11364942774236128
0002d0 70 39 d0 bf f7 71 a0 3f c0 64 4b 86 7f ad 92 bf
       0.03211950508567696 -0.018239967891393816
0002e0 b9 59 10 b3 b1 4b cc 3f cb d2 e0 97 cf 9b c3 3f
       0.22106000178673726 0.1531924716561178
0002f0 71 75 8c 32 9a ef ae 3f f1 d3 ac b4 ad 8c c1 3f
       0.06042177073525579 0.1371056682779961
000300 2d e7 47 1f d8 19 97 3f f5 9a 80 f3 80 0e c5 3f
       0.02255952540324484 0.164505118272437
000310 6c ac 7d 05 fd 61 bc 3f 66 86 1c db 17 5a c3 3f
       0.1108701837926433 0.15118692587661825
000320 7a c4 aa 44 63 79 c7 3f 1b 80 16 fa 72 27 cd 3f
       0.1833919606483823 0.22776639186213363
000330 b0 67 cd 7a c2 3a 9c 3f 37 93 f1 8f 66 7e a3 3f
       0.027567900414716184 0.038073735305067684
000340 a5 f9 ec 57 ff 8a bb 3f d0 26 85 01 79 71 c3 3f
       0.10758968254683639 0.1519004113600233
000350 c5 4c 43 da 1b 78 a7 bf ff 40 a5 4a 60 db cc 3f
       -0.04583823241559907 0.2254448284607022
000360 38 c7 a5 a9 e5 c7 a8 3f 5d bf 5f 9b d8 60 b8 3f
       0.04840009399312212 0.0952277545291031
000370 13 cb d7 a5 75 30 b6 3f 29 af 53 87 7f a1 c0 3f
       0.08667693423175775 0.12992853267439244
000380 0b 6e fe d0 bf ab bc 3f 9f 0e 5b 49 75 2a c7 3f
       0.11199568607701609 0.18098321992703334
000390 dc 82 32 be 35 fc 21 3f af 63 da 1c dd 6b 90 bf
       0.00013721614877672858 -0.01603646744351622
0003a0 d6 4b 9f 6c ba 07 a5 3f f3 a6 a8 69 00 8c b1 3f
       0.04107458663897716 0.06854250506935582
0003b0 c7 9c 77 41 80 d3 b7 3f 6d 94 a9 a9 5e 64 78 bf
       0.09307099912949744 -0.005955095077841849
0003c0 b4 07 ac 82 72 4a c5 3f d4 bb 88 13 46 3f 80 3f
       0.16633445148914705 0.007933185073026573
0003d0 b5 79 3c 3a 16 08 c4 3f 0e 0c ad 88 a0 5e a9 3f
       0.15649679034772893 0.049550072368696005
0003e0 b2 eb 24 88 e2 96 a4 bf de 6f ca 58 f2 44 85 3f
       -0.04021366035382047 0.010385411581687206
0003f0 a3 dc bf 56 43 82 b7 3f ee 25 f5 ca 1e 6e c2 3f
       0.09183140628725765 0.14398560438193847
000400 f9 37 bd 48 3b 64 8f 3f d1 7c e7 93 0b f5 b3 3f
       0.01532789531452393 0.07795784340804636
000410 12 ec 6c f4 d4 48 b2 3f f2 0a 75 e2 f5 2f a2 3f
       0.07142382590693355 0.03552215947504135
000420 ec 27 c1 48 c7 3f a4 bf c1 76 2d 96 af 99 9b 3f
       -0.03954909098736423 0.026953452626335975
000430 be a8 83 2c ab 9d c1 3f bf 33 4b 96 68 c8 ad bf
       0.13762416528272142 -0.058169620844274565
000440 6e 3c eb 52 f5 9d a0 bf 46 1c 87 e6 ca e5 b9 3f
       -0.0324551261634206 0.1011626065074874
000450 c4 9b 58 04 f0 d8 b4 3f ed 90 9f cd e4 53 a1 3f
       0.08143520456415759 0.03384318361330139
000460 b5 ac 2f 20 08 d9 a5 3f fa 51 85 9d e8 7b 91 3f
       0.042671445778830565 0.01707423650198512
000470 b1 a5 e2 d0 58 1b 9d 3f 48 28 17 ec 80 e6 88 3f
       0.028424632787084018 0.012158400730999955
000480 01 0b e9 ad 7f ee c1 3f 68 9c 4b 41 5f 71 85 bf
       0.14009090415682837 -0.010470146351009471
000490 bb ba 22 ff 10 92 c4 3f bc 08 0a 1e 5f 5e ba bf
       0.16070759256168352 -0.10300249560717395
0004a0 83 8b 79 ab b4 45 c2 bf 07 60 c8 23 dd 08 b8 bf
       -0.14275225041191328 -0.09388525127030799
0004b0 5b 09 9b b2 b9 76 c9 3f 33 f5 b7 56 64 cf a5 3f
       0.19893571110703587 0.04259789999557952
0004c0 3b 06 87 dc 50 6d c9 3f fd a0 a5 10 1a 2d c9 3f
       0.1986485554498801 0.19668889820901106
0004d0 4d 31 f4 d0 45 98 9d 3f e3 8a c0 80 3c 76 c9 3f
       0.02890118682721381 0.19892078673100064
0004e0 03 8c 6c 82 ac 64 a4 3f 7a 30 c3 a9 02 de b1 3f
       0.039830580635928946 0.06979385990706702
0004f0 56 d3 86 b7 21 82 bb 3f eb 79 54 13 6e 9a c5 3f
       0.10745440226203348 0.16877532905432643
000500 e3 7a ba 4e a0 2c 82 3f 6d 10 b6 a9 b3 16 c1 3f
       0.008874180224038358 0.13350530420950993
000510 d3 09 c4 71 54 65 9b 3f 55 89 74 0f a5 7f 53 3f
       0.026753730243408057 0.0011901008527464747
000520 e3 bb 77 de 68 21 85 bf 51 01 bc 0a ec 40 89 bf
       -0.010317630089927426 -0.012330860211932889
000530 31 3d 2b 6d aa 20 c7 3f 90 12 16 33 13 3a 43 3f
       0.18068437891495528 0.0005867570636586984
000540 5c 4b f2 e1 c0 52 a7 3f 19 c9 d4 a4 25 53 c2 3f
       0.04555323370109107 0.14316244648359414
000550 ba aa 12 61 e9 df bc 3f b0 24 cf 7c 48 00 bc 3f
       0.11279162044472005 0.10937932059381938
000560 1d d8 38 d8 fe 00 c3 3f 33 6e 8b f0 49 5e 75 3f
       0.14846787984578294 0.005216873957319334
000570 96 67 dd 3c e5 58 c3 3f b9 ab ab 23 21 37 b6 3f
       0.15115037414471705 0.08677870865692129
000580 dd cf bf 74 70 44 a7 3f 5c 94 59 6b c1 7e be 3f
       0.04544402527963574 0.11912163611266763
000590 69 6d 06 f5 da 7f c7 3f ba 20 d8 ed 3b 42 a6 3f
       0.1835893341457038 0.04347407606479821
0005a0 50 07 41 40 18 c7 bd 3f 13 7e 23 14 39 d8 c5 3f
       0.11631919449521644 0.17066110118229058
0005b0 99 de d6 48 ea 6c 36 3f 80 81 be d1 55 9e b9 3f
       0.0003421852096283456 0.1000722539015495
0005c0 f5 cd d7 ff 21 dc aa 3f f9 32 71 c9 ef 62 c0 3f
       0.05246073005755739 0.12801930748027937
0005d0 d5 ad 69 e6 0c 8b a3 3f da 7f 30 3a d3 fc 5b 3f
       0.03817024529129368 0.0017082274214388266
0005e0 2d 23 16 a1 d2 04 61 bf 36 a2 75 31 19 ae c5 3f
       -0.00207749498867251 0.16937556185736619
0005f0 e4 be 26 3c c8 6e 84 bf 02 0e 65 6a 4a 0f a2 3f
       -0.00997692521636346 0.03527290867580392
000600 a2 b7 fd c2 4f 16 a0 bf 85 8d f8 47 43 50 bd 3f
       -0.03142022376310584 0.11450596339323312
000610 d9 be 89 c0 00 55 c2 3f 3c 1f c1 21 74 97 b9 3f
       0.14321908379814977 0.09996724914628613
000620 a8 1b 7f ce 97 da 9d bf 1c 48 8e 1d b9 95 7c bf
       -0.02915417859892569 -0.006978724581943065
000630 5a ad d0 bb 35 ed 70 bf af d3 d7 bc 5f a2 c0 3f
       -0.00413247098644417 0.12995526047566616
000640 be 4c 92 06 cf 64 a0 bf 2d 5c f6 6e b7 e2 b3 3f
       -0.03201910929888062 0.07767816981355287
000650 7e ea ee 2d 3d 1b 96 3f 26 20 93 2d ff 44 a2 3f
       0.021588283470672646 0.03568265372592831
000660 88 2c 69 c5 a9 1b c3 3f 85 62 4d b9 6c ba 81 3f
       0.14928171290589298 0.008656358151413865
000670 3e 9e 13 91 7c 08 c1 3f ce 9c 1a d7 68 b0 b2 3f
       0.13307149013347613 0.07300429584084897
000680 ca ea b1 81 0b d7 9d 3f b6 b9 6d 3e e9 92 bf 3f
       0.02914064387412444 0.12333543562065227
000690 e1 13 3d 4e a9 1f be 3f 72 a1 0b ee df 94 b6 3f
       0.11767061386224455 0.08820914804130611
0006a0 a4 be 08 78 63 93 b1 3f 9d fe c4 d6 4a af ba 3f
       0.06865522079965075 0.10423724883457415
0006b0 69 25 48 a9 d5 d8 bc 3f be c8 56 11 3d 6b c1 3f
       0.11268363364083246 0.13608516070013893
0006c0 42 b8 5b e8 83 93 c5 3f d7 39 0a 45 a6 29 c3 3f
       0.16856430860156207 0.14970854159442012
0006d0 bf 9f 49 56 54 b6 94 3f e2 86 e5 fa 6c 12 b2 3f
       0.020226781622483033 0.07059365392117514
0006e0 6b af 46 7f db 3e b9 3f 92 16 78 c0 1c 91 c3 3f
       0.0986153779728604 0.15286597631363869
0006f0 84 e4 b1 c9 65 7a bf 3f 6c 88 eb 53 e8 4f b8 3f
       0.1229613892954991 0.09496929215268474
000700 9d 5f 9c 28 0d 3e b0 3f 7b 06 71 67 9a be bb 3f
       0.06344682923770369 0.10837712312152263
000710 c0 e1 e3 95 1b 86 c2 3f 8c 16 d5 d1 1a d3 c5 3f
       0.14471764391761432 0.17050490613671732
000720 bc fa af cc 93 02 b8 3f 3d 61 47 cf e7 b3 c1 3f
       0.09378932711841065 0.13830278035198687
000730 3c 5b 5e 1a 6b 76 b3 3f dc 7f 57 db be 7a b7 3f
       0.07602567094577933 0.09171669821762357
000740 b6 92 78 a7 42 f4 bc 3f f2 6f bb 24 39 fc 9a bf
       0.11310211743018325 -0.026352780215219647
000750 68 eb 8d a6 95 6f 90 3f 84 ec 7d 5f e2 96 76 bf
       0.01605066136424274 -0.005514988202658281
000760 89 14 74 b6 f8 9d c2 3f 0e 89 f9 6e fe 0d 7d bf
       0.14544590863093657 -0.007093423729744209
000770 50 4a 03 f0 6b 7f b3 3f a7 be 8b 05 cb 2e c2 3f
       0.07616304979027544 0.14205301066202944
000780 79 59 cb 22 f4 93 bb 3f 7a 25 3e 81 85 b4 7e 3f
       0.10772634362669987 0.007496377471292498
000790 48 72 36 ae 77 46 c1 3f 86 d5 f5 cd 2e 05 c7 3f
       0.13496299749830798 0.1798456674256778
0007a0 8c ca 4e f4 de 9c c8 3f 0a f0 df 9a 90 f4 c5 3f
       0.19228732041445473 0.17152602731937378
0007b0 59 2e 3d 5c 82 fa c5 3f 9f 12 11 45 8a 9f c2 3f
       0.1717074346910177 0.14549377796551696
0007c0 e8 41 97 c9 f8 21 be 3f c1 50 0e 34 ff c4 89 3f
       0.11770586892749402 0.012582772995110127
0007d0 8e aa 0b 48 81 98 c5 3f e3 56 1f 0a 05 59 c1 3f
       0.16871658342218548 0.13552916521319167
0007e0 6f 79 c8 de 8c 5d b9 3f 87 74 20 c8 83 85 66 bf
       0.0990837139038143 -0.0027492116796695196
0007f0 fc a4 7e 11 3d 15 bd 3f 62 ab 70 f5 07 83 c5 3f
       0.11360532452694722 0.1680612514913618

onnx::LSTM_119 f8 [1, 288, 72]
000000 cf 41 d9 46 6f 34 c2 3f 78 12 90 b5 c9 c6 b1 bf
       0.14222517928511855 -0.0694395130413542
000010 5d 57 ae 43 ef e9 a4 bf a9 93 39 ae c3 c4 c0 3f
       -0.0408472795599397 0.13100477225375798
000020 49 58 54 b7 de dd 8c bf 4b d0 e3 1a 10 27 b9 bf
       -0.014095058412333954 -0.09825230270854594
000030 ef a8 2d 4d ab d2 c0 3f bd 13 14 8f 51 db b4 3f
       0.13142911213373717 0.08147153609395637
000040 fe 12 59 7f 79 29 c6 3f 11 9d ab fe ae 07 b0 bf
       0.17314070432816914 -0.06261724202669351
000050 6f 16 37 1d 7c 3d a1 3f 9d f2 a4 7a 6b bf 79 bf
       0.03367221695547761 -0.006286067810205379
000060 2e e8 c1 60 89 e7 bc 3f 27 61 8d 89 22 21 bb 3f
       0.11290796863787086 0.10597434862336695
000070 11 8c 3d e0 17 7b b2 3f 6c b2 b6 4f 73 26 96 bf
       0.0721907541715583 -0.021631051769576734
000080 37 a9 07 fc 1b 91 b0 3f 24 aa db 0f a0 5e a3 bf
       0.06471419241976127 -0.03783130830364126
000090 fd 9a 71 49 a2 fa aa 3f d1 cc 4c d1 f9 f0 c7 3f
       0.052693435159019565 0.1870414993260057
0000a0 94 fd ea c2 d7 56 bb 3f 86 6c 26 bb d0 77 c9 3f
       0.10679386624086923 0.198968974477655
0000b0 1f 63 8e 02 41 6c a3 bf 0c bf 6d ce f3 46 cb 3f
       -0.03793528705791104 0.21310279445196334
0000c0 ab 2a 27 05 10 aa a5 bf 78 f6 81 45 85 e0 c3 bf
       -0.04231309950735825 -0.15528932470253998
0000d0 43 d7 d1 d6 fb 12 ca 3f cb 86 ad 50 68 42 a7 bf
       0.20370433797114104 -0.0454285238727273
0000e0 72 fa ff f1 8e fa 93 bf 07 66 7a a6 f6 d1 aa bf
       -0.019510491867544784 -0.05238314420894246
0000f0 2d 99 e7 7b da b9 c3 bf c0 a9 1d fc b5 fc a2 bf
       -0.15410929727586034 -0.03708428099237748
000100 2e 1b 9a 4d 40 55 ad 3f fc 94 30 d6 1c f9 b6 bf
       0.057291039917848216 -0.089738657276559
000110 c7 c9 b2 fa c8 86 a5 3f 26 ec 2a 8f 86 e2 c1 3f
       0.04204395351679895 0.13972551336868938
000120 71 cb 75 fc a0 09 c2 3f f4 3b c2 3f ec 9d c1 bf
       0.14091884925036482 -0.13763192284793002
000130 21 f9 e8 2e 86 f3 98 3f 7e 1f 17 19 dc 0a a6 bf
       0.024366470921671216 -0.04305160337713597
000140 de bd f6 20 6d 2e ac 3f 5d 4d ce b9 23 3f 48 3f
       0.05504170443907318 0.0007399486963656599
000150 25 60 84 b0 32 bc b6 3f 13 4d 2e e0 3e 96 7f 3f
       0.08880917367457693 0.0077116447527203645
000160 33 e1 88 b6 e3 03 a8 3f 5a 29 6f 22 31 86 b7 bf
       0.04690467456061 -0.0918913563793117
000170 ff 04 5a 21 2d e0 bc bf 69 91 c2 d7 69 08 b0 3f
       -0.1127956587242984 0.06262837903574837
000180 b4 f1 a1 e9 46 9b c8 bf 73 81 73 58 79 16 b8 3f
       -0.1922386780532982 0.09409292611554125
000190 2c 13 0e 80 99 db ad bf 9d ef 02 b8 9d cd 80 bf
       -0.05831603706523078 -0.008204681566318867
0001a0 38 ae 69 7a 11 a4 6b bf 9c 7b 44 56 6c 86 c1 3f
       -0.0033741322870833 0.13691477024346177
0001b0 c4 c6 0a 09 1c 0b cc 3f f6 3e a3 2b 5d a3 a2 3f
       0.21908903543003622 0.036402618004670304
0001c0 e1 cf e1 04 2b c0 a2 3f 5f 20 7e e2 c8 5b bd 3f
       0.03662237581821138 0.11468177346807938
0001d0 8e 2b b5 e1 1d d7 9d 3f 03 a8 26 1b 49 14 ba 3f
       0.02914091768370102 0.10187203324190368
0001e0 2c f3 9e 12 60 0e b1 3f 23 da 81 37 d9 fb ab 3f
       0.0666255994282891 0.05465582659319448
0001f0 a6 f3 48 c7 af 4b a0 3f 9b 26 10 48 fc 76 c7 3f
       0.031827443196085256 0.18331864851670762
000200 07 01 df 45 2d 50 5d bf 89 64 20 59 08 d9 a2 bf
       -0.001789135181283598 -0.036812077407554496
000210 6b 78 8f 52 ee 69 b5 3f cf 72 6c bb b7 6b ab bf
       0.08364762797961738 -0.053556195858822535
000220 a0 fb 0b 67 65 15 c2 3f 92 91 a0 99 66 73 a0 3f
       0.141277957263779 0.032130438092539695
000230 b0 e9 06 a1 54 99 a7 3f 13 be e7 5c 60 26 c6 bf
       0.04609169450437223 -0.17304615532292242
000240 a1 58 81 34 11 c8 bd 3f 40 67 b9 74 76 37 a8 3f
       0.11633403331629434 0.0472981469617495
000250 b8 83 a2 19 fb 48 c3 3f ff a4 75 71 ca d5 cd 3f
       0.15066469909382163 0.23308687725083385
000260 ab 25 a2 79 2e 2f a9 3f 41 5f 45 da d6 98 b0 3f
       0.04918809160978851 0.0648321421516558
000270 83 da 5d 54 fa ad b7 bf 43 2c 58 8d 69 14 a0 3f
       -0.09249844131213973 0.03140573358913248
000280 d2 0a c0 03 bb 34 d3 bf 12 09 1c d3 07 bf be bf
       -0.3000934158919054 -0.12010239509621481
000290 bf d1 60 d4 0c f7 b8 bf 2d f2 c1 a6 9c 6a b1 bf
       -0.09751968560232792 -0.06803301879148967
0002a0 84 16 a3 15 10 69 c2 3f 31 47 69 fb 1c 5a 89 3f
       0.1438312631273001 0.012378908560240017
0002b0 45 68 33 d0 00 ae 5d bf 6a 97 5f c0 66 32 ad bf
       -0.0018115051214438055 -0.0570251569586578
0002c0 9c bd cb 97 60 b5 c8 3f 69 16 76 87 cf 4a 9a bf
       0.19303519641787836 -0.025676005022907598
0002d0 19 dd 77 bd 3c d7 b9 3f c0 db a2 30 cb 0a b3 bf
       0.10094051004113104 -0.07438344895750415
0002e0 fc d2 68 63 95 83 bc 3f 70 56 04 51 f4 92 c6 3f
       0.11138280560482977 0.1763596911993548
0002f0 2d 62 ee 31 b6 cf c3 bf 00 74 30 51 5e d0 c0 3f
       -0.15477635801359338 0.13135889972991777
000300 15 c8 e5 00 31 2a cf bf f7 8f 7b 3c 3e 96 b6 bf
       -0.24347507995440823 -0.08823002792956901
000310 45 13 2c c1 ac 8c b8 bf 67 ce 73 83 bc 2f 90 bf
       -0.09589652744405182 -0.015807099841323693
000320 1b e7 9d 7c e7 c9 8b bf 4f a1 8a 8a 48 4b b3 bf
       -0.013568695536139644 -0.0753674829708235
000330 ea a8 8b 1d 95 61 b0 3f e7 8a ad ef 31 f4 b9 3f
       0.06398899051024257 0.10138237096320389
000340 f1 28 0f dd 41 cb c3 3f b5 06 60 33 9b b9 a9 3f
       0.15464041990191604 0.050244188329100416
000350 e2 85 89 fa e1 cf 86 3f 32 58 da 9f 18 d3 c4 3f
       0.011138692339218662 0.16269214444463526
000360 64 b4 07 1f c7 84 11 3f e4 b2 54 27 24 ed 6c 3f
       6.682839717316171e-05 0.0035310464978891443
000370 d8 36 90 b5 0d 94 c8 3f 11 bb 69 f3 7f 4b b4 bf
       0.19201823583028133 -0.07927703564358192
000380 b9 4e 22 12 45 0a 71 bf 5d 99 83 3b 41 ae c2 bf
       -0.004160184677079287 -0.14594283491096408
000390 93 8b 76 85 e1 16 6e bf b7 28 27 f4 7d 20 cb bf
       -0.003673019858710666 -0.21192907735377783
0003a0 ef dc 10 9c 56 f0 a8 bf f1 9e 3f 1a d7 bd a0 bf
       -0.04870863585568396 -0.03269836612144939
0003b0 af fc 6e fc f6 21 a4 bf fe e8 78 d9 05 bd b4 3f
       -0.03932163077797079 0.08100925979025317
0003c0 85 a9 46 50 8c 87 9d bf e1 3e 76 21 6b 33 ad 3f
       -0.028837387466106108 0.057032916865066736
0003d0 65 43 bd 73 be 83 b7 3f 5c c6 b5 2e 53 bc 93 3f
       0.09185400319735278 0.019273090101199805
0003e0 54 9f 82 60 17 5a b7 bf be ea cb bd f5 ee ab bf
       -0.09121843439299698 -0.05455749456264901
0003f0 6c e5 b8 83 fb b7 ca 3f df 7f 33 8a db 20 81 bf
       0.20873969966650507 -0.008363452105584144
000400 58 85 03 78 ff c8 a7 3f 21 1c ef da 92 8f b6 3f
       0.04645536746989859 0.08812826008862419
000410 fd 21 6b 83 c8 1b c6 3f 93 4d a9 ed 5d 91 bf 3f
       0.17272287766378716 0.12331187298086936
000420 13 13 01 01 75 e9 c1 3f 29 83 c2 8d 03 da a3 3f
       0.13993704365761825 0.038772688917794014
000430 96 3a 7e d1 a4 c0 a5 bf 50 65 3a c0 4a 63 ae bf
       -0.04248538071907608 -0.059351287808747544
000440 01 70 67 5a d8 45 62 bf 04 31 0d 01 7d b0 4b 3f
       -0.002230570378044306 0.0008450136539095714
000450 a2 24 b3 97 b1 01 ae 3f ff cd 9e ff 55 e4 c9 bf
       0.05860667206577232 -0.2022807596346041
000460 3d c4 49 f5 5d c0 c8 3f e5 76 66 5a b2 57 c1 3f
       0.1933705756851242 0.1354887906463126
000470 3e 75 00 21 fa 93 d3 bf 9b 3c c3 d9 e4 84 c6 bf
       -0.30590680334883646 -0.17593060143415049
000480 35 06 52 a9 05 a2 a2 3f a5 b0 e1 49 93 ab a9 3f
       0.036392380637164136 0.05013714100718517
000490 5e 87 10 12 0d 89 c4 3f 36 98 49 fa 02 37 c5 bf
       0.160432466335858 -0.16574132176464368
0004a0 73 72 96 d1 f2 d0 bf bf af 96 4e d0 b2 ce ab 3f
       -0.12428205124747098 0.05431135933694741
0004b0 2d 1f e0 c3 db 97 bb bf d2 4d 6b 54 3f 07 b4 bf
       -0.1077859261714564 -0.07823558627142482
0004c0 d7 c6 3f 28 79 2f c6 bf 03 91 ab 75 9b 27 c3 3f
       -0.1733237692383713 0.14964621778120354
0004d0 c9 9d ec 31 02 8f c7 3f c8 03 3d 35 bf 7f c2 3f
       0.1840517753382598 0.14452352618721265
0004e0 07 44 13 1f dd a6 b8 bf 4d 83 64 e4 1a ad c4 bf
       -0.0962961388461424 -0.16153274681075871
0004f0 8c 85 aa c2 52 d6 c3 bf 71 fe 2a a9 1d 07 86 bf
       -0.15497812752896 -0.010755759930702187
000500 2e 37 58 9e a7 d5 cc 3f 6d 64 17 2e 91 fa c0 3f
       0.22527022582692652 0.1326467013412044
000510 e4 f4 0d 4a 75 27 cb bf d3 a2 a4 23 35 a5 d0 bf
       -0.21214166751807462 -0.2600834701611749
000520 af 26 cb d7 4b 50 9b bf 6c d3 38 93 fd dc c5 bf
       -0.02667349342917785 -0.17080659569333123
000530 4d e1 ed a5 f4 5e c3 3f 24 ff 0d 93 a1 86 ce bf
       0.15133531667721414 -0.23848361664203666
000540 95 5b fa 5f c6 57 ac bf 13 88 1a 40 af dd d4 3f
       -0.05535716935735661 0.32603055248375873
000550 da f2 40 5d f1 5b c3 3f fc 59 b9 a3 05 cf b2 3f
       0.15124337247279734 0.0734714054791325
000560 eb 6b e1 b0 65 69 cc bf b2 22 d2 a5 d2 48 d2 3f
       -0.22196646820779561 0.28569475358430474
000570 fb 25 1e 18 29 69 a7 bf 45 6d 3c ce 1f 58 b8 3f
       -0.04572418612867676 0.09509466919955852
000580 5f 49 1d bc 3a 61 d6 bf f2 9f 75 19 b6 0c 93 bf
       -0.34968441362902597 -0.018603177360461083
000590 2c a4 75 d8 2c eb 80 3f 21 f3 6c f2 f6 dc 9a 3f
       0.008261061054058848 0.026233538195117426
0005a0 3e ec eb 2e b1 f7 ad bf 73 81 f1 58 84 13 a9 bf
       -0.058530365922671454 -0.048977027757021306
0005b0 25 ae df 18 96 47 9e bf 66 61 95 e2 2f 42 d0 bf
       -0.029569955127881315 -0.2540397370080626
0005c0 73 f3 e0 7c c4 4d bc 3f c6 86 eb 80 15 7b bf 3f
       0.11056163834378001 0.12297186276876024
0005d0 18 17 8b e9 c5 e2 b0 3f 2f 97 0d 48 de 3e c9 3f
       0.06596028281918753 0.19723108785836405
0005e0 4d 0a ae fc 8c a4 ca 3f 64 fb b7 09 96 62 c1 bf
       0.20814668977625886 -0.1358211085752955
0005f0 80 e1 e5 cf ee 41 bd 3f 86 3b 78 98 11 fe 9b bf
       0.1142873055995377 -0.027336382800111213
000600 2f 46 3b be 58 dc c8 bf 2c 6d 73 1e f8 c1 c4 bf
       -0.19422444618844412 -0.1621694706617317
000610 45 21 c4 92 cf 13 7c bf 3b 95 9b 4b 79 17 86 bf
       -0.006854830582831821 -0.010786960239281931
000620 07 8d 52 8c 13 5c a8 3f ca 8f ed 53 c4 f6 93 bf
       0.04757748687668522 -0.01949602854018887
000630 6b b0 64 c3 12 16 c1 bf 12 99 9f 8a ef 72 b1 3f
       -0.1334861234730654 0.06816002973900862
000640 51 57 78 55 b2 61 d4 bf 90 5a ef 2c 0f 06 be 3f
       -0.3184629282635472 0.11727995726628593
000650 e4 9e e3 fd 7a 6b b1 bf 60 c2 12 15 2f 15 be bf
       -0.06804627130952273 -0.11751074089512192
000660 1f 5e cd bb 96 ed c4 bf 87 d3 1c f6 f7 b4 b0 3f
       -0.16350063486127994 0.06526136168106521
000670 01 33 40 48 24 5c a0 3f ce 94 39 f8 b0 ea 9f bf
       0.03195298559157856 -0.03116871371311874
000680 93 8e f3 ff 04 8d ba bf 6f 8b 55 67 5a a7 b8 3f
       -0.10371428726971947 0.096303606250826
000690 74 4a 63 c0 d3 f0 c5 bf 6c 0e 67 16 39 a4 9a 3f
       -0.17141196149767135 0.026017086021751387
0006a0 76 49 21 c6 d4 27 ca bf 5e eb a5 fe aa 58 c7 3f
       -0.20434055017774327 0.18239343103399625
0006b0 a1 03 d2 91 53 8f c9 bf 1f 24 78 4d 34 21 b9 3f
       -0.19968647594580793 0.09816290751781807
0006c0 29 57 55 2e be 9c c6 bf 3a 72 99 0e 43 24 bb bf
       -0.17665841352816727 -0.10602206331663747
0006d0 4f 46 84 7c f9 9e b5 bf 18 77 b2 03 74 7c c4 bf
       -0.08445700921972697 -0.16004800968669808
0006e0 02 11 05 a0 5b d9 bb bf 29 f8 00 42 4d 8c 81 3f
       -0.10878536850674794 0.008568385674262729
0006f0 af ec 0c 57 ac 49 8f 3f a7 d8 39 7f 02 27 b0 bf
       0.015277239233560584 -0.0630952416048297
000700 7c 7f 11 23 e1 3c c3 bf b1 af 16 9d 67 73 c8 3f
       -0.15029539310762263 0.19102187319128697
000710 10 c1 83 2a ab 09 c0 bf 12 4d 86 5b ca 12 c0 bf
       -0.12529506278907165 -0.1255734393022086
000720 1a 49 2d 2b ca ad 9b 3f 78 5d 54 28 e9 3a b2 bf
       0.027030142674740444 -0.07121140703781303
000730 94 3d 41 0e cf cd bd bf 97 27 e1 36 e6 29 a4 bf
       -0.11642164323824594 -0.03938216609874628
000740 a8 59 37 93 26 5c bb bf 2d d4 4b b5 4c c6 aa bf
       -0.10687485784669681 -0.05229415619934517
000750 be 3c 7b 31 3c 92 b1 bf dc 37 2a 3d dc 70 a1 3f
       -0.06863762100259671 0.03406418081895854
000760 9b db db db 28 7a a0 bf 47 f5 f4 38 fc 24 8c bf
       -0.032182003820643255 -0.013742418754754694
000770 bd d6 1e 66 2e e9 c4 3f 99 53 80 91 e4 9a c3 bf
       0.16336612688399113 -0.15316445450357888
000780 e0 d1 2a 09 4f c3 a9 bf 17 52 ad ad ae 3a 82 3f
       -0.050318212384272476 0.008900990176393937
000790 2b 67 c3 f3 b4 78 ae bf b6 10 f1 ae 68 d3 b9 bf
       -0.059514670139561986 -0.10088209410702373
0007a0 bb c6 35 2a 27 06 c0 bf 94 7f f5 08 1f ba c4 3f
       -0.12518777428663505 0.16192996919107527
0007b0 30 79 ee 44 c3 88 be bf ae 0c b8 60 ba 01 a5 bf
       -0.11927433426760525 -0.04102880888606229
0007c0 31 22 87 76 3b aa b3 bf 51 70 ec 4b 02 9d a0 bf
       -0.07681628841158596 -0.03244788338472005
0007d0 4e 06 47 42 0f 14 71 bf 87 ae c4 38 ed e5 c1 3f
       -0.00416952095514629 0.13982930442704264
0007e0 33 98 e4 d7 6c a5 c7 bf d3 4e 14 c6 b5 12 a9 bf
       -0.18473587552688428 -0.04897087138138336
0007f0 bb 41 6e 77 c9 b5 b6 bf 2c 2b 31 32 ec 8f a7 bf
       -0.08871134916103689 -0.046019917609177646
