model/onnx_model_20230209.onnx (onnx, 75476 bytes, 4 tensors)

fc1.bias f4 [96]
00000000: 2854 04bd 0991 32bf adb4 b1bd 244f 63be
00000010: 18ce 89be 57cb 75be c6c8 6ebf 9fb3 34bd
00000020: fc8d 33bf 6f83 53bf c0ee 41bf 2615 86bf
00000030: b781 94be d3fb 3cbf b1e8 04bf 4c8c 71be
00000040: 363b a1be f490 3cbf 3ae2 753f 280c 4bbd
00000050: 2b45 0fbf 1ba7 3abd 9a67 d0be 66e1 82be
00000060: 26a8 12bd 62da 73be 876d 1fbf 032f e1be
00000070: 9073 3cbe c572 39bf 9111 7fbf a721 bbbe
00000080: c9fc 11be ee07 5ebe 5659 2ebe 48df 9bbe
00000090: 1739 2fbc 5afb 16be 436b eebd ca8e aebe
000000a0: 2ac0 d8bd b9bc a4be d7e8 2bbe e53b 0fc0
000000b0: 99ca 2a3e 0d7f a0be 74c9 ea3e c240 203c
000000c0: 0132 b6bd 4f16 42be 290a 70be 3b26 fdbd
000000d0: 47ba 41bf 8dec 70be bb78 0f3d 245b 323e
000000e0: 0078 e8be 92ec b4be ead8 5ebe 3430 96be
000000f0: 7dbb 4dbe c8dd 78be 2415 b7be 2865 f5bd
00000100: 4ecf 9dbe cb0f 7fbe a77a 05bd d79f 3ebe
00000110: cda9 c9be 3fbd aebe 9cbc 16bf d24c 95be
00000120: fc4e debe 4880 ffbe 2d37 6cbe 7d00 be3e
00000130: 56ac aebe 22c6 49bf 5061 c3bf 411d 88be
00000140: fb3a 4cbe bb1f aa3d b126 58be 946a d2bd
00000150: 143b 90bd 0eda 18be 07e8 07be b06e 52bf
00000160: 7269 02be 68a1 48bf 822d 1dbe 38af 503e
00000170: e718 8bbb 37a0 8a3f af18 efbe c18c c4bd
-0.03230682 -0.69752556 -0.08677039 -0.22198159 -0.2691505 -0.24003349 -0.93275106 -0.044116613
-0.70138526 -0.82622427 -0.7575493 -1.0475204 -0.29005215 -0.73821753 -0.5191756 -0.23588675
-0.31490487 -0.7365868 0.9604832 -0.04957214 -0.55964917 -0.04556952 -0.40704042 -0.2556259
-0.03580489 -0.23813775 -0.622765 -0.4398118 -0.18403459 -0.7244075 -0.9963618 -0.36549112
-0.14256586 -0.21682712 -0.17026266 -0.30443788 -0.010694764 -0.1474432 -0.11641552 -0.34093314
-0.105835274 -0.32175234 -0.1678804 -2.2380307 0.16678847 -0.31346932 0.45856822 0.009781064
-0.08896256 -0.18953823 -0.23441376 -0.123608075 -0.7567486 -0.23527737 0.035027247 0.1741758
-0.45404053 -0.3533674 -0.21762434 -0.2933365 -0.20091052 -0.24303353 -0.35758317 -0.11982185
-0.30822223 -0.24908368 -0.032587674 -0.18615662 -0.3938736 -0.34128758 -0.58881545 -0.29160172
-0.43419635 -0.49902558 -0.23067923 0.37109748 -0.34115857 -0.7881795 -1.5264072 -0.2658482
-0.19944374 0.08306833 -0.2110851 -0.102742344 -0.07042518 -0.14926931 -0.13272105 -0.82200146
-0.12735537 -0.78371286 -0.15349391 0.2037934 -0.004244912 1.0830144 -0.4669852 -0.09597159

fc2.bias f4 [17]
00000000: f9dd 0740 da3e 1340 28a2 1640 40c3 f7bf
00000010: b2fb a5c0 6ce0 4ac1 bd64 1bbd 7115 3040
00000020: 9bcf 3140 43a4 0640 e571 803f 59d0 d03f
00000030: 91bc b13f 77e4 44c0 750e e2c0 2aa3 0dbf
00000040: e32c d43f
2.1229231 2.3007112 2.3536472 -1.935646 -5.1869745 -12.6797905 -0.03793787 2.7513087
2.7782962 2.1037757 1.0034758 1.6313583 1.3885671 -3.0764444 -7.064265 -0.55327094
1.6576198

onnx::MatMul_12 f4 [138, 96]
00000000: 4b38 3d3c 0675 fd3e c81d 393f 1542 893d
00000010: 3e73 fc3d 4826 0bbd b4a7 0f40 5f34 90bc
00000020: dd6b 673f 0d8c b93d 2be7 30be 251c 6d3e
00000030: 9017 2d3e aaa8 243e 95f6 3f3e ceed aebb
00000040: 282e 133e dd17 ad3d 2ffb 03c0 6aa3 43bd
00000050: b4d3 933e b73d 95bd 33a9 153f 385e 413e
00000060: 0fa0 9c3d b920 1a3d e3be 653f 1f0b 1c3e
00000070: e78b 843c 160c 403d c22c 5d3e a787 c73e
00000080: 2ac6 b03d 98a7 b23e 045b 163e d4c8 8e3e
00000090: 883d 843d b7f8 c73d 0306 da3d a750 003f
000000a0: 75bb 3cbd e3f6 c63e df06 0f3e 28fe 1cc1
000000b0: 4dbd a13f 5a9c dabd 13d2 f33f 1893 1240
000000c0: d81e bf3e e4b2 a33b 90e6 de3d 8345 d13d
000000d0: b20e aa3d fde1 7a3e 2333 e23e bdc1 6e3f
000000e0: b70c 163f 26bb d73d 14ca de3d f360 1b3f
000000f0: d777 0d3c 6b3a 1c3e d4e9 913d 2787 8d3e
00000100: 6012 8f3e 2519 813e 928f b040 8c6e a03d
00000110: 3179 443e d3f7 b0bd 47ff 743f f6ed 803f
00000120: 74a6 0a3f 72a6 5dbf 5a49 803e 0ecc 803f
00000130: 2a2e 8b3c d58f bb3e 05ee 78bf 134c 903e
00000140: b3e8 973c 6491 003f cf40 8e3e 9cab 353b
00000150: ff0d 983d 9bed 693d e0cd be3d def0 0c3e
00000160: 4304 5f3c d503 9fbe 9f6b 473f 43d9 1540
00000170: 86ea 853d 698f f9bf e8c8 793f ea29 cb3d
00000180: 53a1 0d3d b8bd 883e 4236 963d 1f3e d5bc
00000190: e01b dabd 4473 8cbb 19e3 78bf 297b 41bd
000001a0: 7177 f83c d19a 88be 8a53 aebe 7145 acbd
000001b0: 48c5 61be 4e88 c4be 11ce 85be 43b6 8a3d
000001c0: 4caf 44be fc30 773e 1aec f2c0 f5d5 e0bb
000001d0: 124e 74be 2f45 bd3c 21c9 393e 90ef e6bd
000001e0: 7bde 97bd 1e2b 33bd e46a 3a3e e3d7 b5bc
000001f0: dbe1 043d 9633 d1be dc42 0fbe 2d83 d8bd
00000200: bbcc a33d 09bc 2c3d ff5d a33d abda 1dbe
00000210: ef82 733d 7300 25be 1ce4 923d 5248 77be
00000220: 5d90 c7bc 01bd d8be 0a36 3ebe 3fbc d43f
00000230: 7e61 1e3f a24b 05bd e70a 683f 8cb9 b43e
00000240: e45c 51be 4512 a9bd 9d5a 483b b5f5 abbd
00000250: 466c cebe 7be5 32be d03b 983d 238a d53e
00000260: e98f 3abe cabe f33c 1411 babe 2e7e b1be
00000270: 2266 2bbd ed93 76be 46e8 433d 3dbe f0bc
00000280: 47e7 b83a 82fc cfbd ed5f 2940 35c0 3d3a
00000290: edeb 8bbe d39c 81be ae0e dfbe e365 22bd
000002a0: bd0a 61be f3a8 783f e13d a2be 6666 273f
000002b0: 6549 dfbd 3505 d73d 1882 5ebf fedd 32be
000002c0: 10d3 263d 899d cd3a b219 98be 9124 253c
000002d0: 70f2 98bd c31c 35bd 7a22 ad3d 570d 22be
000002e0: 3bb7 d63c 4db1 dbbe a974 3abe d22c 023f
000002f0: 3b50 1f3c c9b9 53c0 cfaa 0ebf 888b 10be
00000300: 9b1c d63d ca5b a33e c9e0 133e c046 ff3d
00000310: a928 913d 7e98 783d 57f7 463e 8d4c ba3c
00000320: c202 e13e 011a 103e c216 023e 05ec dd3e
00000330: 71cf b03d 3683 c63e 495c 6c3d 18c2 993d
00000340: 0af2 393c ebf9 c93e 58e9 06c0 bf16 193d
00000350: 5193 843e 66a3 5b3d 4db9 403e 7e78 d73c
00000360: 02e3 f23d 3082 133e df66 e93e 30b8 393d
00000370: 610f c33d 8a9b 853e 3ad0 c13e 7b30 cd3c
00000380: 42b3 5d3c af54 6d3e 9725 18bc f23c d93d
00000390: 7b32 623d d5af 963d 47d0 b03d 639a 873d
000003a0: 9259 cc3c 56b9 94bb ef32 043d 2cfd 8e40
000003b0: 21c8 6d3e fcd8 853e f089 153e 2b95 e63e
000003c0: 7a79 df3d 8896 6f3c dbdb 20bc b858 94bd
000003d0: 7bb9 803e 66e7 5abd 906b b13d b786 523e
000003e0: 2198 46ba 73f5 0f3e 9310 c23c 32e5 053d
000003f0: 3995 b5bc 858b 7b3c f40a 053e 8e4f 713d
0.011549066 0.49503344 0.7231107 0.06702057 0.12326668 -0.033972055 2.2446108 -0.017603097
0.9039896 0.09059916 -0.17275684 0.23155268 0.1690352 0.16079965 0.18746407 -0.005338407
0.14373076 0.08451817 -2.062206 -0.047763266 0.28872454 -0.07287162 0.584613 0.18883598
0.07647716 0.037628863 0.89744395 0.15238617 0.016179992 0.046886526 0.21599105 0.38970682
0.08631547 0.3489349 0.14683157 0.27887595 0.06457049 0.097642355 0.10645678 0.50123066
-0.04607721 0.38860235 0.13967465 -9.81205 1.2635895 -0.10674353 1.9048485 2.290228
0.3732822 0.0049956907 0.1088382 0.102183364 0.08303584 0.2450027 0.4417964 0.9326437
0.5861315 0.105337426 0.10878387 0.6069481 0.008634529 0.1525666 0.07124677 0.27642176
0.27943707 0.25214496 5.5175257 0.07833585 0.19186856 -0.08641019 0.9570202 1.007262
0.5416024 -0.865821 0.25055963 1.0062273 0.016989786 0.36633173 -0.9723819 0.2818304
0.018543577 0.5022185 0.2778382 0.0027720695 0.074245445 0.057111364 0.09316611 0.13763759
0.013611856 -0.3105761 0.7789859 2.3413856 0.065388724 -1.949689 0.97572184 0.09920104
0.03457768 0.26707244 0.073345676 -0.026030598 -0.10649848 -0.0042862017 -0.97221524 -0.047236595
0.030330392 -0.26680616 -0.3404811 -0.084116824 -0.22047913 -0.38385242 -0.2613378 0.06773045
-0.19207495 0.2413978 -7.591321 -0.006861443 -0.23857906 0.023104278 0.18143131 -0.11276162
-0.07415482 -0.04374229 0.18204838 -0.02219767 0.032441955 -0.4085967 -0.13990349 -0.10571895
0.079980336 0.04217151 0.07976913 -0.15415446 0.05945104 -0.16113453 0.07172415 -0.24148682
-0.02436083 -0.423317 -0.18575302 1.6619948 0.6186751 -0.032542832 0.90641636 0.3529781
-0.20445591 -0.08255438 0.0030571588 -0.08396474 -0.4031698 -0.17470352 0.07433283 0.41706952
-0.1821896 0.029754061 -0.36341155 -0.3466658 -0.04184545 -0.24079867 0.047828935 -0.029387588
0.0014107012 -0.10155584 2.6464798 0.0007238419 -0.27328435 -0.2531496 -0.43565887 -0.039647948
-0.21976753 0.97132796 -0.31687835 0.6539062 -0.10902671 0.1049904 -0.8691726 -0.17467496
0.04072863 0.0015687208 -0.29707104 0.010079519 -0.07468116 -0.044216882 0.084538415 -0.15825401
0.026210418 -0.42908707 -0.18208565 0.5084964 0.009723718 -3.3082144 -0.55729383 -0.14115727
0.10454675 0.31905967 0.14441217 0.12464666 0.070878334 0.060692303 0.1943029 0.02274158
0.43947417 0.1407242 0.12703994 0.4334413 0.08633316 0.3877198 0.057705197 0.075077236
0.0113492105 0.39448485 -2.1079922 0.037375208 0.25893643 0.053622626 0.18820687 0.026302572
0.118597046 0.14405131 0.45586297 0.04534167 0.09524418 0.2609523 0.37854177 0.025047531
0.013531508 0.23176835 -0.009286306 0.106073275 0.055223923 0.07357756 0.08633476 0.06621244
0.024945054 -0.0045386953 0.032275137 4.468405 0.23220874 0.26142108 0.146034 0.4503568
0.10911842 0.014623292 -0.009818043 -0.07243484 0.2514151 -0.053443335 0.08663094 0.20559202
-0.00075757696 0.14058475 0.023689544 0.03268928 -0.022165881 0.015353088 0.1299246 0.05891376

onnx::MatMul_13 f4 [96, 17]
00000000: f4b4 2cbe 5964 3abd 22b1 01bc d8b0 c43d
00000010: 65d3 55bd 7f68 39be 1bde 8ebd b28f 9b3d
00000020: 7cea a4bd 69d4 9ebd 832a 43bc aa96 e13b
00000030: c676 2fbe 9900 37be 5093 abbd 2ca5 213e
00000040: 1871 bcbd 611d 1bbf 5629 4cbf 9a63 2abe
00000050: 2a10 70bf c64a 04be a500 fcbe b436 58bf
00000060: 772d 66be 653f 6b3d b838 c4bd 7052 2f3c
00000070: 86a0 16bf ef16 11bf 34bb 02be 18d2 bc3c
00000080: f5a1 0bbe 1df3 60be 942d 60be 4c03 7fbe
00000090: ead2 ecbd f8b1 1cbe 15c8 1fbd 59c8 3bbe
000000a0: 606e b5bd 4ea6 bfbe 3d12 e9bd 815d f3bd
000000b0: 4499 56bd 6a07 21be 671f 453d 2f91 293d
000000c0: c139 eb3c 078a fa3e 633d ddbe 1f00 74bc
000000d0: 41fe b9bd 5a3b ebbd a246 01bd 70c8 80bd
000000e0: c9ec 81bc 4945 dbbd 29e0 13be 2c63 1ebd
000000f0: 181a 0abe 3dc8 e4bd e108 d0bd e9f1 4dbe
00000100: b5cc 5dbe a582 07be 1559 983c 61b0 77be
00000110: b1cb cf3d 9cbf 4ebe 4cf3 1bbe 3b26 c5bd
00000120: aa41 52be 649f 70be bea3 6cbc 24f5 31be
00000130: 72a5 7dbe 3f3c 4abe ec6a 8e3c d8b9 24be
00000140: 3ba8 afbe caf5 c9bd 4d85 10be 3c36 ccbb
00000150: 3bea e5bc 9d3f b3bd 9afb e2bd 2829 c9bd
00000160: c6e8 093d b9a0 e0bc 6c73 aa3b cfee 933d
00000170: 6f7f f4bd 55bd 25be 5308 cebd d6a8 e4bc
00000180: e0bd 3abd ff63 c2bd 6c8e d0bc fda6 3dbe
00000190: c2b3 903d 89c5 5fbe 3c04 8ebf f313 ebbe
000001a0: 1aaa 4ebf 5f71 b6bf 44e4 4ebf f1ce 49bf
000001b0: becb 76bf 2938 4bbf 8799 6ebf 22e9 abbf
000001c0: 82a1 a7bf db31 c8bf bdce 1fbf de3a 87bf
000001d0: 3b75 a2bf cb42 a23f 1c92 8ebf 82e4 06be
000001e0: de14 3ebd b8fe dbbd 3e23 033d 739d 06bd
000001f0: 168a 58b9 68e9 c4bb 355c 2abe 5e41 eebd
00000200: 11a5 35be 55fa 45bd 23af 5fbe 79f5 04be
00000210: af67 33be 7cb1 f1bd 749a 1c3d a63d 923d
00000220: 4c81 e0bd 63f6 2fbf fd44 59bf ef07 7abf
00000230: c13b a0be 68ae 56bf c390 4bbf 4c69 8d3d
00000240: 5658 fdbe acef 0abf e581 5cbe 655c 4fbf
00000250: c463 3ebe cd4f d4be 6563 41bf 5f04 3a3d
00000260: c5e0 84be 474d 4fbe 9531 ffbd 06df dbbe
00000270: 756a 373e 2f6a 3cbe f9fd 5cbf b3fb 4cbf
00000280: f62f 2dbf 066c 24bf adad 4ebe b950 09bf
00000290: ac24 d6be 1897 31be 423a 2dbd 7c45 0ebd
000002a0: 3510 5bbe edbd 2fbe 01f3 21be 31a6 81be
000002b0: 051f 1bbe 239b e7bd 7cc4 cebd fa41 12be
000002c0: fe79 47be 1721 753b 9a1d 283d 4535 4cbe
000002d0: 57d9 acbc 1439 b0bd 3727 a0bd a2e1 bdbd
000002e0: 8c6f 15bd 2173 633e c596 1ebe c9b5 54be
000002f0: 9b32 5ebf f4a5 5abf bfad 533e f102 83be
00000300: 625a 50bf d4ee aabd 02e8 24bf 0cf4 a8be
00000310: 0229 29bd 77c6 37bf 1f90 ef3d f223 8dbd
00000320: 10af 303e 189e 2cbe 5c5d 7fbc 6624 973e
00000330: 506f d2bd 3cc6 babd 427c 9abd d80a 11be
00000340: 5010 84be 29d5 5c3e 7c6d d0be 2840 fdbd
00000350: a4b2 42be 34cd 4a3d 534c 5c3d a2c7 ed3c
00000360: eac9 d93d c874 bfbd ed00 11bc 9e71 11bc
00000370: cd74 18be 1f34 b7be db0f 78bd b095 5cbf
00000380: 70f3 33bf 1b15 54bf 8608 903b ef6d 65bf
00000390: 9125 10bf 604d debe f765 f9be 15bb 39bf
000003a0: cba9 26bf 0c54 693e 5c03 08bf 2de7 4d3e
000003b0: ed87 89be 12aa 763d ced5 9abe 36bc ebbd
000003c0: dd5b 5bbd a3c5 4bbe 47e5 57be da5a aebe
000003d0: 04b1 82be 34be 873c 7cf5 42bd 06b5 18bf
000003e0: 98fa ccbe feb6 f1be 371a 29bf 2d8a 37bf
000003f0: bb9e aebe 764f 153e 4109 1ebd c170 21bb
-0.16865903 -0.045505855 -0.007915767 0.09604043 -0.052203555 -0.18106268 -0.06975957 0.07595767
-0.08052537 -0.07755358 -0.011911991 0.0068844156 -0.17135152 -0.17871322 -0.08377707 0.15785664
-0.092012584 -0.60591704 -0.79750574 -0.16639557 -0.93774664 -0.12919149 -0.49219242 -0.8445847
-0.22478281 0.057433505 -0.09581131 0.010700807 -0.5883869 -0.5667562 -0.12766725 0.0230494
-0.13636 -0.2196774 -0.21892387 -0.24903601 -0.11563666 -0.15302265 -0.039009172 -0.18338145
-0.08858943 -0.37431568 -0.11380432 -0.11883069 -0.05239226 -0.15725484 0.04812565 0.041398223
0.028714063 0.48933432 -0.43210897 -0.014892607 -0.09081698 -0.1148593 -0.0315615 -0.062882304
-0.015859978 -0.107065745 -0.14440979 -0.038668796 -0.13486516 -0.11171005 -0.101579435 -0.20111813
-0.21660121 -0.1323343 0.018597165 -0.24188377 0.10146273 -0.2019028 -0.15229529 -0.096264325
-0.20532861 -0.23498303 -0.014443336 -0.1737867 -0.24770144 -0.19749545 0.017384969 -0.16086519
-0.34308037 -0.09861334 -0.1411335 -0.006232051 -0.028065791 -0.08752368 -0.110831454 -0.09822303
0.033669256 -0.027420389 0.0052017476 0.072232835 -0.119383685 -0.16185506 -0.100601815 -0.027912538
-0.045591235 -0.09491729 -0.025458537 -0.18520732 0.07065536 -0.21852697 -1.1095042 -0.45913658
-0.80728304 -1.4253348 -0.80817056 -0.7883139 -0.96404636 -0.7938257 -0.93203014 -1.3430521
-1.3096163 -1.5640215 -0.6242483 -1.056484 -1.2692026 1.2676634 -1.1138339 -0.13173106
-0.04640662 -0.10741943 0.03201603 -0.032865 -0.00020650806 -0.0060092695 -0.16636737 -0.116335616
-0.17738749 -0.04833444 -0.21844153 -0.12984265 -0.17520021 -0.118014306 0.038233235 0.07140665
-0.109621614 -0.6873533 -0.8487089 -0.97668356 -0.3129559 -0.8385987 -0.79517764 0.069048494
-0.49481457 -0.5427196 -0.21533926 -0.8100036 -0.18592745 -0.41467133 -0.7554229 0.045414325
-0.25952736 -0.20244323 -0.12460629 -0.4294359 0.17911704 -0.18399881 -0.8632503 -0.8007156
-0.6765131 -0.6422733 -0.2018344 -0.536388 -0.41824853 -0.17342794 -0.042291887 -0.034734234
-0.21392901 -0.17162295 -0.15815355 -0.25322106 -0.15148552 -0.11308887 -0.1009607 -0.1428298
-0.1948013 0.0037403756 0.041043855 -0.19942196 -0.02109973 -0.08604637 -0.0781998 -0.09271552
-0.036483333 0.22211887 -0.15487202 -0.2077247 -0.8679597 -0.85409474 0.20671748 -0.25588182
-0.81387913 -0.08346334 -0.64416516 -0.32998693 -0.041298874 -0.7178721 0.11697411 -0.06891622
0.17254281 -0.16857183 -0.015586223 0.29519957 -0.102751374 -0.091198415 -0.075432315 -0.14164293
-0.25793695 0.21565689 -0.4070853 -0.123657525 -0.19013458 0.049512103 0.053783726 0.029025856
0.10634215 -0.09348446 -0.008850318 -0.008877186 -0.14888306 -0.35781953 -0.060561996 -0.86165905
-0.7029333 -0.82844704 0.0043955473 -0.8962087 -0.5630732 -0.43418407 -0.48710606 -0.7255109
-0.65102834 0.22785968 -0.53130126 0.20107718 -0.26861516 0.060220785 -0.30241245 -0.11510508
-0.053554405 -0.19899611 -0.21083556 -0.3405369 -0.25525677 0.016570188 -0.047597393 -0.5965122
-0.40034938 -0.47209924 -0.66055626 -0.71695215 -0.34105477 0.14581093 -0.038583044 -0.0024633857
