model/onnx_model_LSTM.onnx (onnx, 585892 bytes, 5 tensors)

fc.weight f8 [7, 72]
00000000: 6a27 28b3 271b bbbf 1f76 4f2b 01a3 c43f
00000010: 1929 9cb3 9b4a a93f fe0d 1187 ee47 c6bf
00000020: c372 3ec1 2c0a cc3f e8c0 3d5f 39ac c63f
00000030: c952 d6af 297b fabf 039c fed1 de5d 083f
00000040: efae 411f 6231 e0bf d29d 8ab6 75b0 b83f
00000050: d399 8666 cdda 543f f667 2350 18dd c8bf
00000060: b1ac 3649 abfe e6bf 5dad 9824 6183 93bf
00000070: c901 1a39 af79 11c0 88ff 587a 689d c7bf
00000080: 1307 b8a9 7b87 a2bf 5afe 180a c0e3 c3bf
00000090: 83d8 638a 737d a3bf 7073 92dd 8e7d b93f
000000a0: b88a 2b03 7b4c 03c0 d9d3 17a9 5859 c13f
000000b0: 3972 39f8 aef5 863f 23b2 7185 4320 753f
000000c0: 4758 b775 b69b e9bf 1a34 acf8 d26b a23f
000000d0: 6b0c a532 9992 cebf 6dc0 f4d6 c065 e93f
000000e0: 1a9c 8384 1aec de3f 7e58 9f00 2202 b43f
000000f0: ae48 e75a 9695 da3f c0b8 b64d 1edf dbbf
00000100: 46c2 24c8 d4a9 713f 13a6 920f 440d b63f
00000110: bad3 ac3f 3ea6 ae3f 7ed8 9215 a9d7 a8bf
00000120: 8d5e c0fe b8a1 d3bf 2a6b 967a d6e5 f43f
00000130: c10f 3f54 ecf4 e63f 7dae f146 087f f5bf
00000140: 4442 0813 0e48 b13f 1651 5bd0 39ea d6bf
00000150: aff7 e857 b090 a5bf b42b a165 49d2 d83f
00000160: 8ed7 d751 fe43 c53f 05ad e8a0 03c8 da3f
00000170: ee40 9a86 fbf8 7cbf bd06 e2dc 2c91 b13f
00000180: 2a9c 6d6e 2b18 d03f 684a ae8c 88ba d73f
00000190: 4f63 6c3a aac1 d7bf 5bd0 077b 7ef8 d43f
000001a0: e610 850b 94c5 f4bf 41f9 2b9b 1988 b43f
000001b0: 57d8 9d02 1a14 c53f a9fc d4a2 ef8a f23f
000001c0: ae0f 133b d968 d6bf 4a50 1daa 099a d4bf
000001d0: db2a f9ea 9fbb f2bf a4da e5b4 a35c ca3f
000001e0: 7b10 9cf2 2013 b3bf 9495 2a0e 9436 ddbf
000001f0: a66c 2b80 ae7a dcbf cecc 08ab 3d6d 09c0
00000200: 8cd9 e7da 5c8f af3f 8f0c b1c3 abea e03f
00000210: aad2 1568 9c8d 903f c10e 7cb1 7796 c4bf
00000220: 1288 f37c 9c22 f3bf 4c78 74c3 f294 b5bf
00000230: 05cc 0878 6c5b e63f 8b55 d46e 55c8 e63f
00000240: 8522 22f7 0559 933f 92d4 10d4 32c7 c4bf
00000250: 9188 51e8 a76c e13f eb46 fcc2 b88d 6cbf
00000260: 740f 5743 377e dcbf 169c 05d9 0eae d9bf
00000270: 9a30 c04c b1d6 62bf 52e4 1d1c e705 e03f
00000280: ca48 8e30 c7dc dd3f e240 25c0 7669 a4bf
00000290: ea41 c3d6 2cb6 d4bf 3bd0 8e21 5301 d13f
000002a0: 28f4 152d 4fd0 f13f f441 8a3f 98c3 953f
000002b0: 21a3 607c b9fb dbbf 4a57 8f9d af24 c03f
000002c0: be9e 357a 13a3 c7bf ad05 b8b7 58c2 dcbf
000002d0: 5b91 cfcf 71c6 a2bf 06a0 becd 6053 c4bf
000002e0: 3791 da1f fc81 1540 dbca 43d6 601e c63f
000002f0: 112f 4d79 c529 733f 4037 cd22 17c6 bd3f
00000300: c0ae ccd8 edaa e53f 47c8 a908 18bf ae3f
00000310: 672e d8f5 7dc4 ca3f ee4c a0bc 2463 d8bf
00000320: 385b 9eae 8b18 c4bf 9bd3 747a 67a1 713f
00000330: c4d6 95dd 7d97 e23f 15e3 e922 6cde b3bf
00000340: e562 a7de 9585 983f c227 53d3 738d 943f
00000350: 113d 806f 6513 f23f c497 01ee edb4 b03f
00000360: 524a bf13 f52f cabf 6d85 cedb d444 bdbf
00000370: 48b4 874c 4fa8 d0bf 6514 3d18 1319 d53f
00000380: d790 b27e 3fe4 b6bf 9a04 7d36 e3f7 e03f
00000390: d697 faef 56aa d0bf 0291 d794 bfc7 d1bf
000003a0: 44f6 8e2c 8647 c83f 448e badb c424 ecbf
000003b0: 46e2 30b1 c57c c5bf 317b c4d2 9b95 803f
000003c0: c03f 8d32 5d2a d7bf f5f3 3491 17e8 e43f
000003d0: 44c6 6f8b 5f0f bf3f db5f 0fca fa31 dabf
000003e0: 5d01 d587 b378 b4bf 476c f1e3 ffbd a13f
000003f0: c1d8 0961 9476 953f c42c a5c5 c4d0 d0bf
00000400: 5527 c73a d21a c33f 86e8 116f 01e2 e23f
00000410: b93f 489f c73f d83f 0c84 9398 2777 e73f
00000420: 98b7 1827 5c66 abbf 0246 a4ea 5a3d c43f
00000430: 331a e5a2 e972 dabf 368d 0f3f e261 a0bf
00000440: a730 b865 1640 7cbf ce46 455a 824a d6bf
00000450: e2c4 e52e cc93 c13f 26ab 9621 aca6 e2bf
00000460: 77cd 4a0a 5e36 b93f 1492 92cb 60b2 c43f
00000470: b267 77d6 cffe 0340 a272 b607 d347 8d3f
00000480: 0868 74ad fbce 853f 3e7d 2b92 624c bf3f
00000490: 191d ed85 f6b8 cc3f 509a 861f 4d58 a23f
000004a0: c619 3bdf 7bf4 b3bf 4369 d82f de35 c83f
000004b0: 77d3 c547 3149 d63f e8a2 5979 3586 df3f
000004c0: 8b59 10c0 16f4 d2bf 20c8 f4df 6785 bebf
000004d0: 5a91 3e7c fcee bd3f 0fe4 7800 9b1c e5bf
000004e0: 28d3 25f0 005b fe3f b130 085a 5e92 773f
000004f0: 70c0 8006 e804 e5bf b5ea 86cd 9d05 563f
00000500: efa8 c312 f0a6 953f 51ed 45d1 bc4e f4bf
00000510: 77af 4fdd 7dc6 ba3f 1e83 9841 17d3 b2bf
00000520: 43f4 a9d4 8cb4 08c0 e96b 53b0 ca32 b03f
00000530: 601e f11b 43a1 b1bf 40b5 a394 6921 813f
00000540: 088a 6203 2891 a2bf 3e59 a7e6 c39e 8d3f
00000550: b6ce 1111 51b9 c73f 68e7 4d75 2c41 9fbf
00000560: fcc0 02b8 7c3d bf3f 77c5 159c b4e3 9f3f
00000570: 160f 30f2 e9a5 0640 9602 f7eb 2727 bb3f
00000580: da44 f1d9 e535 be3f af44 32fa 1a42 8fbf
00000590: 77ba 03a0 9f27 debf 1b22 91b6 0414 b83f
000005a0: 79c3 607a fdc6 c9bf f474 badf 8f33 d9bf
000005b0: 41ee b3d5 7c51 9fbf 23d9 90ce a76c 77bf
000005c0: f8d6 02b6 a77d bdbf c95d f6ec dfe6 d73f
000005d0: 9af3 7699 da29 d33f 56d1 0124 06fc bf3f
000005e0: 1f6a 4022 6347 db3f 8c93 9767 182c eebf
000005f0: 6596 10c4 6a79 d4bf 771b 1067 d087 a13f
00000600: 741f fac7 085b d23f b983 1e84 e940 0bc0
00000610: 7fdb f8d2 db27 d7bf 4d12 580f c4d6 923f
00000620: f81a f7b6 811b d23f 2b34 e363 ec30 a33f
00000630: 264e 43a8 1bf7 b53f e832 c0df 5a38 cdbf
00000640: cc61 b07b e9fa b1bf a86e eb17 bb1d d3bf
00000650: d6a4 bb78 7457 803f f61f 6a65 b6c5 d53f
00000660: b5f9 a9d8 8d42 b83f 2637 6f2d 24eb a63f
00000670: 1458 2f93 c62b 4b3f 35df af56 8015 cb3f
00000680: 8260 526a 6590 953f a402 47a7 757d efbf
00000690: dd65 fee6 69e5 72bf e26a cc46 d53c c03f
000006a0: 78f3 df41 2f9b a63f 7033 f1b8 d65c b3bf
000006b0: 0d14 1d44 9150 0240 16e6 b1b9 3af9 c8bf
000006c0: be4e e044 2fbe c33f 001a 7af7 c9ce a9bf
000006d0: 64f0 f744 f0bb ee3f 47ab 9bd9 d39e 933f
000006e0: 270d cccf ac2d c23f f9e1 27b9 b54e e2bf
000006f0: fc2b d2f8 77f5 da3f 2ad4 cfda 31fd e8bf
00000700: f337 78bb 25e6 ec3f b5c7 1fd8 c4b3 b33f
00000710: 7a52 8590 df1c babf bdb9 0f7e 11cb e13f
00000720: 7514 af1b 985c 08c0 cc4a cc75 f8af afbf
00000730: 36bc bb6e 6569 e7bf 6869 f5de 7fd3 92bf
00000740: 4a8f 0f8b ecf0 c53f 86b3 8107 9fbc 9c3f
00000750: e3ab 13c2 c92b b3bf c2e1 63eb 7cf1 be3f
00000760: 26a4 f7cb b264 d9bf c41e dbc1 d9c1 b5bf
00000770: a9d2 1705 d692 b5bf 16d1 c3b5 3551 c03f
00000780: 0ac2 cba9 2d74 bfbf 5904 a317 ae67 933f
00000790: 55a9 d7d6 b02b 713f a4c9 8549 aa9e d1bf
000007a0: 4a66 4960 2e8d e5bf 8ef4 f8e6 e7ab b33f
000007b0: 4462 96d8 f395 0640 597a bfaf 824f c7bf
000007c0: e621 d876 66e2 a5bf 86c7 e783 c0e0 80bf
000007d0: fb0e 5849 d79b edbf 8a6d 26d1 a2c5 953f
000007e0: b24e 06ef b6ab 0040 0c93 59a9 184b f5bf
000007f0: 68ab c380 6a00 9bbf e721 33d7 aef5 b33f
-0.10588310359903877 0.16122450461163937 0.04939734046463879 -0.1740701827530841 0.21906051097621146 0.17713086271715572 -1.6550690525665905 4.647575610699369e-05
-0.5060282335739127 0.09644256311968682 0.0012728696693585686 -0.19424728310588052 -0.7185875348999585 -0.019055860384623247 -4.3688324854014775 -0.18449121450430206
-0.036189903705247904 -0.15538788312004465 -0.03806649269419984 0.0995721140811392 -2.412344002500813 0.13553913361070505 0.011210791540343755 0.005157722239442583
-0.8002579020637847 0.035978882651854074 -0.23884882901083712 0.7936710546837397 0.48316061917143005 0.07815754428097141 0.4153800857285529 -0.4354930647776989
0.004312354258488476 0.08613992099949312 0.05986208464893346 -0.04852035892820171 -0.3067457664305742 1.3061127461030062 0.7173978467403616 -1.3435137530567822
0.06750572170882047 -0.3580460104688127 -0.04211951325531459 0.3878348820186901 0.1661374950050995 0.4184578963638191 -0.007073385737058608 0.06862144844674396
0.2514751985931435 0.37076009500848395 -0.37119537072571956 0.32766687407207024 -1.2982368898383867 0.08020172155736295 0.16467595222246942 1.1589199410080175
-0.35014944809904136 -0.32190171826119196 -1.1708068064351014 0.2059521325388306 -0.0745106308277758 -0.4564561975806438 -0.4449878932625303 -3.178340278821998
0.061640645715601655 0.5286463567830583 0.016165202954158055 -0.16084190527191392 -1.1959500199232065 -0.08430402061318992 0.6986601204320101 0.711954800094348
0.018894284447500204 -0.16232905726215968 0.5445136582823286 -0.0034855469347200205 -0.44520360542468684 -0.4012486571650141 -0.0022996390234820254 0.5007205533176011
0.4666002248933522 -0.039867125468505696 -0.323619088868354 0.2657058551515125 1.1133567582285284 0.021253947141817123 -0.4372390474914472 0.1261195678077292
-0.18466418711908789 -0.44936197224896085 -0.03667026197197983 -0.1587944988834808 5.376938340869223 0.17280207121037602 0.00467850816933059 0.11630386924408942
0.6771153673521084 0.060051680619736696 0.20912146095394066 -0.38105123920941153 -0.15699907327936002 0.004304317676816628 0.5809926345670751 -0.07761264660247165
0.02394708796950597 0.020070848248714197 1.1297354083542965 0.06526076374720363 -0.20458854164333445 -0.11433153501868328 -0.2602728125919538 0.32965543143320125
-0.08942028849793658 0.5302597107148757 -0.2603967040580505 -0.27781667266232557 0.18968274284081776 -0.879488400609667 -0.16787024642850862 0.00809785592042331
-0.36196069657034613 0.6533315502234688 0.12132832674230892 -0.40930051548411733 -0.0799667555447789 0.03465270669467962 0.020960157797582427 -0.26274222661295377
0.1492560183526687 0.5900885743460698 0.3788928084841206 0.7332952480320514 -0.053515319607284784 0.1581224103652375 -0.4132637110491572 -0.031996793935628196
-0.006897056092849996 -0.34829768004884165 0.13732292451781009 -0.5828457504297588 0.09848582984232289 0.1616936677938986 2.4994198565663845 0.014297150299904363
0.010648695212285744 0.12225929325676518 0.22439462222448794 0.03582993516765909 -0.07794927787754266 0.18914391838263542 0.3482173157602157 0.49256646013831906
-0.2961480022071547 -0.1192231103675856 0.11692789109526328 -0.6597418793891182 1.8972176914950953 0.0057548223126212975 -0.656848919583366 0.0013441124957426613
0.02114462961700608 -1.2692230391247288 0.10459124234301763 -0.07353349067171819 -3.088159238277997 0.06327502064543435 -0.06886691505598597 0.008364510391823843
-0.036263704693983156 0.014462976910107114 0.1853429158542121 -0.030522055301367784 0.12203196995210769 0.0311420650736571 2.8310126229206487 0.10606622229443938
0.11800991602764857 -0.015262804756533603 -0.47116842867300285 0.09405545670700415 -0.2013851974056953 -0.3937720951888217 -0.030584288161646937 -0.0057188563305799215
-0.11519859498624985 0.3734664739690428 0.29942955958159134 0.12493933085517503 0.4262321314323873 -0.9428827307971104 -0.3199107088752043 0.034239304142878284
0.28680629281051684 -3.406695396596174 -0.3618077812456519 0.018397391735577796 0.2829288756151267 0.037482630914020675 0.08580181940060835 -0.22828231740313432
-0.07023486394644535 -0.29868962608245875 0.007979307112196226 0.34019241241230647 0.0947655347790491 0.04476273588771411 0.0008291930774884126 0.21159366829646734
0.021058640112272993 -0.9840648905884177 -0.004613317185339719 0.12685647923429771 0.04415271453033304 -0.07563535704794133 2.289339573037529 -0.19510587756285308
0.15424147475333955 -0.05040579935034728 0.9604417178193327 0.019160566479438115 0.1420188917764815 -0.5721081367801722 0.4212322168247622 -0.7809075616520478
0.9030941640392015 0.07696180607288634 -0.10200307157840341 0.5560386144768966 -3.0452119982533596 -0.06188942373241488 -0.7316157496223983 -0.018384931548419386
0.1714149168975559 0.0280632828075116 -0.07488690365032329 0.12087231394605794 -0.3967711440914762 -0.08498917563258163 -0.08427178978292695 0.12747832656135277
-0.12286649127396046 0.018950195496249076 0.004192057398066791 -0.2753091543192119 -0.6734840279197638 0.07684182538010217 2.8232190056699284 -0.1821139677185382
-0.042742921836239664 -0.008241180444176665 -0.9252735550403196 0.02126173402358015 2.083845012073504 -1.3308340659361333 -0.02636877451815725 0.07796757463359648

fc.bias f8 [7]
00000000: 4a12 a6b8 643b c93f 5d64 8100 4778 bdbf
00000010: e146 52ad 5c20 aebf 2ce4 7a04 b5ef b73f
00000020: 20f1 955c 4283 b5bf fd28 1d3e bfb5 b6bf
00000030: b680 9940 5192 9cbf
0.19712504402208914 -0.11511653673496043 -0.05884065261592553 0.0935013900697334 -0.08403410683053325 -0.08871073976948547 -0.02790190655503074

onnx::LSTM_118 f8 [1, 288, 150]
00000000: d61a a3e9 4ddf c43f b54b fd27 8e37 b63f
00000010: 46b9 8919 2907 b43f 1cdf f94e 150a cb3f
00000020: e42e 9aa8 67bb c73f 07de aac9 47ca b23f
00000030: 2c9b 848a 449d c23f 1ab4 4c89 b2c7 b63f
00000040: 8f07 7d62 8769 cb3f 93e1 8bfb dd12 9f3f
00000050: a96e 2b78 a1a3 b63f c65a a959 3ce6 c53f
00000060: 2d07 fbad 3927 b53f 699e d745 6aa4 b03f
00000070: 3191 9fb8 3bc1 8b3f 1543 36f4 97bc c13f
00000080: fe07 b4cd ea70 c13f 7e84 131c dde1 c53f
00000090: 6ed2 aef0 fecf a63f 6d03 bac0 c2f0 cc3f
000000a0: 508d 0143 4169 963f 891e f342 a186 cd3f
000000b0: 0573 4864 7884 b63f f044 779a 5c26 ce3f
000000c0: f6be e4dd e0a7 c13f 662e 80e1 cf2a b13f
000000d0: 2f7f c312 0757 c63f b7f0 dbac efba b13f
000000e0: 911e 9a0e 3c3a 903f 7ea1 339b da13 c43f
000000f0: b4a8 505c ef6b bf3f c910 143c e85f ce3f
00000100: 328a 50e0 3065 b43f 52c0 1712 35d7 ba3f
00000110: 34be cfa1 1bd3 a83f 7876 b5c6 92e5 c53f
00000120: dc22 5db0 6744 cc3f a211 9e69 b3a9 cc3f
00000130: d6ac dd80 5640 c73f 83a4 cc9d 58bf c43f
00000140: f3c4 c3ef 6b5f ba3f 69a9 1d1e 0944 c83f
00000150: ccc3 10a0 ead2 b73f 4c29 a7df 6b6a b43f
00000160: 9047 8e95 a1f1 953f f3f5 664e 85d3 c23f
00000170: 545e c594 dfc6 cb3f 0b74 58b7 36c8 a13f
00000180: 7915 c295 5eb7 c63f 7f71 38df 40a7 b63f
00000190: 2d03 8dcb c348 b33f 8e6a a356 758f 803f
000001a0: a27b f5d0 3cde bb3f e873 f562 a14e a23f
000001b0: 7bc1 7eec bfaf c33f 724a 6870 e77f cd3f
000001c0: f42c 6f92 d6e0 903f 5fd7 70d0 933c c23f
000001d0: 912e 78e3 e681 c93f b135 f7d6 b862 c53f
000001e0: e14f ad4c 37a3 9b3f 0564 5687 d28e b03f
000001f0: 6e56 ffe5 2c3b c53f 3f7c 8615 b836 763f
00000200: 1ed9 8835 1dc3 883f f368 f8fd f752 9c3f
00000210: 7346 1f8b 2589 9e3f 525e ced6 6356 c83f
00000220: 3112 0f16 aa0a c73f 76c6 23c1 314f 5c3f
00000230: 64c2 8290 e58f 913f 17f3 4bac 16d0 b63f
00000240: 55c7 09b7 bfe6 b43f 9b20 84ba 26b6 af3f
00000250: 4c69 e2f6 d3ef 96bf e21e 9b7c 9ad3 ab3f
00000260: e198 bb80 ff19 b93f b3a1 3b7f 2ef2 96bf
00000270: 599d 01e9 7d92 c43f 44d7 b7fd 71f5 b43f
00000280: b0d5 7188 7aab c63f fac6 56ff 32b4 b23f
00000290: b4db d6ba 3497 ae3f 7137 b28c 5329 c33f
000002a0: 4c0f 6522 626e c43f 2f90 efdd fa5b bc3f
000002b0: 0d34 136c e459 c43f f51c 734b 0f10 b83f
000002c0: a913 4715 6f57 c63f 68c3 e757 fa7d c13f
000002d0: 9af9 5ec3 e7f3 ac3f 4322 de6e 380b 623f
000002e0: 0748 3ef5 2b7a b83f b93a 4991 cd49 bb3f
000002f0: 565d bebc 9896 a73f 962b 7f5f 5519 b53f
00000300: b3bd 97de 4e12 993f 8a7d d658 fe8e c33f
00000310: 02f9 0328 a760 b43f 3f7f f0b0 a791 6bbf
00000320: 702c affa 8680 ca3f 2620 17b9 0b76 b93f
00000330: faf3 66fc 98b3 c33f 1692 f3f7 7b18 bd3f
00000340: c376 c2b6 3d2f c13f c4c7 8cf5 0a40 6cbf
00000350: 8212 b43c 723e c43f aeea 24ce 058c b23f
00000360: 348c 9675 e16c 9e3f c250 d40c 1f05 66bf
00000370: 1be9 0ebb 9f4d a73f 7b7a 5e42 70e0 683f
00000380: 5590 f035 4054 b33f 265d c99c 6050 be3f
00000390: abe3 87e3 ec8f 9e3f 0929 e668 2397 c53f
000003a0: 720e aad5 3f19 9e3f f181 7fa5 4ef2 b13f
000003b0: 1166 d7db b89e 873f 67b7 1197 a7e7 c13f
000003c0: a9da 0c80 3df4 86bf 1acb 705d 623f c13f
000003d0: 7dec 544a e02f c73f adb4 3432 fdb6 c43f
000003e0: 1cc4 65c2 ff87 c63f 34e5 c4f4 d55f b63f
000003f0: 5dbf b6ef 148e 9d3f 1951 e610 63dc ad3f
00000400: 8cd4 6f38 ad30 c9bf 905d 3453 b160 c93f
00000410: 11a7 7573 690a 8d3f 6305 721f a8a6 b6bf
00000420: 91a3 045a 75b0 c8bf f6d2 14bf 833b b1bf
00000430: 0b21 8a00 0ee0 b13f 8796 cb0a 9377 bdbf
00000440: 3249 720c 64da cfbf 3bf9 7763 7c11 b53f
00000450: b97a 5e9e 8f1d c03f 8343 1c02 6dc7 bb3f
00000460: a3ab 272c bcaa c13f be74 89b1 174c c83f
00000470: edcf 8dd3 5610 c63f 9b26 9bd8 a193 b23f
00000480: 0ea3 b964 c48e ab3f bd59 1e7a 41e5 babf
00000490: 06af 04ce 5712 c3bf 3ffc a4b7 3061 bfbf
000004a0: 0196 368e 1db1 ad3f a569 93ca e231 95bf
000004b0: 9739 565a e5d0 973f f4ab 00fb 4be7 bbbf
000004c0: 43f5 7efc 6eaf bebf 96f9 707a ed81 babf
000004d0: 887b 8006 f966 a73f 704a 3340 75b4 a5bf
000004e0: ad5c 67bb 252f a4bf 7bd6 57bb 168a babf
000004f0: 40e5 54a5 c88f c1bf e476 a4b6 87e5 bfbf
00000500: 8902 376a d7fa a3bf 02d6 a795 bbd3 7f3f
00000510: 1b15 8673 56eb bbbf d809 bf0f 4344 afbf
00000520: 8cd9 9e6c ffe9 c0bf 3f75 b837 5f69 aabf
00000530: 046d 2ebb ab94 a6bf c00f 3231 c401 aa3f
00000540: 3001 02f7 3e97 4bbf 0596 e2b7 ea77 82bf
00000550: a4da 1881 f52d 85bf 1c79 3814 3bf1 9ebf
00000560: 31ec 0da2 f36d bcbf a0ed d360 e6d4 903f
00000570: 8e27 0a9c 0b4d ae3f 1f67 6310 0c74 a63f
00000580: 53cb 6dae c073 c0bf 8eb9 38a6 b568 bbbf
00000590: e3c3 123e 8fc9 c0bf f0a7 5506 2f53 b13f
000005a0: 085c 3fee f5db 85bf 30d7 d006 b804 a6bf
000005b0: 54f5 9923 778f c2bf b6be efd8 a938 c1bf
000005c0: 8341 f7b7 792e 92bf b60b ddfa 1ec9 b7bf
000005d0: 5ee9 89f1 678b 603f d379 71d4 120c bdbf
000005e0: ee6e ac30 3135 bfbf 2365 9b9e 0897 673f
000005f0: aad5 b956 410b b3bf 81ef 689c 576c c0bf
00000600: d364 9816 b35c babf dd02 bfba b414 af3f
00000610: 0262 6227 cf2a 7dbf 25cd abf2 6052 abbf
00000620: 59b8 0093 7e48 92bf e1b4 5bf3 1d54 b13f
00000630: a3b9 2ed9 1d8f aebf f3fd e26b 69a1 a03f
00000640: 8f16 ca7e f065 a33f 8b6e 166a d65e bdbf
00000650: 0810 88a4 5d07 af3f 6781 5182 550f a8bf
00000660: 9294 646a f8c4 b03f 7a48 2e54 a086 b23f
00000670: fef9 c24f 7c42 a13f 2e08 826b 202a 4c3f
00000680: 3715 8317 befa bbbf 212b 9ba2 d4f0 bebf
00000690: 4385 3c98 2aef bfbf 23d2 b66b 99b0 b13f
000006a0: f41f c02d 009b b6bf c5f7 39d4 076b cf3f
000006b0: e4a0 c220 382b c33f bab6 d665 94d8 bb3f
000006c0: da0b 9783 f10b d23f add0 e6cd 9f18 ca3f
000006d0: 664f 45ef 86c2 ae3f 0017 a387 e4f2 d23f
000006e0: 1410 176c 6f09 ca3f 7a35 01e4 6fce a33f
000006f0: a6be 952c 247a d53f 0ee4 bdde 1b02 cb3f
00000700: 9acd f149 bed3 b03f 7e60 368f f48c d13f
00000710: 4685 ff08 bcef be3f 74a1 c4ff 433b 883f
00000720: 5df6 2467 4f24 d53f b0f3 3cb0 ca8b b63f
00000730: 0079 de6c 8a7c b43f ae2b c112 3cc2 bd3f
00000740: c4b2 36bb 1f9b b03f d7f4 02f3 1dc7 9d3f
00000750: 08d3 ff79 970f c73f cc55 9061 a463 a03f
00000760: cda0 56f7 d01e bd3f aeaf 2ce9 a617 d03f
00000770: 3532 159a ea14 9e3f e92a ef3b 04fd 903f
00000780: f380 7e24 e60a b03f 2fe2 82b5 173c ca3f
00000790: a978 0480 d37f afbf f706 c6c5 4d73 ca3f
000007a0: 8ac0 2029 932b c03f 20bb 2c81 7481 9f3f
000007b0: 3f55 f823 89fb c83f ef36 200e 3398 cf3f
000007c0: f907 4c9f 30a6 c53f 62b9 5116 bd4e ce3f
000007d0: ac87 ff87 dc07 d73f 283d ebd1 c310 ae3f
000007e0: d52c 0ff9 f2a8 b73f 1394 0092 9d33 cc3f
000007f0: 813d 02c5 138d a83f 113f 51d3 fc1c b03f
0.1630647078329363 0.08678520656876183 0.07823426125989838 0.21124521595242463 0.18540664417775254 0.07339905427476633 0.14542443049978127 0.08898464061776715
0.2141579848194479 0.03034540984933327 0.08843430694417499 0.1710887372780318 0.08262978074619971 0.06500877576001475 0.01355215699363352 0.13856791901027835
0.13625845951179366 0.17095531340513398 0.0445556324770323 0.22609743509749639 0.02188589068863439 0.23067107934024403 0.08795883606257966 0.2355457071521765
0.1379357417549653 0.06705950980556849 0.17453087249941165 0.06925867052263156 0.015847147361027828 0.15685589388091253 0.12274070743356696 0.23730185445322707
0.07966905094557644 0.10484630290716382 0.0484856257461356 0.17106852247791315 0.220837555995124 0.22392885834791537 0.18165093700677087 0.16208942132042034
0.10301851848250347 0.189576282219899 0.09306208045815295 0.07974886141088183 0.021429562333259933 0.14708010032875016 0.2170066334172015 0.03473063457588673
0.1774709922066611 0.08848958444327158 0.0753290531111019 0.008086125093929721 0.10885982610260084 0.03575615246766245 0.15380095527281043 0.23046582211152927
0.01648268955959238 0.14247367551586884 0.1992767916384435 0.1670752572667147 0.02698980718135136 0.06467929653298661 0.16586838941900645 0.005423277929735681
0.012090900608296592 0.027660250545616227 0.02982004796633082 0.19013641346531301 0.18001295163243605 0.001727865780193486 0.01715048498653217 0.0891126795431315
0.08164594858842851 0.06193657900627266 -0.022399246162060835 0.05434878130978206 0.09805294888392126 -0.022408224597627768 0.1607205760694608 0.08187019771852727
0.1771081129296994 0.07306212171422635 0.059747360045938974 0.149698680590912 0.15961863212043637 0.11077850263933507 0.15899329449749225 0.09399505226166467
0.1745432714361901 0.1366570405221197 0.056548349951742696 0.002202615948537352 0.0956141923655026 0.10659489438078652 0.04607083610533873 0.08241780835594023
0.024483902297957005 0.15280131662164492 0.07959980704251637 -0.003365352174583252 0.20704734077876052 0.0994574858551692 0.1539183838303016 0.11365485003950257
0.13425418304261968 -0.0034485067411873255 0.15815570796998563 0.07244907648866203 0.02971222191048302 -0.0026879888961365015 0.04551409872461162 0.003036708122592655
0.07550431553733124 0.11841396167561821 0.029845906627062806 0.1686748754694423 0.029393193641693967 0.07010356464844116 0.011533207139041076 0.13988203884531034
-0.011208038778574307 0.13474683344392063 0.1811485636661451 0.16183438254794194 0.17602536193911156 0.08739983774002696 0.02886231148812556 0.05832204419417248
-0.19679799323754243 0.19826332628938959 0.014180015407606857 -0.08848047988614875 -0.19288508315483147 -0.06731437125274539 0.06982505334065452 -0.11510581029468812
-0.2488522587560254 0.08229806354936368 0.12590213044037116 0.108511746421085 0.13802292018894233 0.18982216042323857 0.1723736317613879 0.0725651887725242
0.053823602004575574 -0.10506066543016508 -0.14899728354918568 -0.1225767563200728 0.05799190865517901 -0.0206981121199107 0.02325781215545816 -0.10899805906289811
-0.11986440338565267 -0.10354503859796291 0.045707494777381064 -0.0423924103612493 -0.03942220604556588 -0.10366956781202845 -0.1372004325183216 -0.12459610184711384
-0.039023143497165576 0.00777028346282327 -0.10905971832660948 -0.06106767241682903 -0.13214104465232557 -0.051585174133132565 -0.044103018378530506 0.05079472637683535
-0.0008420045324016075 -0.009017785774925189 -0.010341566087942518 -0.030217097386519773 -0.11105272966771974 0.01643714872350943 0.059181559369860456 0.04385411930134197
-0.1285324908927473 -0.10706649120468212 -0.13115110903666424 0.06767553238537949 -0.010673447926746973 -0.043004751998905966 -0.14500321615552514 -0.1345417317638657
-0.017755414822944637 -0.09291261314960661 0.0020195989748660733 -0.11346547781565812 -0.12190539778060458 0.002879635653567762 -0.07439049117404886 -0.1283063424797284
-0.10297698308604035 0.060704849048766475 -0.007120904154497955 -0.05336287462514581 -0.017854669306125313 0.06768977347720152 -0.059685642968690965 0.0324814743230454
0.037887111165258884 -0.11472835626630677 0.0606030715316877 -0.04699198928642794 0.06550552937967982 0.07236673407740737 0.03371036981251406 0.0008595140743781254
-0.1092947776224563 -0.12086228341938156 -0.12474313942631902 0.0691009414648041 -0.08830262295680297 0.24545381415003767 0.14975644683477818 0.10877349363610281
0.28197896814907397 0.20387647203245277 0.060077873905042975 0.2960749935704001 0.20341294076763516 0.03868436487446565 0.33557991365430906 0.21100185752928308
0.06573094659125048 0.27422822938525104 0.12084555835419505 0.011831790202067018 0.3303411967534425 0.08807055285156085 0.08002534063277622 0.11624503572345077
0.06486700363775372 0.029079883534667807 0.1801633210849547 0.032010208997387574 0.11375146902594509 0.25144360323860837 0.02937666478583108 0.016590181501480315
0.06266630545588096 0.20495888102392842 -0.06152211129868707 0.2066437926951534 0.12632979877662748 0.03076726950092301 0.1951762605319036 0.2468322581266231
0.16913421419309296 0.23677791204267878 0.3598548248393125 0.058721656203142125 0.09242170887516761 0.22032518033043455 0.047951333807868764 0.06294231566539234

onnx::LSTM_119 f8 [1, 288, 72]
00000000: 06e1 9bd3 13e3 aebf c003 c2d2 015a b7bf
00000010: 13f2 783d 75b8 673f c014 1e00 e0a0 a0bf
00000020: c33d 1325 0a72 9bbf 3401 a66f c71d 8fbf
00000030: b4ce d623 d389 9cbf a9d5 2229 9e9f a4bf
00000040: 4c64 2eb8 833a a23f de87 feb6 c27e 833f
00000050: aae4 7904 fd9c b23f cb07 2b18 d359 b33f
00000060: e772 09c6 8c6b cabf 447b ef91 bd89 bfbf
00000070: c5df 1492 4a75 bd3f 78a4 6d0d ccbf a6bf
00000080: 9e08 86be 7c5a c3bf a340 25f4 1ad7 693f
00000090: ca4c 5856 71af b43f d466 d9d5 cea1 92bf
000000a0: d269 f129 dede bebf 0109 7a65 177b ae3f
000000b0: 13c4 f284 4ec0 c33f b507 d5d5 e8a6 b7bf
000000c0: 3d4f 42a9 7915 b83f 0d1e fd41 5f2e 983f
000000d0: c011 89fb bbfe 9bbf fbaa 0ca0 920d c8bf
000000e0: ca7f 5c67 9b4d cbbf 6999 19c3 c2ed c5bf
000000f0: 5c54 25b1 cc2a 6abf e598 a710 4f42 bfbf
00000100: efbe 00f3 b969 bfbf d4cb 8d72 8b34 c83f
00000110: ade9 4a89 1cef 95bf c375 7638 9f59 ae3f
00000120: af78 ca97 a644 a43f 214c c731 ae83 b1bf
00000130: fa73 3eb2 d495 893f 0392 f2bc 64f8 b1bf
00000140: 739c 676d 6bd9 c0bf d5a1 02e8 6a48 c33f
00000150: d139 562f 0aab bcbf 66e6 919d 10c7 cbbf
00000160: 8698 e1e2 e428 ad3f 3529 b1fa 6423 a8bf
00000170: c25e 77bc f8de b33f 2ee9 3875 78c9 913f
00000180: ee3f 65cc 0b84 98bf c24b 082c 5492 c8bf
00000190: 14de 210e 9c45 c03f 82ed f7af 621f c2bf
000001a0: 240e 6cb6 aa07 b23f e47d fc85 34ca bb3f
000001b0: 5e1f b25a fda5 a2bf 11b5 2037 551f bb3f
000001c0: f5bf b943 188f b53f ef78 cf98 e074 a13f
000001d0: 781a ca2c d666 9c3f 881d 6f5e 9904 c4bf
000001e0: f260 b0ae f54b a2bf 7b09 557b f11b 933f
000001f0: 06a7 b14d e0bf c7bf f0a6 f94f 73a4 b1bf
00000200: b2f7 ac10 9fec b73f ddaa 0732 3440 a13f
00000210: 7dbf 5b56 9ae7 b6bf 1421 e195 367e c4bf
00000220: 6270 ad52 f12a 98bf 4388 e41a 0189 afbf
00000230: a447 fb22 1e29 acbf 77ca e944 6840 c63f
00000240: ef88 142b 3cfe b03f 6066 2304 b118 ccbf
00000250: 352e 2141 a12a aebf 634a dde7 6a8c a63f
00000260: ea5e 8dae db98 b9bf 3947 a7c1 dd65 c9bf
00000270: 53c9 ef1c 6244 b63f b3f5 2a05 0ab7 c9bf
00000280: c2ad 9737 9758 c13f 4627 19f6 0fa9 af3f
00000290: 1363 7178 2693 b33f 5571 63ba d40c a43f
000002a0: 25fd 2a4a 70eb d93f 058d f28e e78a c23f
000002b0: 6017 fc4c 8458 bf3f b1e1 c918 fa7a b03f
000002c0: ba45 b25d 1010 c43f e9ce ca97 bfac ce3f
000002d0: aaee a981 215c a43f d809 804d f4f7 b1bf
000002e0: ed5f a182 2a8c 92bf 3c81 e054 aef7 cc3f
000002f0: 9312 172f 9f87 b63f 6c95 52a8 c827 a5bf
00000300: 405c 217f 9e1b b6bf d6fa 839f 3667 c1bf
00000310: 3646 d1d0 4009 c4bf 3161 23b5 de1b 8abf
00000320: a017 248f 4278 b2bf 8b97 4867 2a71 acbf
00000330: ae63 6500 f0f7 8fbf 38fa 9211 e465 853f
00000340: 884f 424b e28c a73f 00c7 737a 63a7 b7bf
00000350: 1ac2 1647 f41f ce3f 352b 39c0 0e77 a93f
00000360: 0f27 6ead a27f c13f d8fc 9489 a0a6 d2bf
00000370: f5f1 0240 d020 a6bf fe2f 558f 94f5 c73f
00000380: 7f46 0e28 f292 8b3f 7dc9 a159 e60a 9d3f
00000390: 7d22 9191 2d5e 9ebf d1a5 bba7 f593 b0bf
000003a0: 54d0 96fe d184 ab3f 2014 b85c dada b8bf
000003b0: 9b80 f413 9400 c2bf 0cc4 1087 6a02 a53f
000003c0: f1f4 f8a0 2781 bcbf 755b 2251 b521 733f
000003d0: da6d 801a e031 c2bf bc70 b9c9 9150 c0bf
000003e0: 9cc9 760e bb1b bd3f 5ffb a643 84f5 953f
000003f0: ccbd ef08 3ef6 c1bf 23be 9981 f2d2 d0bf
00000400: f116 2a8f 08e0 cc3f 1b81 26e6 6b75 ad3f
00000410: ed55 d162 513b ae3f 9469 358a 6594 b2bf
00000420: cdfc d242 db56 acbf d625 4b00 41dc d1bf
00000430: faf0 8c99 11e6 843f c625 afca 2619 c33f
00000440: 8109 0ba2 5725 c03f 9cd3 07fd 30ff b2bf
00000450: d3bd 4e34 2d5a b6bf f6ae 9229 9ea6 acbf
00000460: 54eb 5fc0 57c1 c53f 0754 febd f335 9e3f
00000470: fa9e 3b72 6af3 ca3f 40e2 46cd 02e3 c1bf
00000480: 860d 95b5 abc5 9dbf 09b3 dd50 a282 c03f
00000490: cd03 da31 49aa c43f 81d9 bb48 c037 a63f
000004a0: 8ba6 b32b 7bb9 513f 238f 48f4 9209 b2bf
000004b0: a94c fc38 4d23 b3bf 81f6 ec20 f7c8 783f
000004c0: abd3 8b49 9ca0 c6bf 1dcc 0b12 c0bc 993f
000004d0: 9d53 1a9e 2e8b b8bf dfba 0a21 714f 98bf
000004e0: a43e bd5d 71f1 ac3f 69e6 0ed0 47c7 c2bf
000004f0: 2bfd d340 1798 9dbf 374d 2e2a 9cd9 c53f
00000500: 03dd a147 aa2f b4bf 6ca7 6871 ddbc ac3f
00000510: 82de 9037 3406 8f3f c70d 0044 596a c1bf
00000520: 2e51 e47e e3fe 9bbf 42af 6f34 875f c6bf
00000530: 24e5 f3e3 f81d 9b3f 11e8 354c 49b1 af3f
00000540: 5a78 852f b70b d0bf 4fed a646 cc2f 9c3f
00000550: 8652 99de 3f43 c13f 8447 8956 e556 a23f
00000560: e464 323b ebaf c23f 7fbb 3f0b 8c69 973f
00000570: ef06 c00c af0b a73f b981 a0e3 cd1f 9dbf
00000580: c67a 35ce 70de bc3f 4eab 7aee ea14 c33f
00000590: dc67 fc55 2174 9abf 877b e613 9cf5 7abf
000005a0: 194a 64a6 962b c5bf 7a8a e101 f14e c03f
000005b0: 7d95 140a d17d a4bf 9e25 815f a5f9 c6bf
000005c0: 653a ae59 4f89 c03f a418 45db e118 b5bf
000005d0: 59c7 09fe e4c1 b23f c487 022c 0b1f b23f
000005e0: 73f7 a09f 4144 babf c85c 5c07 5623 853f
000005f0: 3949 ede7 97bc b8bf 2101 3bf9 d58b 893f
00000600: 376b caae 6266 c5bf a54a 1c03 e946 8ebf
00000610: d8d8 8a2a e656 c63f 4475 782b 58b2 b73f
00000620: 643d bd3c 25a0 a4bf 3b0c 626c a18e a1bf
00000630: e353 de63 45bd adbf a214 061a cbef 913f
00000640: eea2 5401 0a0e a1bf 3dca 2ac5 ad54 ac3f
00000650: d1d3 4805 4ed3 bd3f d970 6512 393b ad3f
00000660: 517c f138 a60f b7bf 0eb3 b467 c7f7 c0bf
00000670: 6ce6 f03f b463 9b3f a37b e108 df04 b83f
00000680: 2e64 a3b7 9b4d c5bf d494 78c1 ae9b b1bf
00000690: e62c d212 e7fb a93f 84ac f969 9c6e aebf
000006a0: 467f 7e46 0914 7d3f d5a5 7756 af22 993f
000006b0: 2bc0 069d df7a 913f d5cc 480f 5dcd b0bf
000006c0: 1240 972e 02b0 a33f 31a0 6d47 492d b6bf
000006d0: b093 1071 19ed bb3f db6d ca60 946a 933f
000006e0: 6794 fe02 07e6 bdbf 1876 9943 1ba0 a23f
000006f0: 0d82 a833 ce26 b8bf 9c8b 11dd 4271 b9bf
00000700: 791b fc2c 2bb4 81bf 0d1f 20cf 3d08 9a3f
00000710: d17e aed9 e327 c0bf d19c c096 f075 7b3f
00000720: 179a 28eb cfd2 bebf 5652 e0a0 745d c2bf
00000730: 3967 b9d2 f581 bdbf 68ac 2071 6fa3 c0bf
00000740: 0a55 1d79 35d7 c3bf c424 3796 1d8b a63f
00000750: 8d65 ee6b ebfb 9ebf 3267 f4ff 7e6f bf3f
00000760: e310 400a 1728 84bf 036a a27e 9001 61bf
00000770: a485 afd9 bbad c53f 8fd4 7190 3a60 9abf
00000780: bbce e964 b97a b43f 66b1 cfb9 d5ad b13f
00000790: 906e 4d9a b7d0 b63f 860c 42a1 a76f 9dbf
000007a0: f7cb 141b 5c12 943f 57d0 74f5 c0af adbf
000007b0: 01cb 2ebd 2256 b73f 994a bb4c e181 6b3f
000007c0: 6bf9 fb34 bcc7 a0bf 5f30 ea79 700e a43f
000007d0: c09a 5e80 cad6 ad3f 1336 51d8 f9bb ad3f
000007e0: a62e b24a a595 a7bf 7a0d 63a2 db95 a5bf
000007f0: c4ac d131 6784 c2bf 39c7 a72b 13e8 aabf
-0.06032621343723758 -0.09121714969116024 0.0028955736013627303 -0.032477378858894124 -0.026802214157951598 -0.01519351777528808 -0.027869509756512215 -0.04028028728627515
0.035602680428561045 0.009519120416204115 0.07270795211106199 0.07558936443368151 -0.20640716237803433 -0.12319550335767554 0.11507097307628474 -0.04443204559249464
-0.1511989527026047 0.003154328006679989 0.08080204351454082 -0.01819537334663475 -0.1205881931686357 0.05953286279420134 0.1543062352334635 -0.09239058704863974
0.09407768614101726 0.023614395525582355 -0.027338921763900847 -0.18791420760074815 -0.21330587908687298 -0.17131838346831366 -0.003194236554160441 -0.12210554272278136
-0.12270700628937069 0.1891035374970601 -0.021419950370480546 0.05927751125566829 0.039586263684428295 -0.06841553416533987 0.01249281090695752 -0.070196434144755
-0.1316351207926548 0.1506475098478989 -0.11198485999759746 -0.21701247876972046 0.05695262212320622 -0.047145038225226456 0.07762102700450682 0.017370111612970245
-0.02394121584921998 -0.19196560049075911 0.12712431612065755 -0.14158280937395423 0.07042948678650213 0.10855415602826884 -0.03642265064360005 0.10594685169117592
0.08421470311600372 0.034094828275316284 0.027736040576679305 -0.15639035330807993 -0.035735776495302476 0.018661282684897067 -0.1855430964818014 -0.06891556456107728
0.09345430523987266 0.033692961795017 -0.08947147949561259 -0.1601017219384252 -0.023601313277467624 -0.06159213498382645 -0.05500120331784267 0.17384055485634395
0.06637931873095558 -0.21950352384628768 -0.05891899032630158 0.04404005127311874 -0.09998867999581376 -0.19842121082052147 0.08698094564878049 -0.2008984112962203
0.135516073364995 0.06183671836022468 0.07646408501149109 0.03916039252519236 0.4049950336738724 0.14486402969223647 0.12244440917501498 0.06437647919836455
0.15674023222940808 0.23964686309556463 0.039765402868366564 -0.07018973247617255 -0.01811281606964592 0.22630862373717686 0.0880069246259814 -0.041319151446525065
-0.08635893443839482 -0.13596232212872533 -0.15653238483587167 -0.012748470213793968 -0.07214752192166296 -0.055550885303360685 -0.015609622013174587 0.010448247705764677
0.04599673432053836 -0.09239789714390767 0.23535016509187373 0.04973646255947132 0.1367076250865513 -0.29142011104336296 -0.043219096959976534 0.1871820163599977
0.013463870856671221 0.028361891956998776 -0.02965613556833312 -0.06475768418353957 0.05374771340157794 -0.09708943141602377 -0.14064265226716519 0.04103405855892825
-0.11134574584953662 0.004670818585643545 -0.14214707654978903 -0.12745878553221768 0.11370438674092614 0.021444384221236287 -0.1403272193560795 -0.26287520080856747
0.22558695784044105 0.05753647980168549 0.059046309769353524 -0.07257685302957945 -0.055350162417647654 -0.2790682318560277 0.010204446314326255 0.1492050637882995
0.12613959705602087 -0.07420641114715781 -0.08731348540344834 -0.05595869309885686 0.16996285336775918 0.029502685996323687 0.2105534608629041 -0.13974032424245486
-0.029074366529369587 0.128986634717329 0.16144671377335698 0.04339409721244448 0.0010818198050465435 -0.0704585882563689 -0.07475741044281627 0.006051030489116039
-0.1767764433967874 0.025134087659307015 -0.09587375030453278 -0.0237405468384918 0.05652956265714451 -0.14670655879108388 -0.02890049298457346 0.17070343074429115
-0.07885231255373885 0.05612842568764517 0.015148551889168308 -0.13605800457308545 -0.02733951055513833 -0.1747902875935044 0.026481522477273547 0.06189946227364385
-0.2507150615764481 0.027526084720858986 0.13486479157531422 0.035819212735659384 0.14599361792060173 0.022863567530233105 0.045011015230569267 -0.028441636102913146
0.11276917490384183 0.14907585758677516 -0.025833626626173486 -0.0065818878923938956 -0.16539271473500675 0.12740910140844958 -0.04002240417529899 -0.1794935909586401
0.12919036749777316 -0.0824109230353281 0.07327109529594845 0.07078618835887968 -0.10260400912463101 0.010321304416306978 -0.09662770664480015 0.01247374693718989
-0.16718705687238763 -0.01478368798010383 0.17452694966568205 0.09256506978313889 -0.040284312881903955 -0.03429130981478364 -0.058084648552870786 0.017516301596988477
-0.0333102347015649 0.05533354789567511 0.11650550488486934 0.05709246015132558 -0.09008253946511614 -0.13256161273729855 0.026747528460168743 0.09382432905975562
-0.16643091646872804 -0.06878177855886075 0.0507499895548678 -0.05943764489787731 0.007099186164765408 0.024546374943303768 0.017070287665490163 -0.0656335985484476
0.03845221346603024 -0.08662851327756084 0.10908659944887122 0.01896125641597544 -0.1167911894140886 0.03637776565731715 -0.0943421245688187 -0.09938447854214733
-0.008644425688101741 0.02542206360524717 -0.12621734742150761 0.006704273033427203 -0.12040423861672199 -0.14347703795705752 -0.11526428599009088 -0.12998765014467328
-0.1550051537875919 0.04403011759456768 -0.030257872068977277 0.12279504536527666 -0.00984209060698799 -0.0020759412919464384 0.16936443452054306 -0.02575770861263443
0.07999762262061953 0.06905875955971438 0.08912227170133691 -0.02874624177685494 0.01960128703394656 -0.057981519663741814 0.09115807646484698 0.0033578300843627004
-0.03277385851650901 0.03917266357629567 0.05827935044299215 0.05807476773825839 -0.04606358086411193 -0.04215895039808522 -0.14466562206812317 -0.0525518408575309

onnx::LSTM_120 f8 [1, 576]
00000000: ec18 4312 9096 c4bf 68d5 656a 1c0e adbf
00000010: 1a44 b9d0 2ec6 7bbf 968e 6eae 5f73 c0bf
00000020: 999d 1dd8 54ed 933f fdac 6a3d f762 b63f
00000030: af8c 6d91 ed61 8f3f 5b62 919b 617a cabf
00000040: b74e 415e 3a1e a0bf 234c 6f3a 84a1 b53f
00000050: a0dd 5c89 f5b0 c63f d7ef 8df8 bb5e 81bf
00000060: 1564 c7d9 7a8b a0bf 52db 0caa 1e3d c1bf
00000070: f7dc 4048 d5cd 95bf ab50 bf92 ec38 ccbf
00000080: 8874 ceaf a667 c6bf d966 3ce8 5d0e 93bf
00000090: daa5 a003 ef7b b13f 0697 4f28 0790 a83f
000000a0: 02a7 a307 367a d3bf 630d f57b fba1 cfbf
000000b0: 70c2 1905 481e c2bf 5899 e12c 5ef2 803f
000000c0: aa5f f3f1 4fd6 ce3f 03ec ec22 7704 97bf
000000d0: ec91 9a0e 4ac5 d03f 68b5 360f 6775 c13f
000000e0: c810 7a86 9ed3 a03f 4446 ceb8 296f a1bf
000000f0: 411c 8018 52aa ba3f 7bad d2e1 c40c d23f
00000100: ecaf 2b98 3c2c 71bf 4bdd f17b 88f9 333f
00000110: af43 8f76 8e80 cd3f d411 f2d5 c766 c33f
00000120: 4940 50a3 9ad8 76bf 145c 7a7f b409 68bf
00000130: 111c 7b27 a19c 813f b416 99a0 eee9 d03f
00000140: 5e60 c333 54ce 8a3f 2aac 878b ae08 cabf
00000150: c1c1 9eff 1a61 bcbf 62f5 72f9 d96f c63f
00000160: 809e 79f4 458f cfbf cdcb 78be 2ece b4bf
00000170: b3d3 2973 23f3 ad3f 3de5 bcd8 16f0 99bf
00000180: ad72 b76a 4e47 c9bf 76d9 afed 6e84 c0bf
00000190: 778d b60e 5939 babf c801 4c9e 0ecf 9e3f
000001a0: 56d2 ce6d 7839 bcbf 20d3 d5ab 8865 bfbf
000001b0: 23ad ad84 02ec c6bf 88ab 2bd8 f16a adbf
000001c0: 4ea0 23ce a7f9 b63f 3fcd 5ef4 d180 c53f
000001d0: 2134 7973 5b87 d33f 0dd8 d849 5e41 a6bf
000001e0: 2fdc 9223 9760 803f 0280 95ca d15e 95bf
000001f0: 5e80 caa2 75f5 b63f 28d4 32e5 1e36 9c3f
00000200: e4b1 f558 a056 c03f 2a14 be7a 0319 bf3f
00000210: fba0 9923 88d8 ad3f dd4e 587e ec56 c93f
00000220: f409 7d12 92c0 babf 1b52 3856 fd4e ca3f
00000230: 85f3 a766 442f da3f 4d56 ac06 a8b5 b0bf
00000240: fcc0 f035 be25 c0bf 3d43 be80 fac1 c9bf
00000250: b3dd b64c d0af ccbf e769 a8f0 0ed9 bebf
00000260: 197c 851c c241 c7bf 744d 21e3 b1bc cabf
00000270: 97f1 50d8 d58f cf3f 453b 27be 72a5 c33f
00000280: 330f 971f 3f5d dbbf ffb8 bf3f c26b db3f
00000290: f05c da90 20f3 b3bf 0830 c42e f604 d5bf
000002a0: f33a 2140 a623 bb3f 34c2 e986 f4e7 a2bf
000002b0: e52a 0d28 7c72 813f bfe4 ca65 7d12 b3bf
000002c0: 0fec 85d7 421c c6bf 2520 ab20 8e95 cabf
000002d0: 9670 d43f 6fe4 c3bf 1092 1318 6b3e bf3f
000002e0: a056 5481 b28d d63f d130 4ac9 ae28 c3bf
000002f0: a4a2 f489 aaf4 c9bf e8de 8082 35b1 bcbf
00000300: 19fd abca 0621 da3f cb8f ed7f cfec 85bf
00000310: 1006 7150 133c cc3f 610d 2954 872d ca3f
00000320: e15c 088b 0fcd a63f d675 a19d b759 c0bf
00000330: b6b0 3fb9 65d0 8a3f 6173 3ce0 118a cd3f
00000340: 36c2 ced4 b73b d0bf 8ccb 8a1f 46fd b33f
00000350: 16c3 7a02 94f4 cf3f 2084 83f8 3434 d4bf
00000360: e915 4086 327c 95bf f53d 91c1 0475 b93f
00000370: 5cca 4ed5 f76b cb3f fbd9 1dc0 a965 bbbf
00000380: 5bd4 b8a8 156b c7bf 6852 b6f1 48b9 c0bf
00000390: 03fd 59cd 8432 d2bf c98b da91 b166 c53f
000003a0: eec2 7893 7e25 bb3f dfd1 baee bfd8 d4bf
000003b0: 12db bc36 3502 a63f 8166 e324 395a d6bf
000003c0: 84cf a443 243a b53f 6a34 780b 6937 883f
000003d0: e77f 3469 092c 80bf 456c 48fd 51b8 ab3f
000003e0: 1871 ab98 cd2b c8bf d902 810c 9828 c9bf
000003f0: 5f16 b31c 5789 59bf f8fa 3ebf f845 bdbf
00000400: 86a5 8bc4 70ac cebf 87a8 8cf2 f852 b03f
00000410: a545 2f50 6226 d33f 8583 9086 cfc1 ccbf
00000420: 7992 f2d5 3fe6 d2bf c84d 6bec 8d16 d2bf
00000430: a65e 6960 77db c6bf 9ecc 2753 4525 c83f
00000440: 384d 52be 8ba7 adbf af60 e305 5b72 a6bf
00000450: 6613 aa26 ebc0 ccbf 5603 93d6 43aa 8f3f
00000460: a973 8176 161e c63f 83c6 4919 d773 c53f
00000470: e89c ec0b ccc5 c5bf d170 5656 7f0a c53f
00000480: f5bf 055b 0ab3 b53f b830 e2cd 434c c23f
00000490: abaa 6d6b 76f0 a4bf 7947 5807 e78a 7d3f
000004a0: ac8c e4ef c9bd c23f 5dd4 8d59 d622 c83f
000004b0: 9768 7583 49cb b43f 46cb 5b8b 9313 afbf
000004c0: 44d7 a83e 8961 a33f f153 348e 0876 a7bf
000004d0: 4a08 f6e4 8e50 ca3f 93cb 0c2e e75a c6bf
000004e0: 126c f56d 5e7a d23f 8f93 8c37 9766 c6bf
000004f0: 9b8f ab77 606b be3f 17c3 c5bd fefc c9bf
00000500: 10f0 24ff 47de c8bf 49fd 03a0 fe67 b03f
00000510: dd4d dc53 ace4 babf fbe0 23a1 7866 adbf
00000520: 5deb da5d d127 d63f b4a7 c867 248c b7bf
00000530: 4936 96db 5b2c a3bf 8f24 ecbd 267a c8bf
00000540: 798f e9e4 5c4e d0bf a9ea a57f 75db c5bf
00000550: baaf e5ce eb53 bcbf c739 3f96 2457 d6bf
00000560: ce60 d8b3 8734 d63f de5c 4d22 731a 873f
00000570: 4885 e6d9 4788 b53f 1256 74db e591 aabf
00000580: cab5 95ee e489 c83f 045a 40ee 2a41 c5bf
00000590: 15de 7d54 c4c7 c33f ac67 378d 226a 85bf
000005a0: 9117 c463 ab5d c9bf fb0e 075f 788e c13f
000005b0: 03f5 47e2 e54c c83f c262 3afc 87b4 9b3f
000005c0: 0900 1950 abc7 a0bf 95e0 eb7d 684a a8bf
000005d0: 72d2 5299 8dae b2bf abb9 3799 b825 40bf
000005e0: dfb0 c53a 5e32 c9bf 64b6 24ec 9b20 88bf
000005f0: 070d d51e 716a c63f 9956 84bd ca9d c1bf
00000600: 2a4c c0ff 8651 b3bf 24ff 764e f4f9 b83f
00000610: 0007 76f7 02ff b3bf 672d 3cc8 6e00 c73f
00000620: 103f 5d3b 01f9 9e3f 73e3 5c33 9d40 bcbf
00000630: 5f58 8162 6458 bbbf 8ecb 8fcf cee4 ac3f
00000640: c055 f8b4 60de bdbf 3817 d32f 78eb d03f
00000650: 1dde 13c0 554f c3bf 8fdc 065c f782 a03f
00000660: 9b0b 1959 e54d 8cbf e700 8f68 fa3d b6bf
00000670: edf2 642a fb97 c63f 520c c3cb 14a3 c23f
00000680: 7d3e 691e 52ea b93f a155 9508 d2b7 c53f
00000690: 09dd d0e8 85bc cabf f4ee cfa4 27b0 ba3f
000006a0: 5e4b c28b 3e6e c83f 7ad5 69d5 b30f b73f
000006b0: d156 20ea ac65 b43f 532f 09e6 1664 a4bf
000006c0: 19a9 7750 3920 a43f 7429 0ccc da92 a9bf
000006d0: 567c 42fd a46f c93f 8c21 b198 8bc0 b33f
000006e0: f4da a997 1dfc b93f 23bb 741e 8712 993f
000006f0: 0d87 78df 7c60 a8bf 6f9a b0b3 4130 d0bf
00000700: 4181 0d2e 4c96 a9bf 862d 6f75 531d c63f
00000710: 3cd0 5f5b 72f3 bfbf b788 7444 8d19 be3f
00000720: 86e7 df63 59a2 9cbf d00b 4b30 b12a ae3f
00000730: 3216 3bff fb14 b73f 15d3 5331 aaad 8a3f
00000740: 81ed 663d 2c08 b8bf 09cc 8f91 5aa8 c13f
00000750: 8c98 17c3 91e3 b83f 25f5 b7e1 66ce aa3f
00000760: 8b53 309d 213c 8d3f f064 6901 1c43 b83f
00000770: 9e53 3043 4603 723f 09a0 74e6 b230 bf3f
00000780: 41f9 f135 f026 c2bf ca42 e38d 1553 abbf
00000790: 40c3 6412 11fb d4bf 7ad1 5265 6cf0 babf
000007a0: 6d10 32a7 2243 633f ea9a 8d92 1eeb a33f
000007b0: 8259 9f74 8b5a b5bf 5807 e2e7 3b4c afbf
000007c0: 818b 2ee0 6fbd b43f b2fd a96c 9abb 903f
000007d0: 1fdc 2319 4944 b6bf 63d1 bf10 fbbc a6bf
000007e0: fd70 c46d 1e56 c8bf c6e9 7649 58ec a6bf
000007f0: 1968 cd15 5e57 bb3f bdc8 80cb 6d73 9f3f
-0.16084481136039785 -0.05674828337479704 -0.006780798790331688 -0.12852092759304828 0.019460035029081977 0.0874475979750748 0.015323501587494041 -0.20685978027428828
-0.03148062134337464 0.08449579645757459 0.17727536399045807 -0.008481472513942307 -0.03231414707597239 -0.1346777277301166 -0.021293003592487172 -0.2204871861018821
-0.17503818115520553 -0.018609492587620877 0.06829732740938912 0.0479738461215629 -0.3043341707803934 -0.2471308093318881 -0.1415491127877604 0.008274780029932913
0.2409152919196889 -0.022477971560174847 0.26204158235694197 0.13639534228188244 0.03286452666819312 -0.03405123120240863 0.10416138742594773 0.28202936223052405
-0.004192578026714227 0.00030479032643123256 0.23048573292774452 0.15157411524354691 -0.005577663473573643 -0.002934315238074978 0.008599528329240188 0.2642780845966215
0.013088853673636599 -0.20338994801508764 -0.1108567117760293 0.1752884357464764 -0.24655985295543204 -0.08127109670822037 0.058495624359160024 -0.025329930285100877
-0.1974885960652463 -0.12904154401594398 -0.10243755921560714 0.030086735164333495 -0.11025192910057888 -0.12264303393551446 -0.1790774486392844 -0.057456548345576286
0.08974694044775441 0.16799377853531358 0.30513654972748055 -0.0434674706597634 0.007996731541750261 -0.02086952017759814 0.08968291496648947 0.02755020402829103
0.1276436266301878 0.12147542711871098 0.058292631478993294 0.1979652039450376 -0.10450089408281099 0.20553557119332386 0.4091349604130346 -0.06527185595435832
-0.12615182527361657 -0.20123225485124321 -0.22411540742699074 -0.12049954772411518 -0.18169428246162125 -0.2088835104974397 0.24657700598062313 0.1534865787966401
-0.427566319322284 0.4284520742939008 -0.07792857681703302 -0.32842783515002383 0.10601271691960416 -0.03692592760933558 0.00851914403178484 -0.07450088248414753
-0.17273746036139 -0.207689062072178 -0.15540876976672696 0.12204617822460073 0.35239851598576344 -0.14967903927425266 -0.20277911888230904 -0.11207899509542651
0.4082657794205758 -0.010705586520721419 0.22058335712249333 0.20451442345993612 0.044533239099274764 -0.12773795315562947 0.01309279891571467 0.2307760567572599
-0.25364490301129494 0.07808340330193014 0.24965143319197897 -0.3156864573375646 -0.02098158783339513 0.09944181180730267 0.21423242488306726 -0.10702000561091289
-0.18295546282175476 -0.1306544475779845 -0.28433342031344483 0.16719646093142007 0.10604086971649071 -0.32572935403302766 0.042985594684458076 -0.34925678827639933
0.08291842128238441 0.011824436819575197 -0.007896493456939836 0.05414062706787396 -0.18883676485609935 -0.19655132875961703 -0.001558623381059297 -0.11434893292515003
-0.23963746640155764 0.06376605912797305 0.29921777563603263 -0.2246646315625435 -0.29530330556216416 -0.28262661063965 -0.17857258040998153 0.18863741455388533
-0.05791889856586824 -0.04384121367337578 -0.22463740718753938 0.015461473451411283 0.17279320513162347 0.16759766325735734 -0.1700987871383639 0.16438285556512836
0.08476319048145327 0.14295241883190157 -0.04089708386785181 0.007212545829604505 0.1464168950416015 0.18856315014605488 0.08122691592635288 -0.06069623066095757
0.03785351648222826 -0.04582239852803827 0.20558344058742 -0.1746491408208298 0.28871880281593676 -0.17500581943854995 0.11882594033846632 -0.2030332972167563
-0.19428348501412573 0.06408683210974177 -0.10505177543046025 -0.05742241828005664 0.34618028798620576 -0.09198215040001295 -0.03744780593397629 -0.1912277629237775
-0.2547828898880123 -0.17075985653703654 -0.1106555347557209 -0.3490687815909976 0.34695618212709867 0.011280917629547135 0.08411072797618602 -0.0518943624867171
0.19170819902085007 -0.16605126031272743 0.15453390241212675 -0.01045634263475733 -0.198171066011295 0.13716034545915776 0.18984674023514722 0.027055859346179607
-0.03277335503344154 -0.047442689296020614 -0.07297596925020303 -0.0004927779540915741 -0.1968496119474201 -0.011780946868920235 0.17512334828834517 -0.13762792829281947
-0.0754627584831701 0.09756400027890472 -0.07810991803674128 0.17970070626357001 0.030246752975755575 -0.11036093238807414 -0.10681750683701939 0.05643316539489894
-0.11667446535314863 0.2643719164883467 -0.150858610904593 0.032249193176022144 -0.013820449620771494 -0.08688321163845424 0.17651309556995134 0.1456018443041978
0.10123170130213484 0.1696722547446088 -0.20887826793634925 0.10425040982948613 0.19086438965004054 0.09008335075653476 0.07967644420599675 -0.03982612188391834
0.03930834872501716 -0.049948537262099274 0.19871961942860378 0.07715675809698136 0.10150322869035816 0.024484740480313804 -0.04761114337840242 -0.25294535205686136
-0.049974804517435086 0.17276995882125962 -0.12480845194642226 0.11757738991994669 -0.027963062973845897 0.058919465203437604 0.0901639459726418 0.013026551847795479
-0.09387470721315162 0.13795024974351147 0.09722243321411578 0.052355971387422685 0.014274847611923899 0.0947740081259274 0.004397654020995482 0.121836835158888
-0.14181330331843792 -0.05336825711277056 -0.3278238944649736 -0.10523107026785353 0.002351348573542514 0.03890319384554693 -0.0834128532145311 -0.06112849431612116
0.08101557944477912 0.016340649492574584 -0.08697945464869904 -0.04441055850466815 -0.1901281391118416 -0.04477191826613906 0.10680187256130615 0.03071376375755429
