web/public/model_onnx_NN.onnx (onnx, 376117 bytes, 6 tensors)

fc1.bias f8 [150]
0	0xbff52a1f117d2622	-1.3227835353049007
1	0xbfad6440947e8f70	-0.057405489088778405
2	0x3fe855f96a101a09	0.7604949065724337
3	0xbfe58877e054b895	-0.6729087239707662
4	0xbfad661621f174bc	-0.05741948284478712
5	0xbfebe17b429eafe3	-0.8712745953721391
6	0x3fdd583ff3a1f5d7	0.4585113410210772
7	0xbff5da04f49f9f2a	-1.3657273822409004
8	0xbfe2fbb75c721d61	-0.5932270818310991
9	0xbff196ba83b1c0e9	-1.0992989677725353
10	0x3fe88f44a2568b15	0.7674887819924573
11	0xbfe1545d7912fcaf	-0.5415484776239249
12	0xbfe1f000e686c867	-0.5605473043890584
13	0xbfd9a23f926dc896	-0.4005278520554695
14	0xbfe5bcbde7f9fc2e	-0.6792897730628107
15	0xbfbcd62b26373c2f	-0.11264295275690082
16	0xbfb8c6a4e8f21165	-0.09678106963298701
17	0xbfe7ea15fa0f7f3f	-0.7473249324793655
18	0xbfc20609aad471b0	-0.14080925790120835
19	0x3fb1496f422f955e	0.06752677312723196
20	0xbfeee12dbe1c80b7	-0.9649876320945826
21	0xbfd5b483a546a20a	-0.33914271488404835
22	0xbfe7f83534c94d2e	-0.7490488081915936
23	0xbfc92baf5aae4d29	-0.19664565971161466
24	0xbfcafb8750dc7a2d	-0.21080104301741312
25	0xbfe360a8c2a45a6f	-0.6055492211915644
26	0xbfe1e2edf67e4926	-0.5589513601610505
27	0xbfafb46700b26bdf	-0.06192323573596758
28	0xbfbf2b7aa9fa0f5f	-0.12175718927215716
29	0xbfdd23b895ee9793	-0.45530523912236126
30	0xbfe41ed10f417770	-0.6287617967570736
31	0xbfb1bc347af80fdb	-0.06927803041622786
32	0xbfcf7e58917cc0ac	-0.24604327300904083
33	0xbfb1cbb5f13895b0	-0.06951462878404047
34	0xbfe658b74099332a	-0.6983295690239164
35	0x3fa38ce25f48ddd5	0.038184236651826055
36	0xbfe6e6cf865eefdc	-0.7156751274519553
37	0xbfe0d0bd7651e384	-0.525480967610847
38	0xbfde46cb2df699da	-0.4730709027157026
39	0xbfc8f6c9ead936a7	-0.19503139464579997
40	0xbfe37f51114c4aba	-0.6092915857173786
41	0xbfbb9bdaedf91293	-0.10784691152464125
42	0xbfe8adf9da0b8bef	-0.7712373026555478
43	0xbfbc62994f49f8e1	-0.11087949929967379
44	0xbfda80143e44f2b3	-0.4140673263644132
45	0x3fca34960e96aa42	0.2047298022492488
46	0xbfb835e8845afd4a	-0.09457257491429974
47	0xbff962ff96ef9b6f	-1.5866695304809715
48	0xbff4070e5c1ce833	-1.2517226789627898
49	0xbfe714b4f1fc0f39	-0.7212776876699315
50	0xbfed621681b5e389	-0.91822362264712
51	0xbff368e9f17060f5	-1.2131137305460105
52	0xbfdf825b99bf20bf	-0.49233140959087146
53	0xbfae4c3ea1c80caa	-0.05917545056220182
54	0xbfdf2713006183f0	-0.4867599014015118
55	0xbfbe422411a823df	-0.1181967299563804
56	0x402199afc8d7195c	8.800169254548273
57	0xbfe679ebb3dac6bd	-0.7023828995499667
58	0xbfe4c1f51caa6278	-0.6486764488100354
59	0xbfcc7034513acbe5	-0.22217420545857106
60	0xbff09dedeaa88dd1	-1.0385569731087012
61	0xbfc20b0f077d854d	-0.1409624849866681
62	0x3faa0ef79dfe5d20	0.05089544108994404
63	0xbf8820627858c31a	-0.011780518815699238
64	0xbfc53b206b3a4bdd	-0.1658669017384388
65	0xbfd8dd857d003a82	-0.3885205956184238
66	0xbfc763d1f0bab515	-0.18273376707421876
67	0xbfd719a824ce1f2b	-0.3609409675050183
68	0xbfa9ae409d831d12	-0.05015756533389938
69	0xbfbc89cb08faf4ba	-0.11147755593534017
70	0xbfd1e5657a1e08f7	-0.2796262447883601
71	0xbff7753ce519d01b	-1.46612252705109
72	0xbff074337f0f1a3a	-1.0283694232217742
73	0xbfeade6d29c30a76	-0.8396516624128043
74	0xbfdc34101c6f729f	-0.4406776693047422
75	0x3fc90b7e63570ffa	0.19566325998869144
76	0x3fd2f60f2fba3700	0.2962682691657932
77	0x3fe2ce5fd1895aca	0.5876921741972521
78	0xbf9e510de9ac3f80	-0.02960607279516081
79	0xbfc56de24c713bed	-0.1674158929112929
80	0xbfa7acdb4cf7e981	-0.046240666528279746
81	0xbfdc7d89f89803a7	-0.4451622893976101
82	0xbfef158cdaf69258	-0.9713806416153359
83	0xbfc80a5d8af79fc5	-0.18781632695686148
84	0xbfe478484822d6f6	-0.6396829041393335
85	0xbfc1c929d26f2a20	-0.13895151877507406
86	0xbfe448d597a9a8bd	-0.6338909113085475
87	0xbfecf1b3d7060d4f	-0.9045046996765594
88	0xbfa8bd3cf9e8aba5	-0.048318772798970934
89	0xbfd4e0033d11db68	-0.32617264713137795
90	0xbfb01084108ae772	-0.06275201228973318
91	0xbff1d478be17111f	-1.1143729615587927
92	0x3fb6d462f461c3a6	0.08917826143603111
93	0xbff827798d310886	-1.5096374049467456
94	0xbfa170fa51f57903	-0.03406507730936605
95	0xbfd45085616358e4	-0.31741461287073336
96	0xbfe442cf5b51e8e3	-0.6331555160134282
97	0xc00a7a5a62226223	-3.3097427050345387
98	0xbfcd169417f75331	-0.22725154085369462
99	0xbfe870a8b61f9908	-0.7637523228738994
100	0xbff42ec1848b1749	-1.2614150216554256
101	0x3fd283e6e0d4f5da	0.28930065113294534
102	0xbfe36c1185ac07a1	-0.6069419489651758
103	0xbfefc15d74574386	-0.9923541328699776
104	0xbfd8e7d30d493d4f	-0.3891494397875776
105	0xbfeb295ff1e00a5d	-0.8488006328701193
106	0xbfc627bef1543822	-0.17308794768945385
107	0xbfc89ec245be0bf3	-0.19234493642224457
108	0xbfe38d731897dace	-0.6110167961440653
109	0xbfd01821324518b7	-0.25147275838061084
110	0xbfc6e2bd70f5d619	-0.17879455581321294
111	0xbfcd22a3691a343f	-0.2276195777125469
112	0xbfe32fa9ff52ed32	-0.5995683657451194
113	0xbfc95c6f6965826c	-0.19813339849771994
114	0xbff17b0beb13bb8d	-1.092540663022848
115	0x3fe203247a824230	0.5628836052656592
116	0xbfbcdd6963ca5130	-0.112753474104754
117	0xbff6b1fab7bde761	-1.4184519936956905
118	0xbfc74721b5f9ee70	-0.18185826669274574
119	0xbfc6734f982702aa	-0.1753940098697247
120	0x3fbb549505f545a0	0.10675937076054831
121	0x3fe959d0570a9f36	0.7922136020688189
122	0xbfe2902056306840	-0.5800935443287543
123	0xbfd5de7aa97df9a3	-0.3417040496059604
124	0xbfd00fa3a96b294b	-0.2509545473555092
125	0xbfaac2d82028d759	-0.05226779358456097
126	0xbfd06adad685d36b	-0.2565219016026307
127	0xbfce8d118f2877e5	-0.23868007173672293
128	0xbfac5739b798e7b3	-0.05535297743013192
129	0xbfecad200d63ecdf	-0.8961334477930015
130	0xbfe9bd8a97e521d6	-0.8043873755169055
131	0xbfe1e58c888593c2	-0.5592711130562906
132	0xbfe6463ffeb6ecc8	-0.6960754370587887
133	0xbfef2843fffae2f2	-0.9736652373895522
134	0xbfadb3bf5baa1757	-0.058011989535812596
135	0xbfdb1ad5de768952	-0.42351290440469314
136	0xbfe90b96ba008020	-0.7826646454668698
137	0xbff6935aba407125	-1.4109751964052262
138	0xbfd1cb939a7dd415	-0.27805032813131564
139	0xbfe2f5ee4716ea0b	-0.5925208462206809
140	0xbfff85da206c0391	-1.9701787249070757
141	0xbfd077dbe7c8d9ad	-0.2573156131287771
142	0xbfe057eba24e2773	-0.5107324762368378
143	0xbfd62789a7ae1b42	-0.34616319060335254
144	0xbfe5dd6b9bd6a89e	-0.6832788509102732
145	0xbfe3f499051ecaa0	-0.6236081218724685
146	0xbfe169e25f3f6b66	-0.5441753254229809
147	0xbfef0503858fa066	-0.9693620308508002
148	0xbfce6bc3f7108ce9	-0.23766374171928042
149	0xbff00da3b0b66c53	-1.0033299353442728

fc2.bias f8 [100]
0	0xc0107ba265d1a551	-4.120736685677302
1	0xbfed34e199375bba	-0.9127052299980882
2	0xbffbe6e2dffb0185	-1.7438687085378615
3	0xbfd26a6a13ffcc17	-0.28774501755759857
4	0xbfdb5a23448b5e42	-0.42737657254972217
5	0xbfda210e69a6110d	-0.40826759640937454
6	0xbfd4fb3728607e8e	-0.327832974844548
7	0xc0040f83641e1499	-2.5075748273544147
8	0xbfd3fe185b64d8bd	-0.31238373685063064
9	0xbfd434a38a0e40c0	-0.3157128189277607
10	0xbfcf0f624eaa8b3e	-0.24265698281404896
11	0xbffaef04a63bd529	-1.683354043341135
12	0xbfdeac10cf7b096d	-0.4792520548036439
13	0xc00687924c11d35b	-2.8161970084133094
14	0xc01b789987da26e4	-6.867773173036515
15	0xbfd599afcd7bfbcd	-0.33750529352977027
16	0xbfd43341231cc9c5	-0.31562832287741244
17	0xbfce086c199372ae	-0.23463202713800996
18	0xc02f8245f2911601	-15.754439907274902
19	0xc010824bdf398596	-4.127242553602079
20	0xc001d05bfc581fb6	-2.2267379488366386
21	0xbfc90fa3629b7ba9	-0.19578974070369995
22	0xbfff81446b82e78d	-1.9690593909894887
23	0xbfed435425370a82	-0.9144688345771359
24	0xc02082c6ed8bd002	-8.255423949543914
25	0xc0198bfd8856a37e	-6.386709337509158
26	0xbfc769b1c9c97d7f	-0.1829130397118028
27	0x4000a77add844341	2.0817773157108665
28	0xbfce73af6fefad19	-0.23790543523441768
29	0xbff8bdc30fea0c36	-1.546328603901896
30	0xc0365d1c9c41c3fa	-22.363717809730566
31	0xbfc76c29943ae815	-0.18298835504339253
32	0xbfb8601c8a05598f	-0.09521654481554818
33	0xbfccbc56b0ef1cc3	-0.22449763907773077
34	0xc02d167bc061628f	-14.543912898910348
35	0xbfb32859e74de1ec	-0.07483446023059742
36	0xbfeea4d4afdb0bc5	-0.9576209482842094
37	0xbfc8076948c3e35d	-0.18772617390620897
38	0xbfd3377edf804bcd	-0.3002621824863894
39	0xbfd2d17c6cfd3968	-0.2940360130641211
40	0xbfdc3855b4c04d55	-0.44093840266687795
41	0xbfc9f63248102b16	-0.2028258182402502
42	0xbff2589274c3a293	-1.1466240464307347
43	0xc0118c1a6582fbdc	-4.386819444770449
44	0xc004a31e1beaa58f	-2.5796472722037787
45	0xbfb8980f64f3ab5a	-0.09607025351185197
46	0xbfe7d52024b49158	-0.7447663037205912
47	0xc02623a298cdc9e6	-11.06959989082402
48	0xc02515feda64f318	-10.542959999869296
49	0xbfdf6a5871fdb027	-0.4908658135598238
50	0xc004e175066b8fdf	-2.6100864888739888
51	0xbfe0787c1039599d	-0.5147075955272161
52	0xbfdfce25bbd7d426	-0.49695723861742847
53	0xbfe53632f13df522	-0.6628660880811916
54	0xbfb2abb50b432c02	-0.07293254399262142
55	0xbfba7efe1e97c74a	-0.10350025412460898
56	0xbfb57f8c34dec57b	-0.08397747317100894
57	0xbfddefd69934e54a	-0.46776356660446494
58	0xbfd28815e86f5a66	-0.28955600451209873
59	0xbfd243e2d9d423b3	-0.28539344093638447
60	0xc010f7d30ad37219	-4.242015999942418
61	0xbfd9cc87d48f8790	-0.40310855634572196
62	0xbff7b5988d9e704d	-1.481834939192612
63	0xbfd60ccc8c58a647	-0.34453118997280224
64	0xbfd07aa421fd6d40	-0.2574854213650788
65	0x40174e266c074b5f	5.826318443246094
66	0xbfb488e65debdd88	-0.08021392624856649
67	0xc01d31da0396ca06	-7.298683219984474
68	0xbfe4448922fcefc1	-0.6333661731109644
69	0x40216e2504a0b97b	8.715126175517744
70	0xbfd4ca4a39da586f	-0.32484679841707637
71	0xbfd210fa2f97a277	-0.28228621146857996
72	0xc0310ef4d05256a6	-17.058423061468282
73	0xbfdfc82463eb4ccc	-0.4965907073757989
74	0xbfd242f867d4afa4	-0.2853375448200899
75	0xbfd404bf2f232366	-0.3127897224736017
76	0xc01525ec853d8998	-5.287035066491079
77	0xbfd67dc45cf746a7	-0.35142621115401557
78	0xbfd1150489a0f98f	-0.2669078201323822
79	0xc0048dbb3cfc072d	-2.569204784814153
80	0xbfc818a41d94399b	-0.1882519859722834
81	0xbfc44a7034dbef61	-0.1585216768361262
82	0xbfe38f1951069cda	-0.6112181265388259
83	0xbfdf61cf715b9890	-0.49034486837479907
84	0xbfed72d4c161515d	-0.9202674653011332
85	0xbfde4a8fb18a5876	-0.4733008607667054
86	0xbfbcb64d86774cba	-0.11215672047483141
87	0x401dc300d22c25f6	7.440432819313619
88	0xbfccca874ca50090	-0.22493067972573444
89	0xbfb5e05139e38d00	-0.08545406020452972
90	0xbfd0811ec5308df0	-0.2578808713608103
91	0xc01561afd43276db	-5.345397296505065
92	0xbfcb5a649b25c5e4	-0.21369607520641332
93	0xbfce91eaa83b1a95	-0.2388280221404854
94	0xbfca7f815d046b83	-0.20701615373476664
95	0xbfe9f7749ebbd162	-0.8114569759623402
96	0xbfe829ea3476dcca	-0.7551165604299055
97	0xc0042d67110c9dfc	-2.5221692401862565
98	0xbfea267fe3511796	-0.8171996536045636
99	0xc023f256e04e2722	-9.973319062748093

fc3.bias f8 [61]
0	0x40109e378afce21a	4.154508754429594
1	0x402904884b77b396	12.508852346765519
2	0x4018b7719eb46b5e	6.179144363176276
3	0xc015e3b47a94f590	-5.472368159620046
4	0xc02352e2d81d9331	-9.661886933908677
5	0xc00a36cc4ec3a400	-3.276756873460272
6	0xbfedfe063555a182	-0.9372588197411889
7	0xc0208e2456380d15	-8.277620977728057
8	0xc022781999b82d40	-9.234570316059603
9	0xbfe3e41028db3b74	-0.6215897367454617
10	0xc0195ac0a5d6f802	-6.338625518079427
11	0x3ffedda26c043b4c	1.9291099757571883
12	0xc021981b331a2f64	-8.797082516619135
13	0x3fd3bcad312290f1	0.30839090154974175
14	0xbffce662b970f99a	-1.8062464946557157
15	0xc026d1102b6ea5b9	-11.40832648969341
16	0xc0233cefba982a82	-9.619016486239392
17	0x4003ef9846360434	2.491989658854914
18	0xc01972ca56a03f9c	-6.362099984675208
19	0x3fe24989bd464e4b	0.5714768120546493
20	0xc013d90f3d2efbfb	-4.961972194664663
21	0xc030b675340ad60e	-16.71272588028483
22	0xc025b614cae276d1	-10.855627384323641
23	0xbffe455d00773944	-1.8919343965713589
24	0x3ff09e967cec6b51	1.0387177352738102
25	0x3fe87b288ab88ad8	0.7650339803115811
26	0xbff04af9d1de4d15	-1.0183046529753643
27	0x40256a1b2aeb3333	10.707238522730767
28	0xc026d2ec4499c17a	-11.411958831566825
29	0xc00b1d8446e88323	-3.38941245457717
30	0x40195db2cef8b8c9	6.341502412730002
31	0xc00bd6a2eeb55ea0	-3.4798029564952486
32	0x3ffacdfc377d6fcf	1.6752893607690458
33	0x4002dc46b7d1e5a4	2.357556758969354
34	0xc02f5da7af2af084	-15.682919954291954
35	0xc01962649f274455	-6.346086966296828
36	0x402af4d7193dca40	13.478203572075586
37	0xc028c0d34423e170	-12.37661183298107
38	0xc01bd9c1bc9dcc3d	-6.962653109675611
39	0x402254910dab8d72	9.165169169608564
40	0x3fdb16ec4921ff53	0.4232741083323976
41	0x4001f2fbf84a572d	2.243644656914418
42	0xc0101a6c3fa95325	-4.025803560933842
43	0xc02113898475969d	-8.53815854964642
44	0xc018d3b3850e91b3	-6.206739501013021
45	0x4026de7ce78697a4	11.434546694926958
46	0xc015654d32ee10fe	-5.3489273031048
47	0x4016be1666cdf85b	5.6856323302473255
48	0x4011518fabde5e39	4.329649625251073
49	0xc010b734af44eda8	-4.178911913473179
50	0xc01cdcacf28bc426	-7.21550349214616
51	0x3fff3eecf3d448c7	1.9528626942233573
52	0x401a72dc5ed850fa	6.612168771698856
53	0x401f3469c4945d5a	7.801184722476444
54	0x40317ad33448577e	17.479785220777096
55	0x402545508487707a	10.635379926236272
56	0xc003a757a11f9e9d	-2.456710108544782
57	0xbff3da4cd8bc0861	-1.2407959428969877
58	0x40039e778c150c92	2.4523764556811978
59	0xc01b07e41030b784	-6.757705929730836
60	0xc01e054f0d8af581	-7.505184375387558

onnx::MatMul_18 f8 [150, 150]
0	0x3fc052d5506bf05f	0.1275278704341671
1	0x400677cbe2ed7d1d	2.8084943512655074
2	0x40049a70b42d2fe0	2.5754102779664976
3	0x3fcd7330da94df0e	0.2300778453152294
4	0x3fc4cb980ae9c64e	0.16246319325323316
5	0x3fdb6e665f8ab729	0.4286132748628569
6	0x402dcc51a83493c4	14.899060493867985
7	0x3fbd9fed5bb73f0c	0.11572154511599936
8	0x3fc2c7f10013c77c	0.14672672752163496
9	0x3feb5cb4012b7ec2	0.8550663016175906
10	0x4017f18b38b2234c	5.985882650253938
11	0xbfd2ae12f02089dd	-0.2918746323577162
12	0x3fccfac93e6128bb	0.2264033846461809
13	0xbfb9e867a0befcdc	-0.10120246576751718
14	0x3fe5bdc7730517e0	0.6794163938982329
15	0x3fb3b57733ceb706	0.07698769583540974
16	0x3fb6268bd331ad12	0.0865256682024447
17	0xbf8d33984b0a8bca	-0.014258565702510401
18	0x3fc470204f1c0677	0.15967182028548496
19	0x40235eda1e21c107	9.685257856006968
20	0x3fe80cf082a4cdf6	0.751579528010949
21	0x3fd3fb60c0b16017	0.31221789186156584
22	0x3ff316d400e8a13c	1.1930732760902876
23	0x3fc5498c4432ae87	0.1663070042608192
24	0x4014d9b17f02cf22	5.212591156526999
25	0x3fa194a0fade25b4	0.034337072967058374
26	0x3fe4e89dbaa80408	0.6533955236083111
27	0x3faa5289a6a3424b	0.051410962668914616
28	0x3fc7d740c7d761be	0.18625650174977965
29	0x3f9e15ad7425be8f	0.029379568304135403
30	0x3fbfec5858642aad	0.12470009000768796
31	0xbfc29c3b2a36009b	-0.1453927951915873
32	0x3fb249a7fbe245bf	0.07143640422352514
33	0x3fbc0c82b8e6eae9	0.10956589712342758
34	0x3fda9fb7938cd52c	0.41599835786049044
35	0x3fe87bc804c9c85e	0.7651100247878835
36	0x3fe4cfbd2f36ece2	0.6503587648543567
37	0x3fb9c2a7ecf0bee0	0.10062646422079125
38	0x3ff019f128576aca	1.0063335014189527
39	0xc03ace378d89f48c	-26.805535169773563
40	0x3fbf6b687abdd02e	0.12273266789071677
41	0x3fcbb3a75434ee0c	0.216420093647557
42	0xbfcfd76c61c5dbc5	-0.24876169942919382
43	0x3fc073542ff1464e	0.12851955738965376
44	0x3fd9c250497c0416	0.4024849622365435
45	0xc010765c231da3d3	-4.115585850414351
46	0x3fb49836d3541e8d	0.08044760379208978
47	0x3fef52807638676f	0.978821020983771
48	0x3fde62b0a6a32667	0.47477356217550554
49	0x401ba2476e679adb	6.90847561366419
50	0x3fda93c956ddabf4	0.41527017100332775
51	0x3ff0055d7f17451f	1.0013098682869168
52	0x3fe5c295d2f3318d	0.6800030822865196
53	0x3fcb25a88beb3606	0.21208674270603484
54	0x3ff3238b80140494	1.1961779597334372
55	0x3ff6baabba3a3a14	1.4205739283094134
56	0x40092b7ef6c8b7fa	3.146238258362243
57	0x3fd1efea5e23f796	0.28026827996642945
58	0x3fdee0ce95aabb0f	0.4824711286154732
59	0xbfa3f5381aef17c6	-0.038980248725735175
60	0x3fd09addcc5ebe18	0.25945229490295807
61	0x3fa7442aeb5187a3	0.04544195292034139
62	0x4018c911e24b0388	6.196357284382323
63	0x3fb2cd6c063fab14	0.07344699051433806
64	0x3fc61083d85cbc8a	0.1723789984184559
65	0x3fd19bef822883b4	0.27514255247848074
66	0x4001d9f08d4d4ecb	2.231415847703692
67	0x3fc23153b6500de3	0.14213034059512983
68	0x400c07da0bde3dde	3.5038338591764235
69	0xbfa86b67bdc30e40	-0.047694436945246554
70	0x3fdee92168a2943e	0.4829791566683673
71	0x3fea328aa8725ebd	0.8186696329093689
72	0x3fe8d9bb051f8109	0.7765784359035318
73	0x3fe6d4730ffe2118	0.7134337723119044
74	0x3fd86826ddd0e52c	0.38135692273825117
75	0xbfef8f77a2314713	-0.9862631004163823
76	0xbfc6be6f6d7312e7	-0.17768662304128854
77	0x401337dd67d557d8	4.804555532833511
78	0x3fbfc1c9a307783f	0.12405071478085093
79	0x3fc0dd5957f242c5	0.13175503534559688
80	0xbf86f544037195ad	-0.011209994654744227
81	0x4009fbf59fc39ae8	3.2480270845002117
82	0x3fe179258b6fa96f	0.5460384105074761
83	0x3fa3ad9c88cbafa3	0.038433925341308205
84	0x3fc4bae22de81e87	0.16195323220766886
85	0x3fc1084106291f0c	0.1330643920975877
86	0x3fdad4bbe1abc34a	0.4192342475717409
87	0x3fed79814eb080dc	0.9210821663764608
88	0x3fadaebb8917cac0	0.057973728642442435
89	0x3fc63379e23f9374	0.17344592616350563
90	0x3fa6c22ec1a70f90	0.0444502459900199
91	0x3fec599ef693edf5	0.8859400573705317
92	0x3fd6f72cb218f3fe	0.3588363398774276
93	0x3ff48a9909ca69f8	1.2838373548935333
94	0x3f976cb99336add2	0.022875690088467078
95	0x3fcdabf5d6e6794a	0.2318103122060598
96	0x3fdd2e365880d669	0.4559455742158663
97	0x3fed5627c313582b	0.9167670068807231
98	0x3fb55be90c9e48b0	0.08343369062484629
99	0x3fd039d697d8152d	0.25353016689799085
100	0x3ff8b783d3bf9cf2	1.5448034545350393
101	0xbfbf2832b1f96508	-0.12170712323258581
102	0x3fd6a95e0cc5ae73	0.35408736464771734
103	0x3fd6c410ff161667	0.35571694288987604
104	0x3fcf116139e7fc9f	0.24271788909388634
105	0x3ff04da1827adf9a	1.0189528557657241
106	0x3fc29d9314da5d47	0.14543379324161718
107	0x3fad5b855fa0d7ec	0.05733887474382002
108	0x3fed116d74761876	0.9083773874888397
109	0x3fc7902b8345f7fe	0.18408721837835168
110	0x3ff53ec13f47c815	1.3278210136309145
111	0x3fbbe9e65019ddd5	0.1090377755698378
112	0x3fd93970aa35be0e	0.3941308653074608
113	0x3fccce3bc13658f5	0.22504374441331945
114	0x3fe6f34326cc5d96	0.7171951062945705
115	0x3ff630a9559985f6	1.3868802398432059
116	0xbf2ea69c846f9638	-0.0002338472424689307
117	0x3ff64a8e8b875f6c	1.3932023477882138
118	0x3ff8583332741571	1.5215332003438926
119	0x3fd0e342ab5a28e3	0.2638708756791301
120	0x3fddc0d66d981b9c	0.4648948736434535
121	0xbfd721b8d45af016	-0.3614332269460204
122	0x3feeeca514bd09a7	0.9663873105094368
123	0x3fd249ced42f0367	0.2857548782449641
124	0x3f97ea8c9fe15676	0.023355672128977344
125	0x3fad0d4d31ded445	0.05674210771341185
126	0x4003dd91a37217b8	2.4831879395669283
127	0x3ff1c59b3bbefb81	1.1107437452153308
128	0xbf8415fc8ba0488d	-0.009807560931254034
129	0x3ff0281ff28a22b4	1.0097960924341978
130	0x3fe901aff127f145	0.7814559660032862
131	0x3fd387f321c205c1	0.3051727132479663
132	0x3fcc6d0a2f184834	0.2220776300387698
133	0xbfbc4c124fc918c6	-0.11053575942887325
134	0x3fbef83d6706aa8a	0.12097533955845044
135	0xbfda9cfb8324518c	-0.41583144957373785
136	0x3fdddc7f2fb9caba	0.4665830579826139
137	0xbfc854adac113971	-0.19008417989466467
138	0x3fbc50f5bac7893d	0.1106103497509467
139	0x3fc172ac4b9ba159	0.13631204311173908
140	0xc0030e627214350f	-2.3820237076203123
141	0x3fcbeb9c60e1fe2b	0.2181277726231071
142	0x3fd9137bbca1ff7a	0.39181416913196865
143	0x3fd808156d0f6b2f	0.3754933896104146
144	0x3fcf3aeac9069208	0.24398550811487518
145	0x3fd754427a327ebd	0.3645178025562748
146	0xbfa2178477bcb497	-0.03533567392001052
147	0x3fbda53af5534aa6	0.11580246438397043
148	0x3fc774d3687db56e	0.1832527408800319
149	0x3fd5b784da0d7b7f	0.3393261079235614
150	0xbf980bb9bf32a3c2	-0.0234822295139201
151	0xbfe1d319490d0201	-0.5570188929341954
152	0xbfea0e6b68f9faff	-0.8142602014848704
153	0xbfb740e456b84fc0	-0.0908339225500745
154	0xbfb2804fb7abc83f	-0.07227037653118006
155	0xbfcf22137ff849aa	-0.24322742222336774
156	0xc030652b0af8e2bd	-16.395188031924352
157	0x3fb0e5fc92153b48	0.06600931707837987
158	0xbf90c09319786926	-0.01635961382826525
159	0xbfb7e4eba1615534	-0.09333679857202953
160	0x3fe08162be7c8a4f	0.515794155162732
161	0xbfdc3b8865334db2	-0.4411335933957289
162	0xbfd87c4578bf6945	-0.3825849227120169
163	0xbfe4a0dea741f749	-0.6446374193908265
164	0xbfcba77cc5b1a4bf	-0.2160488095571846
165	0x3fb7f589847a6d25	0.0935903500016378
166	0x3f8d80d9ba273d01	0.014405919068762875
167	0xbfd55522fdb1d1bf	-0.33332133078445375
168	0xbfbdb0d4f1cec25c	-0.11597948935992392
169	0xbff890c705ee6376	-1.5353460532844259
170	0xbfd2bca66ecf6539	-0.29276429005911414
171	0xbfcd6ec7abbf0e60	-0.22994323621797985
172	0xbfe198f7df8720c3	-0.5499228826311299
173	0xbfbeff488a465f99	-0.12108281493999441
174	0xbfb18a4cc1ad8ddf	-0.06851653793778877
175	0xbfcd97668aa7e02d	-0.23118287821103092
176	0x3faffdc693537fc5	0.06248302982726232
177	0xbfb6952c8077fff4	-0.0882137120861442
178	0x3fc24185b62ce513	0.14262458224565275
179	0xbfe5a1c9154eefe7	-0.6759992042711901
180	0xbf8e07243365eb13	-0.014662058657213295
181	0xbfd1040ec419467c	-0.26587266111628316
182	0x3f90069af30477a2	0.015650197107894954
183	0x3f80e9147d8c6b35	0.008257064896999825
184	0xbfc0439ac94f3539	-0.1270631297069629
185	0xbfe8f403338c259d	-0.7797866827760803
186	0x3fb23b38aa8979ba	0.07121614612103758
187	0x3fb936362d31e9f6	0.09848345378296827
188	0xbfeeb92fc0cf56a4	-0.9601057782953899
189	0xc030bb71d47e56c8	-16.732205658764343
190	0x3fa41d7da41d788d	0.039287496837219306
191	0xbfb67a3e7f8f7b34	-0.08780279745358827
192	0xbfe265b5fd65ba7e	-0.5749158810775297
193	0xbfaf2d779e09b02b	-0.0608937626282969
194	0x3fb7377163eaf6f7	0.09068974198723
195	0x400e0151984167a5	3.7506439108810405
196	0xbf64b000767ae95a	-0.0025253304519001043
197	0xbfd42a5991247445	-0.3150848309904329
198	0xbfc1f38017283a73	-0.140243541056822
199	0x40209fa9c90a7b57	8.311842234162823
200	0xbfd5167c567d2561	-0.32949741789032855
201	0xbfcafecf96097621	-0.21090121103309037
202	0xbfd0ca0610f06869	-0.2623305478497345
203	0xbfc9d05546b48d82	-0.2016703219643255
204	0x3fe2a8905ef9513a	0.5830766539534473
205	0xbfe4c09a2c6fecfe	-0.6485110156931169
206	0x3fea094b21273357	0.8136344573518767
207	0x3fb69b5ba9c1a4ae	0.08830807585185838
208	0xbfd92112dd3ac99b	-0.3926436577268306
209	0x3f84cc7d4f8baff1	0.010155657758751576
210	0x3fb6aad94326740f	0.0885444439831675
211	0xbfab0b118dcda41d	-0.05281882148739945
212	0x402a2c872e864267	13.086968854798398
213	0x3fa1b5b285cdde30	0.034589365800396954
214	0xbfa89b0a0de2200b	-0.04805785579179663
215	0xbfac91f29da4cdee	-0.05580099272119897
216	0x3fd347785456580c	0.30123718486845585
217	0xbfbcb16c967625df	-0.11208227799774971
218	0xbfdac302581845dc	-0.418152414350599
219	0xbfac7021d787368c	-0.055543000754920774
220	0xbfdceef1a90b1dc7	-0.4520839834990195
221	0xbfc67b0d688bc3e0	-0.17563026051314434
222	0xbfc702ca2bc55c72	-0.1797726358151724
223	0xbfd505d32af8d5e3	-0.3284805221222468
224	0xbfc1990646ed8def	-0.1374824377372614
225	0x4027482f9f41807c	11.640988327737652
226	0xbfb3f3e697ab84d6	-0.07794038012390855
227	0x3fe03448004899ea	0.5063819890536341
228	0xbf916932001f2f62	-0.017002850778040986
229	0x3fa00903bf7698a1	0.03131877624700619
230	0xbfb0e10e4dfa4d36	-0.0659340801596969
231	0x3fe099a13b99f7e3	0.5187536396113014
232	0xbfd038fe3e2879ec	-0.2534785849583432
233	0xbfc08aea0e5ab517	-0.12923932743925867
234	0xbf5ad634a1ff5094	-0.0016379846565444433
235	0xbf6d56f2a57b4001	-0.003581499022267565
236	0xbfcc0ffa216d11d3	-0.21923758155948167
237	0xbfc0e7c3757ea31c	-0.13207286107105964
238	0xbfa57fef0795305e	-0.041991681743269935
239	0xbfd7b11b98516e86	-0.370184801815164
240	0xbf5b423f3e2d3034	-0.0016637437444897542
241	0xbfd06365eae39b96	-0.2560667795027539
242	0xbffbce87face2053	-1.7379226491048214
243	0xbfd49f2dd8ffe39a	-0.3222155207764047
244	0xbfa48ccd4a64644c	-0.04013673337085119
245	0xbfb8f504d2076780	-0.09748869064006094
246	0xbfb8388e1d22af6c	-0.09461296283069281
247	0xbfda81a3271b519a	-0.414162433805609
248	0x3f92e7ceb08be0f1	0.018462399983918357
249	0xbfa4a186a803023a	-0.040294845589873465
250	0xbfcfd646153e4090	-0.24872661626114168
251	0xbfbe3edb4cd7ea0b	-0.11814661623058258
252	0xbfc61820f2c9b3bb	-0.17261134962919109
253	0x3fb5eb70ae6b552b	0.08562378176005285
254	0x3f92e2aa0f8b2a94	0.018442780684191876
255	0xbf8c90741e99f426	-0.013947398361091667

onnx::MatMul_19 f8 [150, 100]
0	0xbfce618d8acf42d7	-0.23735207822621504
1	0xbfd88c30e50d2b3a	-0.3835565792875745
2	0xbfb637f8f5d06feb	-0.086791572583422
3	0x3fa86d51f6c0eaae	0.04770904671791719
4	0x3fa38576bdcbf918	0.038127623241950015
5	0xbfaa2b1e1c85a57b	-0.05111021135491974
6	0x3f9b0e5c38ca4114	0.02642196747416488
7	0x3fb013de3c4e2320	0.06280316326423163
8	0x3fb1fc3f6ba653ad	0.07025524500052312
9	0x3fb08b711ab5c3f6	0.06462771322345859
10	0x3fb32f199698fbcc	0.07493743826579119
11	0xbf9a5da0bd562045	-0.02574778705232485
12	0x3fd05ec94c896341	0.25578529810222866
13	0x3fc722fc354c1f6c	0.18075516321573148
14	0x3fca2acc5f3889fd	0.20443110131698453
15	0xbfb4878a70bd2459	-0.08019318821347222
16	0x3fa545b523da611a	0.041547451616852096
17	0x3fb474f1e923ee89	0.0799094385328606
18	0xbfdd574b9117fa99	-0.45845307511619066
19	0x3fe252136f8ca539	0.5725190333079474
20	0xbf8ea803260edc14	-0.014968895529689198
21	0x3fa86ad6b1685346	0.04769011417025708
22	0x3fe2b3b44efe4cc0	0.5844365637625728
23	0xbfa130674664b731	-0.03357241377157861
24	0xbfbd66440a332340	-0.11484170197503563
25	0x3fb33dd927ba94e5	0.07516247959081886
26	0xbfa15f49d6b61025	-0.03393011804567462
27	0x3f9ab945a2f3f1e2	0.026097381659370707
28	0xbfb07e9566211815	-0.06443151229277107
29	0xbfa721eb3961a89e	-0.04518065524537572
30	0xbfa9780a6af5d0dc	-0.0497439628187821
31	0x3f763f735d02a727	0.005431604993796835
32	0xbf7337da408fff9b	-0.004691937015195348
33	0x3f92d1a612e27587	0.018377871420502536
34	0x3fc28330984bf853	0.14462859569897776
35	0xbfb1210f7d2aec5d	-0.0669107132516031
36	0xbfa83349b2550b82	-0.047266295451229304
37	0x3fa9210189c54af5	0.04907994086047111
38	0x3f9cb82c8ab991fd	0.02804631802281853
39	0x3faa0ab96f9670d5	0.05086307036546748
40	0xbfb012286a823893	-0.06277706718739955
41	0xbfc42887db8bab4a	-0.15748689861296788
42	0x3fa128d58eb13d03	0.03351466528749294
43	0xbf7c1b1eeaa56d58	-0.006861801879803529
44	0xbfc4ae551f4ae1f4	-0.16157020595507243
45	0x3fb1efd7f10a39ac	0.07006597170604917
46	0xbfb41f27b9b820f4	-0.07860039028321691
47	0xbfddb0d756ed2232	-0.4639185284509352
48	0x3fa2831ad7fd056b	0.03615650068833073
49	0x3f85d4446243ede8	0.010658773659534895
50	0x3fa33be9ee2bf4f1	0.03756648094529592
51	0xbf75c6d839504cbc	-0.005316586136376585
52	0x3fa3f10737d91c0a	0.03894827419986065
53	0xbfa6e6021c99a1a2	-0.04472357367632475
54	0x3fb2e3e24408fe30	0.07378973160756952
55	0x3fa7fa6de6cae87f	0.04683249895374874
56	0x3f918b1f74dbddbe	0.017132274157999332
57	0x3fa6bff066c3330b	0.04443312887597103
58	0x3f9e13a1e7a5fbe9	0.029371766818709153
59	0x3fb3c321394875c7	0.07719619415771382
60	0x3fd7dda38629acd5	0.3729027567084818
61	0xbfb4d363caaa63ab	-0.08135055253877847
62	0x3fb11af37e989428	0.06681749191973607
63	0x3faf01eb4965c26b	0.06056151648488569
64	0x3f71f7035577ba59	0.004385960600741778
65	0xbfe439ee3dadd084	-0.6320716099421735
66	0xbfb261f7bcd3ca4b	-0.0718073688511051
67	0x3f670b4e0c4a9d35	0.0028130077719940257
68	0x3fa46e2fb10555c8	0.0399031547155278
69	0xbfc55dabf071ca78	-0.16692113151983157
70	0x3fa6adf0c7b8d94e	0.044295811061987864
71	0x3fab3de7484a54a6	0.05320666081858265
72	0xbfda29af23e276b9	-0.40879419807775325
73	0xbfbc83b740fd6f35	-0.11138482414883984
74	0xbf977b120618609a	-0.022930413839362097
75	0xbfb148f10656b2c1	-0.06751924900772634
76	0x3fa0bc71a9d5867a	0.03268771360559426
77	0xbfa4c4659a223910	-0.04056088930620849
78	0xbf84d6e6cb42977e	-0.010175517156607358
79	0xbfe00ecab73ade6d	-0.5018056467733466
80	0x3fa91ff3f52374d9	0.04907190673268653
81	0x3f9d76b7679556cf	0.028773179719187077
82	0x3fa3a68aabbb6aff	0.03837998720492485
83	0x3f902ca4dc9b9a5f	0.01579530331118872
84	0xbfde1e914b39a0f7	-0.47061569544031506
85	0x3fb1faf9447e63ec	0.07023580476960917
86	0x3fb2b8a6b287b5e7	0.07313005312581532
87	0x3feb0899edd17b37	0.8447999615562826
88	0x3fb0c7b5c031072a	0.06554733221221612
89	0x3fd26adde10b8e33	0.2877726266580993
90	0xbfad72c038b4c253	-0.05751610462391867
91	0xbfb300efb6e16e0d	-0.07423303809030575
92	0xbfd1484587fd6a52	-0.2700361087824251
93	0xbf9d9e37de954d2d	-0.028923867187882358
94	0xbfb3875aef0c65a3	-0.07628410659926614
95	0xbfb288069370799f	-0.07238808726876876
96	0x3f682dbc23b2c802	0.002951495609146982
97	0x3fb75aec3acf8b1f	0.09123112140472898
98	0xbfb1d67c9794e0df	-0.06967905712815846
99	0xbfd0bb4ac387f71f	-0.2614313992961445
100	0xbfdfc15d4caf6d47	-0.49617702950282133
101	0x3fcb304469af3ad7	0.21241049919486585
102	0xbf908b3a33553775	-0.016156110175237843
103	0xbfa0d950bf6c7eba	-0.03290798508373656
104	0xbf924925f4bac3d3	-0.01785716348848949
105	0xbfa61acfabdbc25f	-0.04317330334550173
106	0xbf7ccfb2032669e2	-0.007034011231008526
107	0xbf7146701e1f9f1c	-0.0042175654980167974
108	0xbfd017151f1eae4a	-0.2514088443665271
109	0xbfb166d3427e6596	-0.06797523854620233
110	0xbfaec31dd73f2db1	-0.06008237125896743
111	0x3fb143b37ec8c040	0.06743928761784534
112	0x3faebfd1a9838f78	0.06005721277486392
113	0xbfd850bb8dee639f	-0.37992752895802967
114	0xbfd0a5ae4f14a619	-0.26011235926361703
115	0x3fb07bd186b266a4	0.06438931978700652
116	0x3fbcad03a6d84857	0.11201498816834153
117	0x3faa978525302196	0.051937256612350755
118	0xbfb1cf3d6b0eb909	-0.06956848014553797
119	0x3fd79b8ea4589e63	0.3688694577162776
120	0x3fb60f6899392d66	0.0861726163940851
121	0xbfcd43a681dd65a2	-0.2286270269494653
122	0xbfcfa3bbb6acdc64	-0.24718424243630743
123	0xbfb3fc357846e24f	-0.07806715189406897
124	0xbfc6f49a0928f227	-0.17933965155852258
125	0xbfa8db291e03fb9b	-0.04854706279183248
126	0xbf74b326c2be747a	-0.005053664597565727
127	0xbfe7df37c67264a4	-0.7459982753672603
128	0xbfab5898aad9719c	-0.053410311561239626
129	0xbfac808b6d4f2162	-0.05566821774806631
130	0xbfa9111ee4f1eb9b	-0.04895874542940889
131	0xbfadbbaa7d43b700	-0.05807240275485803
132	0xbfbeb8ea4cd56a56	-0.12000908256360651
133	0xbfa8b7dfd14e3b93	-0.048277849483489586
134	0xbfdb117c5bac0955	-0.42294224693627785
135	0xbfad26f43bfc7ce9	-0.0569378207421723
136	0xbfa3628a74a93c0b	-0.037861181965688294
137	0xbfb208bb4a1518dc	-0.07044573362972834
138	0xbfa381430910be06	-0.03809556470548263
139	0x3fc0334cc6bb0151	0.12656554893147612
140	0xbfa9eec09309fe8e	-0.05064966006193315
141	0x3fb6ae258907b5dd	0.08859476657354244
142	0x3f7a7f54d9db7a84	0.006469088982810182
143	0xbfb2d17816768dd9	-0.07350874470153403
144	0x3fee4e6ea8660beb	0.9470742501292738
145	0xbf72967ab5117499	-0.004538039517766234
146	0xbfdb00203699e79f	-0.42188268024585257
147	0xbfd95e3b08844e72	-0.39637637931557557
148	0x3f92dece5aa6a3c1	0.018428062708753638
149	0x3fabe2883bb6d1e2	0.05446267823154806
150	0xbfc0718e5f1c6f36	-0.1284654583367854
151	0xbf81819057a5fb1e	-0.008547904658141866
152	0xbfcdaf1714d676b6	-0.23190582768886764
153	0xbfb55f2b37a64f02	-0.08348341091760506
154	0x3f8685d01226f2fb	0.010997415117225176
155	0xbfb6e8a39895fece	-0.08948729014627618
156	0x3fb1a7991f4f7a74	0.06896359457412321
157	0xbf821e9079f983e4	-0.008847359392520411
158	0xbfb690062ca4cd8e	-0.08813513364730438
159	0x3f978b797c774e15	0.022992990705303102
160	0x3fbae96b5350a33d	0.1051241949468364
161	0x3fb587ea99b62ecb	0.0841051697990977
162	0xbfcf752076f804c3	-0.24576192673706573
163	0x3f6b819eba6332bf	0.003357706084989281
164	0x3f9dd51a777b7ea7	0.029133237402560266
165	0xbfbf451ffd2ddec3	-0.12214851313717205
166	0xbf7ecd95d9d9cc5c	-0.007520280223263755
167	0xbfd4d52985b8bebf	-0.32551038798099435
168	0xbfbafb422e2f6896	-0.1053964007145701
169	0xbfabc80bf52676ac	-0.054260610271041315
170	0x3fad4337f0f450c6	0.05715346161210415
171	0x3fa1b489a7252e5f	0.03458051839205888
172	0x3ff1f023b83f1c9e	1.1211278149728865
173	0x3fb9378963f57bbb	0.09850367250827123
174	0x3fb29f25f2097bb2	0.07274090918643486
175	0x3f9e82ce8baaa3d0	0.02979586341340107
176	0xbfadb171d75d8cee	-0.0579944205662971
177	0xbf850c1e1b5029ed	-0.010277018745928646
178	0x3f9bbea48365fcde	0.027094431419297453
179	0x3fe9a713380de89b	0.8016449065028327
180	0xbfba515671091514	-0.10280361423163625
181	0xbfbe64cda797add2	-0.11872563687909768
182	0xbfc06d960be14573	-0.12834430294109786
183	0x3fbe6d428f736163	0.1188546753140876
184	0x3fc36db260c2d6e3	0.15178518032705943
185	0xbfb7c7a2513bbd3c	-0.09288992388950573
186	0xbf65ed9e01ff10d2	-0.00267678128145308
187	0x3fde71728134de30	0.4756742727072121
188	0x3fad98984f8c5b20	0.057804832182389854
189	0x3fd1e6b27f95f4a0	0.2797056432680822
190	0xbf9c47b8a2282a93	-0.02761734475829287
191	0x3fe194fca1fff63e	0.549436870962104
192	0x3fd2744ac6ff5093	0.2883479064305529
193	0x3fa7310b586fae61	0.04529605345291255
194	0x3f991bb27f3cbf33	0.024519719139049555
195	0x3f74c899fafd7cf2	0.00507412098508485
196	0xbfa07e9d428e8834	-0.03221599042377968
197	0x3fec367008340681	0.8816452179164146
198	0xbfbf4b63108eb12c	-0.12224406389458825
199	0x3fc97dcbc1d9b266	0.19915148702002056
200	0xbfc889df6ad727b4	-0.1917075416261561
201	0x3fd08a0916ac1f54	0.2584250184449861
202	0xbfb87aa5d3da4242	-0.09562145635778399
203	0xbf90d3c134dba401	-0.016432780123896155
204	0x3fb38bf7922fcee4	0.07635447806370227
205	0xbfa44f99b41e45d1	-0.039669802891818436
206	0xbfb8907979f74fdc	-0.09595450618445461
207	0x3f8ab20df376c52d	0.013034924499921796
208	0xbfbe593362cdd9a2	-0.11854859506806872
209	0x3fa088cad254287f	0.03229364221086061
210	0xbfb9d77d50f59744	-0.10094435907884952
211	0xbf33bfdfc5a987c9	-0.0003013535803458837
212	0xbfddc3695e339a47	-0.465051977151607
213	0xbfdf3c74209d5c9e	-0.488064796304977
214	0xbfc79b9efa6a0e73	-0.1844366762853614
215	0x3f8689a50964a7e6	0.011004723881871525
216	0xbfbb84f2f443e6b3	-0.10749739135271845
217	0xbf932f6d30925422	-0.01873560532529351
218	0xbfd4ef411bace315	-0.3271029253260605
219	0x3fd24d424e3bf799	0.28596551551879085
220	0xbfc87aa0a371b950	-0.19124229412723048
221	0xbfd0eae0f7d2e78b	-0.26433586312816065
222	0xbfc9d4c9027a8564	-0.2018061887838868
223	0x3fae9e07f31e323b	0.059799431254849066
224	0x3fedefe27abc67b4	0.9355327984987896
225	0xbfca12e2592b5244	-0.20370129922834412
226	0xbfa29413719c14bb	-0.036285979860659144
227	0xbfe0466d459990b3	-0.5085970267650936
228	0xbf8a11219a775b7a	-0.012727987791476759
229	0x3f7d13af4529c9f0	0.00709885086927152
230	0xbfc37477f4daf928	-0.1519918389876207
231	0xbfbe611126c5a795	-0.11866862484535397
232	0x3fb06033a7c019cd	0.06396792264431568
233	0x3fbcb6bae1dfc8b8	0.11216323866372846
234	0xbfdecd8dc9643c29	-0.4812960116113936
235	0xbfb10115e50be2eb	-0.0664228138156308
236	0xbfb3760e04a7f54d	-0.07602012265848153
237	0x3fa7b210313c58a1	0.04628038979551375
238	0xbfbe7a9c230eef86	-0.11905837875286637
239	0xbf802ce242189f9c	-0.00789810909471083
240	0xbf7b6edf44520be4	-0.006697532783735281
241	0xbf90a9739cf6762b	-0.0162714066078619
242	0x3f912bb3d789b129	0.016768274336230213
243	0x3fbfb2500d5aa34d	0.12381458593394008
244	0x400054194d51d8f9	2.0410638847926035
245	0xbfb5c8b1c2ce5906	-0.0850936031914423
246	0xbfdefec402ac593f	-0.4842996622186497
247	0xbfc8adee612a224b	-0.19280795807232418
248	0xbfd430a9b566f099	-0.3154701491837471
249	0xbfae751a80da1735	-0.05948717902087567
250	0x3f9fd7edaa306512	0.031097138893618377
251	0x3f74820d919d1a4e	0.005006840708864658
252	0xbfccc705bc706ff5	-0.22482368184216708
253	0x3fa169f579dd2e78	0.034011527181601886
254	0x3fb71eb5948aede7	0.09031233669787007
255	0xbfa9a6d6e02fc70e	-0.050101008287937274

onnx::MatMul_20 f8 [100, 61]
0	0xc014bf22f975ac8c	-5.1866568544456975
1	0xc00e69af36332504	-3.801603721080598
2	0x3ff5560139b103f1	1.3334972623417765
3	0xc021a0a564a39fd4	-8.813761849378274
4	0xc0209a06f31e8cbb	-8.300834271887984
5	0xc01fadb8382772d8	-7.919648053558113
6	0xbfeeda9bedafc178	-0.9641856806102131
7	0xbffd8d98fc592cb8	-1.8470697266919114
8	0xbfe052922f95f7e1	-0.5100794724855825
9	0xc02169a115019381	-8.706307083551794
10	0xc017d773220499d1	-5.960400134592832
11	0xc01e16b25aaee42b	-7.522164742397801
12	0xc00d7a3e2b3e9463	-3.684688890311507
13	0xc027dd50ec89996f	-11.932258025929256
14	0xc02233c14d6c8271	-9.101084155555528
15	0xc014b6ea996393b7	-5.178629299833964
16	0x3fcb4d5505caf59d	0.2132974890027243
17	0x3ff5548cc1629840	1.3331420473200666
18	0xbfd57159715dc631	-0.33504329749038947
19	0xc018155089ba9c7f	-6.020815040602542
20	0xc016fdf514dab4bc	-5.748005224083666
21	0xc0074d4dd403ede2	-2.9127461017321687
22	0xbfe326d57691bac2	-0.5984904590421467
23	0xc0204ae6c1388f5e	-8.146291769174862
24	0xc02dcb57be69af2f	-14.897153807068745
25	0xbfe395bd2087c7e6	-0.6120286593779809
26	0x3fb8121f20498fc0	0.09402651346459745
27	0x3fd833bcc9f4c0cc	0.37815780374786523
28	0xc008c9db6e76739e	-3.0985630636118477
29	0xc02008c3dc934eaa	-8.017119305593344
30	0xc0359fa778084aab	-21.623649122261366
31	0xc01fd2227491633c	-7.955209561704404
32	0xc011b034913b6cde	-4.422075528385191
33	0xc020a6d1aa003406	-8.325818359875495
34	0xc005bedb7096b212	-2.7181919857014316
35	0xc0272796811ecc49	-11.577320132264633
36	0xbfdb809a7997e931	-0.4297243297038618
37	0xc020760110a3ba7b	-8.230476875292188
38	0xc01cc2f6b94676a7	-7.190394301343679
39	0xc03a64862e07c7cb	-26.39267242135956
40	0xc01023ca99ff8149	-4.0349525510976685
41	0xc0305a271a0c84b4	-16.352159145408862
42	0xc018b59129cef04d	-6.177311566596541
43	0xc018dcd782d89c13	-6.2156658596714065
44	0x3fe7ed9bbd8a39e4	0.7477549268676822
45	0x3febd022d682d71d	0.8691572370214292
46	0x3fecc655e6f931aa	0.8992108832549566
47	0xc01cfb4a27c401f9	-7.245400067652093
48	0xc020559466124d14	-8.167147817358035
49	0xc0046d17d009e19d	-2.5532680752769026
50	0xbfc9018690794528	-0.19535905889873928
51	0xc01493d6c54ce439	-5.144373972719273
52	0xc022be82506eb090	-9.37208796836083
53	0x3ff1d15b7ec581bd	1.1136126472484726
54	0x3fee69fd7fe634e1	0.9504382608444325
55	0xc00de9f8c3501601	-3.739244008904962
56	0xc00660ec13356edd	-2.797325277393482
57	0xc01350f44fb6fad1	-4.82905697397537
58	0xc0080abe3f1697f2	-3.0052456787843704
59	0xc00eac07312386d3	-3.8339980925528407
60	0xc007a85c979e7187	-2.9572078557232007
61	0xbfc828578d6b3d21	-0.18873114018649864
62	0xbfe76877e9f91854	-0.7315024919305508
63	0xc008c190dd0d09de	-3.0945145864109085
64	0xc017bc52ab32d6a8	-5.933909106233536
65	0xc02484c7688752b7	-10.25933386470693
66	0xc021a756d7188d7c	-8.826834413287308
67	0xc030a12f6763c7fc	-16.629629575596468
68	0xbffd6751402edf46	-1.8377239710952877
69	0xc02635ca803b4d9b	-11.105060584296373
70	0xc0018c855e8de927	-2.1936137568528866
71	0xc0204e4e1b46c432	-8.152939655674434
72	0xbfe8c8fbe56e0b6f	-0.7745341759731285
73	0xbfd601ab558d7be2	-0.3438518844104107
74	0xc02b2807021a03d8	-13.57817846839491
75	0xc0202ffa20b429de	-8.093705198280926
76	0xc01c61cefabefdcd	-7.09551612654418
77	0xc025e3cb80181b52	-10.944911959593501
78	0xc000b0443782a37d	-2.0860676132910485
79	0xc00c8c0ea19fd276	-3.568387282075771
80	0xc02247a6ca15e7e2	-9.13994437711148
81	0xc01b8cbcb16c4b2f	-6.887438556894991
82	0xc01f472389f94d03	-7.819471507874598
83	0xbffa1a55f3dd0879	-1.631429627028892
84	0xc02f28cebd343fd6	-15.579702293994995
85	0xc016d664d6265569	-5.709369035806369
86	0xc004555f448f0c4e	-2.5416856151728444
87	0xbfe1f5c2ac54b224	-0.5612500539624006
88	0xbff0ccd5b94ce62e	-1.0500085104271295
89	0xc0295c61b47fcb0f	-12.680432930564647
90	0xc002d8bbdea9d729	-2.3558270831662367
91	0xbfd8ebf2fda0e611	-0.38940119522485
92	0xbfab4f6cd0003085	-0.05334034003325975
93	0xc02a1d0cec2d1445	-13.056739216330365
94	0xc0307c09baf863fb	-16.484523473398422
95	0xc01209bbaa1e8303	-4.509504945862093
96	0xbff3b18232e49dd9	-1.230837057877457
97	0xc010164cd78640f8	-4.021777503556443
98	0xbfe4a74af4d96e5d	-0.645421484204643
99	0xbfec83fc2b1cc80c	-0.8911114542045211
100	0xbfd1926c7d3d7753	-0.2745619986579772
101	0xbfce8e3e961d62db	-0.23871595697234835
102	0xc0262592c1e70866	-11.073385295345542
103	0xc02e5c01d4f2906b	-15.179701475725059
104	0xc01b608a84b3d34b	-6.844278405643148
105	0xc02825a8f999279a	-12.073554801889077
106	0xbfeed2e3e86a21c3	-0.9632434405657978
107	0xc0064e7a1622d2bf	-2.7883187989594655
108	0xc02a1411de63645a	-13.039198827393353
109	0xc02358394ff2a0bd	-9.672312258117353
110	0xc011a5c12260c61d	-4.411869561344727
111	0xc00111924d7dab78	-2.133579831502569
112	0xc028d0235f54a498	-12.406519869882956
113	0xc03413bce0a06d6a	-20.077100791136594
114	0xc02e745185066985	-15.227184445412385
115	0xbfd923d1eea12eb6	-0.3928112821929334
116	0xbfdbcd47f12d7d1d	-0.4344043593645937
117	0xc01bb5e828b93a74	-6.927643429093781
118	0xc024dafeb6eb4dc6	-10.42772456762658
119	0x3fb0845b29b74daf	0.06451959389169447
120	0xbfda6323aa76ca3f	-0.41230098387601183
121	0xc02821c6dc598f9b	-12.06597031205438
122	0xbfe04f4c05105a4e	-0.5096798037437311
123	0x3ff0de0a026f822a	1.0542087645664062
124	0xbfe390f4db2bb968	-0.611444881504025
125	0x3fe6c2ee63ecc86d	0.7112953139933446
126	0x3fe5ea9f54d33a96	0.684890428232239
127	0xbff580cb5b146b66	-1.3439439351847908
128	0xbfefb6bd12bb9335	-0.991056953990301
129	0x3fca74d79174acfa	0.20669073679287192
130	0xbfdd34620897f740	-0.456322201149181
131	0xbfd3943bcb015aae	-0.30592245888457625
132	0xbfbfc625211b21a7	-0.12411720331431884
133	0xbfe99e6e79886004	-0.8005897878347246
134	0x3fc14559cb517fbc	0.1349289171948821
135	0xbf95adc61713a90e	-0.02117070690011596
136	0xbfe0ceadef75defd	-0.5252294232331846
137	0xbfe84ceb9b8e805c	-0.75938969022901
138	0xbfe26e7c6fb200fb	-0.5759870702313771
139	0xbfd0c3c6f5ba4e60	-0.2619492911992207
140	0xbfb382d357fde672	-0.07621498964535947
141	0xbff1a7f85e76e5a1	-1.1035083475129357
142	0xbfe771ab3e051c2c	-0.7326255999877325
143	0xbfbcf2e4eee20f6e	-0.1130812724314276
144	0xbfe35b67e187ebd9	-0.604907932748911
145	0x3fc798dd14944958	0.18435252671094804
146	0xbfe2d34715e0d7fe	-0.5882907321272339
147	0xbfea3fb83454ba93	-0.8202782651986403
148	0xbfd2ff02fc24cacc	-0.29681467650804616
149	0xbfbeb4b7d773e5d3	-0.11994503984524067
150	0x3fd58b7a91df784d	0.33663810964015256
151	0x3fbdb9b31a47f617	0.11611480132702244
152	0xbfd5647e3c4a3386	-0.3342586125152639
153	0xbfe0268dffcdcea4	-0.5047063823862641
154	0xbfc21c40fd9aa88e	-0.14148723967565896
155	0xbfe6da01f9b092ec	-0.7141122700455447
156	0xbfe22a020675ae1d	-0.5676279188314229
157	0xbf687891d6773a95	-0.0029871796029746303
158	0xbfd1343038523d50	-0.2688103246700466
159	0x3fc9730811bc3653	0.1988229834172893
160	0x3fbd183c90f7b454	0.11365107096908506
161	0xbfd051c0bd9172a9	-0.25498980057254045
162	0xbfdc3ee0d0a83bb7	-0.4413377797763433
163	0xbfc82a6920995978	-0.18879427043675512
164	0xbfe3bec3807b9d09	-0.6170365819388347
165	0xbfdd8249f6391d91	-0.4610772041819127
166	0xbfd11cc3a56b219f	-0.26738063005589113
167	0xbfd088c34e15dcc6	-0.25834734559562056
168	0xbfdc193d0ae219d6	-0.4390404325753513
169	0xbfe23aa7401d0d88	-0.5696598293510968
170	0xbfe2418ef771c795	-0.5705027420901724
171	0xbf88bf38b9b5364d	-0.012083476226190682
172	0xbfce36f4a65aec97	-0.2360521137505642
173	0xbfdfd3b51e4d8f27	-0.4972965999534033
174	0xbfe15f65655caa33	-0.542895029041864
175	0xbfdc25bc1ccef5db	-0.43980315030407063
176	0xbfdb5c985bac5c98	-0.4275265593764259
177	0xbfc7677c2ea1a636	-0.1828456142132368
178	0xbfe636c36f7ba5ce	-0.6941849877741164
179	0xbfe36233a59f337f	-0.6057375178148589
180	0xbfd97cac5f3695c3	-0.39823445604482915
181	0xbfd55bb1376a43ff	-0.3337214509165846
182	0xbff0dc550efb0eda	-1.0537920556243336
183	0xbfa623e343acbe20	-0.04324255181415659
184	0x3fb424c6517494b4	0.07868613709122735
185	0xbfa4158e0b2c4cc4	-0.03922695051564909
186	0x3fb66e4e1b0b870e	0.08762062225607911
187	0xbf969190a5623671	-0.022039661497322564
188	0xbfc77df75126a7b5	-0.18353167974902154
189	0xbfb2c11ba94a0ec0	-0.07325909503020522
190	0xbfa7a0ee76d03dd5	-0.04614968490943353
191	0xbf96a699bd152033	-0.022119905629807767
192	0xbfbdf85d0fe0683f	-0.11707097661602094
193	0xbf7078eb90358dc4	-0.004021568459708861
194	0xbfc27b19a4757896	-0.14438171892374346
195	0xbfbec25cd8d3ab98	-0.12015323918937637
196	0xbfaaacec907d22d3	-0.05210055602817012
197	0xbfad5c7a8dc3c544	-0.057346181683792824
198	0x3f7603a57074de1b	0.0053745710823061245
199	0x3fa00769819bd487	0.03130655009400934
200	0xbf95c6f0a71ead2a	-0.021266708564934657
201	0xbfb556cd5e6c7448	-0.083355746796273
202	0xbfc0f653ff690669	-0.1325173375244504
203	0xbfc5f1342f70612f	-0.1714234573016795
204	0x3fa1e8ed95963615	0.03498022509584701
205	0xbfba8eb394e285ec	-0.10373995194324664
206	0x3faefea2eb18cc43	0.060536471556041714
207	0x3f2a14fd966c83f4	0.0001989898257415409
208	0xbfa431dbd9032cca	-0.039442892304202795
209	0xbfc86e484456cb06	-0.19086554848544085
210	0xbf99feeab8bb78b4	-0.0253864932300238
211	0xbf9cc87853c1fa8c	-0.028108482467809767
212	0x3fc15208141e2ed2	0.1353159044486945
213	0x3fab59fb06bf5c60	0.05342087228171333
214	0xbfb7f639dcf4ed24	-0.093600861019628
215	0xbf61586a44b52388	-0.0021173549227210854
216	0x3fb03f46d6a192ff	0.0634655260087804
217	0x3f89af2ae1eaf348	0.01254113676019987
218	0xbfa2ba4bb50ae1b4	-0.03657757363311323
219	0xbfab6693f292bf04	-0.0535169824228188
220	0xbf8714819d4ebb15	-0.01126958142580529
221	0xbfc14fb407311652	-0.13524484969291223
222	0xbfa0a3398303a5b1	-0.03249530529303558
223	0xbfa306f41cc76edf	-0.03716242648417078
224	0xbfc394090d85f2ae	-0.15295518074335263
225	0x3f90f98c83a1846f	0.01657695344363613
226	0xbfc4b5584a16237e	-0.16178420655731068
227	0xbfaa01376d863f19	-0.05079053127258088
228	0xbf924925a5ab3ed3	-0.017857158886555546
229	0xbfa110b761f9464d	-0.033330660543140135
230	0x3f94252353d4e1f9	0.01967292021910969
231	0x3fc41c05a535d780	0.15710516516599782
232	0xbfbce3aa2addaf7a	-0.1128488878873081
233	0xbfc7a7e15855dbea	-0.1848107987713939
234	0x3f6f8caf23601a52	0.0038512631099394757
235	0xbfa86f7a7fcc2364	-0.04772551355387725
236	0xbfb38997585764ad	-0.07631822497150394
237	0x3fb24aeab10d8cc8	0.07145563910084995
238	0x3f94b638e887ea8c	0.020226372902451703
239	0xbfad761b36388074	-0.05754170452951338
240	0xbfbb28c691c8e339	-0.10609093722531505
241	0xbfb3fe17862b08f8	-0.07809588456715122
242	0x3fa4181d11fccbda	0.03924647183011816
243	0x3f7c7d1947aa0ff7	0.00695524096466115
244	0xbfcdb66e52ebe288	-0.23212985085389826
245	0xbfcdb6942941a3d4	-0.23213436140511468
246	0xbfc86165b528e4be	-0.19047232957544752
247	0xbfae0f577dac4206	-0.05871079835026553
248	0xbfbd721e4e189422	-0.11502255827561261
249	0xbf96a4e28c40a20b	-0.022113361177760676
250	0xbfdc91aaa9a45b27	-0.44639078680613625
251	0xbfc06d8a92d79eee	-0.12834293527634294
252	0xbfdff3af9ef7da58	-0.4992484142707432
253	0xbfd369d7eabcf822	-0.3033351700177055
254	0xbfc222a8465024af	-0.14168265755896445
255	0xbfcb805ce2131fa1	-0.21485482252887514
