web/public/onnx_model_20230209.onnx (onnx, 71615 bytes, 4 tensors)

fc1.bias f4 [96]
0	0xbd993e3f	-0.074825756
1	0xbf57bbfd	-0.8427122
2	0x3c952496	0.018205922
3	0xbdc49dbb	-0.09600397
4	0xbde45470	-0.11148918
5	0xbdd46661	-0.1037109
6	0xbc9cedf4	-0.019156434
7	0xbdade5be	-0.084910855
8	0xbda2f87a	-0.079575494
9	0xbd12e33a	-0.03586123
10	0xbda086ea	-0.07838233
11	0xbd3eb68d	-0.046560813
12	0xc00f28b2	-2.2368588
13	0xbf14282e	-0.5787381
14	0x3c964b0d	0.018346334
15	0x3cbb08bc	0.022831313
16	0xbdd82397	-0.10553663
17	0xbd235a1a	-0.03988085
18	0xbccee706	-0.025256645
19	0xbe1d416f	-0.15356992
20	0x3d0cc734	0.034369662
21	0xbdd146fe	-0.10218619
22	0xbd84df2d	-0.0648788
23	0xbe060fd7	-0.1309198
24	0xbdeb5e21	-0.11492563
25	0xbc5ae99e	-0.013361363
26	0xbe0de6f5	-0.13857634
27	0xbe099514	-0.13435775
28	0xbdfd9344	-0.12381604
29	0xbd983221	-0.07431436
30	0xbfd8bda5	-1.6932875
31	0x3db32251	0.0874678
32	0xbcfd9e64	-0.030959316
33	0xbb6bf466	-0.0036003827
34	0xbc520439	-0.01281839
35	0xbe1b8d26	-0.15190563
36	0xbb8d5681	-0.0043132906
37	0xbdd4d9ae	-0.103930816
38	0x3cdd24c6	0.026995074
39	0x3d2efd4d	0.042722035
40	0xbd81dd76	-0.063410684
41	0x3ccae837	0.024768932
42	0xbd66261e	-0.056188695
43	0xbd011957	-0.031518307
44	0xbe2a423f	-0.16626833
45	0xbc5a5d89	-0.013327965
46	0x3c9f179c	0.019420438
47	0xbda8d90b	-0.08244523
48	0xbe0aab2f	-0.13541864
49	0x3d3ee849	0.046608243
50	0x3ea0e828	0.3142712
51	0x3d4dad9a	0.050214387
52	0xbd8a93f0	-0.06766498
53	0xbdfb242f	-0.12262761
54	0xbd9f7fc8	-0.07788044
55	0xbf427f80	-0.759758
56	0xbb049ac1	-0.0020233842
57	0xbd822388	-0.06354433
58	0xbd9edd9e	-0.07757114
59	0xbcf5c812	-0.030002628
60	0xbd8a73ff	-0.06760406
61	0xbdc17b23	-0.094473146
62	0xbbb933b4	-0.0056519154
63	0xbe0fd867	-0.14047395
64	0xbd16e79e	-0.03684198
65	0xbdea5bae	-0.11443268
66	0x3d0d671c	0.03452216
67	0xbdbf1546	-0.093302295
68	0xbead00f8	-0.33789802
69	0xbe04c13c	-0.12964338
70	0xbdff6a65	-0.12471465
71	0xbd925627	-0.071453385
72	0xbd103263	-0.035204303
73	0xbd86579d	-0.0655968
74	0x3daa44c8	0.083139
75	0x3baf9be1	0.0053591584
76	0xbd098547	-0.03357437
77	0xc0119a8c	-2.2750578
78	0xbda605d8	-0.08106583
79	0xbcfd0a30	-0.030888647
80	0xbd94e148	-0.072695315
81	0x3d7a6c0c	0.061138198
82	0xbde6266a	-0.11237796
83	0xbdc83390	-0.0977546
84	0xbde9b111	-0.11410726
85	0xbd887314	-0.066625744
86	0xbce84c75	-0.02835677
87	0xbdbc01f5	-0.09180061
88	0xbe145f4f	-0.14489482
89	0xbddf6105	-0.10907177
90	0xbde72afd	-0.11287496
91	0xbcf16b45	-0.029470095
92	0x3dab0a46	0.08351569
93	0xbd8e1cd8	-0.06939095
94	0xbdabd84c	-0.08390865
95	0xbdb11df9	-0.08648295

fc2.bias f4 [7]
0	0xc006e5e3	-2.1077812
1	0x3deef40c	0.11667642
2	0xbfafdca5	-1.373921
3	0xbfb131d0	-1.3843327
4	0x3e0a02dc	0.13477653
5	0xc09df472	-4.9360895
6	0x410880b4	8.531422

onnx::MatMul_12 f4 [138, 96]
0	0xbe066c5f	-0.13127278
1	0xbe21d1fb	-0.15802757
2	0x3e86dcf3	0.26340446
3	0x3e0c7c87	0.13719378
4	0x3d65ce1e	0.05610477
5	0xbccd216f	-0.025040356
6	0xbc03013d	-0.007995901
7	0x3d84efc5	0.06491045
8	0x3cfcebef	0.03087422
9	0xbcddbbf5	-0.027067164
10	0xbb62c8b8	-0.00346045
11	0xbdd63399	-0.1045906
12	0x3e79c461	0.24391319
13	0xbe146bc0	-0.14494228
14	0xbd8b68a9	-0.06807072
15	0xbd6f3129	-0.058396492
16	0x3dc20ea7	0.09475451
17	0x3d93b1f4	0.07211676
18	0x3ddcd2b8	0.10782379
19	0xbd34127b	-0.043962937
20	0xbd63493d	-0.055489767
21	0x3dcf1557	0.10111492
22	0x3d172694	0.036902025
23	0x3d848a29	0.064716645
24	0x3e18bc44	0.14915568
25	0x3d6a4a24	0.057199612
26	0x3e069602	0.13143161
27	0x3de80e7b	0.11330887
28	0x3db0019f	0.08594059
29	0x3d95356f	0.07285582
30	0x3efba4e7	0.49149248
31	0xbd8f8c77	-0.070092134
32	0xbd17406c	-0.03692667
33	0x3dc711d5	0.09720198
34	0xbd2d1235	-0.04225369
35	0x3d5d8026	0.05407729
36	0x3d9a75c3	0.075419925
37	0xbd3721cc	-0.044709966
38	0xbbe6fd4d	-0.007049239
39	0xbbb18186	-0.0054170517
40	0x3d19e8f6	0.037575684
41	0xbcdd388f	-0.027004508
42	0xbd8f7499	-0.07004661
43	0x3e11b982	0.14230922
44	0xbd2dbb55	-0.042414982
45	0x3bc571c1	0.0060255234
46	0x3df449f2	0.119281664
47	0xbd60ce77	-0.0548844
48	0xbb64e869	-0.0034928566
49	0xbcdeba2c	-0.027188383
50	0x40b93b5e	5.788497
51	0x3f86dca9	1.053609
52	0xbcb1bbc8	-0.021695986
53	0xbe279860	-0.1636672
54	0xbcfc39e6	-0.030789327
55	0xbcd7dd5c	-0.02635067
56	0x3c84e165	0.016220758
57	0x3d84c862	0.064835325
58	0x3c297f7c	0.010345336
59	0xbcf31eac	-0.029677711
60	0x3cfce544	0.030871041
61	0x3d3febf1	0.04685587
62	0x3d4a56ac	0.049399063
63	0x3d5a3c30	0.053280056
64	0x3db78d59	0.08962507
65	0x3d8815bd	0.06644771
66	0x3d5aa7b4	0.05338259
67	0x3d8db4ed	0.069192745
68	0xbdbd2991	-0.09236444
69	0x3dc8b4c3	0.098001026
70	0x3c2bf186	0.010494595
71	0x3da5bac4	0.08092263
72	0x3e0b36f9	0.13595189
73	0x3e0b7150	0.13617444
74	0x3d43f484	0.04784061
75	0x3ba3e85a	0.0050020637
76	0xbd7c9891	-0.061668936
77	0x3e8914da	0.2677372
78	0x3d69bd22	0.057065137
79	0x3dd3ca1f	0.10341286
80	0x3acfef68	0.0015864195
81	0x3d562a2b	0.05228631
82	0xbca9e38a	-0.020738382
83	0x3facbc92	1.3495047
84	0xbd440f03	-0.04786588
85	0x3cd4b611	0.025965722
86	0x3d83915a	0.06424208
87	0x3db71e71	0.08941353
88	0x3b118c90	0.0022209026
89	0x3dc2f159	0.0951869
90	0x3d9c55f7	0.07633584
91	0x3cd8ec63	0.026479905
92	0xc052e86b	-3.2954357
93	0x3dcafe85	0.09911827
94	0x3d8e90b3	0.06961193
95	0xbc1948c6	-0.009355729
96	0xbdb2f1fb	-0.0873756
97	0xbefcc71c	-0.49370658
98	0x3d9c330e	0.076269254
99	0x3d5cca3b	0.0539038
100	0xbc4d9d3e	-0.0125496965
101	0x3c9b3289	0.018944995
102	0x3dac71fb	0.084201775
103	0x3d9d47df	0.07679724
104	0xbd95146a	-0.07279284
105	0x3d1da9fa	0.03849218
106	0x3cbf4dec	0.023352586
107	0x3cd2f943	0.025753623
108	0xbf228b98	-0.63494253
109	0xbdee86c2	-0.11646797
110	0x3bfb8073	0.0076752244
111	0x3d7ea1fb	0.062166195
112	0x3d009ac1	0.031397585
113	0xbc66deee	-0.0140912365
114	0x3c673ab1	0.014113114
115	0x3bc4fe36	0.0060117496
116	0xbd87b938	-0.066271245
117	0x3d37a8a2	0.044838555
118	0xbd86a866	-0.06575088
119	0xbd34e52d	-0.04416387
120	0x3dfbd691	0.12296785
121	0x3cfc9b17	0.030835671
122	0x3d2576f7	0.040396657
123	0x3d9a517f	0.075350754
124	0xbcbcacbb	-0.023031583
125	0x3d53e897	0.051735487
126	0xbf5a363c	-0.85239005
127	0xbe10c3a6	-0.14137134
128	0x3d62541f	0.055256005
129	0x3cd67a98	0.026181504
130	0xbcdb5e51	-0.026778372
131	0x3db11855	0.08647219
132	0x3de83366	0.113379285
133	0x3d64492f	0.055733856
134	0x3c42f1c4	0.011898462
135	0xbd3c9d5e	-0.046048515
136	0xbd920f36	-0.071318075
137	0xbe1bfb05	-0.15232475
138	0xbac2e00f	-0.00148678
139	0x3dde62d9	0.108586974
140	0xbda12426	-0.07868223
141	0x3e0c8e2e	0.13726112
142	0xbda994b9	-0.0828032
143	0x3ba2a916	0.0049640043
144	0xbd8d4213	-0.06897368
145	0x3c0bc818	0.008531593
146	0x401e4687	2.4730546
147	0xbd545c29	-0.051845703
148	0x3d8cccac	0.068749756
149	0xbddb93e8	-0.1072157
150	0x3c914295	0.017731944
151	0xbed62062	-0.4182158
152	0x3d680546	0.056645654
153	0xbd3eab10	-0.046549857
154	0x3d8c074c	0.06837329
155	0xbd248839	-0.040168975
156	0x3da79ca6	0.08184175
157	0x3cd9d919	0.026592778
158	0xbd9041d9	-0.070438094
159	0x3bc25ec0	0.0059317052
160	0xbd099bfa	-0.033596016
161	0xbd98ee8f	-0.074673764
162	0x3d04b316	0.032397352
163	0x3e0ba7c2	0.13638213
164	0xbd9be05c	-0.076111525
165	0xbc3ec447	-0.011643476
166	0x3cfc5aed	0.030805076
167	0x3dbf321b	0.09335729
168	0x3d2d8754	0.042365387
169	0x3b963721	0.0045842086
170	0xbcd1ff16	-0.02563433
171	0x3c272e91	0.010203973
172	0x3d595891	0.05306298
173	0xbfd7e858	-1.6867781
174	0xbda59afe	-0.08086203
175	0x3d57490e	0.052559905
176	0x3d369f8a	0.044585742
177	0x3d43e8d0	0.04782945
178	0x3da42475	0.08014766
179	0x3f43f731	0.7654906
180	0xbd8c6bca	-0.06856497
181	0x3ddd549d	0.10807154
182	0x3d565399	0.05232582
183	0xbc91103c	-0.017707936
184	0x3d8416b2	0.06449641
185	0x3c60d5b3	0.013722825
186	0x3d1b67ff	0.037940975
187	0x3dd00cd9	0.101587005
188	0x3fb3d1fa	1.4048455
189	0x3bce6bd9	0.0062994775
190	0x3d03b5dd	0.03215586
191	0x3dc38eff	0.09548759
192	0x3e0339a7	0.12814961
193	0xbce3908a	-0.027778883
194	0x3d4ae111	0.049531046
195	0xbb552caf	-0.0032527854
196	0x3c6ed0fc	0.014576193
197	0x3d02e174	0.03195329
198	0x3d25b10d	0.040452052
199	0xbda3094d	-0.07960758
200	0x3d927ab7	0.07152312
201	0x3cda5bf9	0.026655184
202	0x3e07084f	0.13186763
203	0x3e015007	0.12628184
204	0x3ec17d24	0.37790787
205	0xbd78cc88	-0.06074193
206	0x3cf65868	0.030071452
207	0xbd55cee2	-0.052199252
208	0x3d81afa4	0.06332329
209	0x3d08c765	0.033393282
210	0x3e1ad78c	0.15121287
211	0x3de1dee9	0.11028845
212	0x3c95339b	0.018213084
213	0x3df7b949	0.12095887
214	0x3bf90dab	0.0076005063
215	0x3dd40819	0.10353107
216	0x3dc19ec8	0.09454113
217	0x3deb6f3f	0.11495828
218	0x3a15b28c	0.00057105045
219	0x3dae2bd7	0.085044555
220	0x3d8b4160	0.06799579
221	0xbcbbc4a1	-0.022920908
222	0x3eb61ea9	0.35570267
223	0xbdffb13a	-0.12484975
224	0x3c7e01ed	0.015503389
225	0x3dd86ad9	0.105672546
226	0x3d021c4a	0.03176526
227	0x3d28ea06	0.041238807
228	0x3d57dba7	0.05269971
229	0x3db6704f	0.0890814
230	0x3c48dd4d	0.0122597935
231	0xbd8483ad	-0.06470428
232	0x3ab72c51	0.0013974999
233	0xbd3d0776	-0.046149693
234	0x3d1ec2cc	0.03875999
235	0x3e1120fd	0.1417274
236	0x3dd2ad9a	0.10287018
237	0x3da296a4	0.07938889
238	0x3d10fc97	0.03539714
239	0xbd631796	-0.055442415
240	0x3cd1e818	0.025623366
241	0x3c7466d6	0.014917096
242	0x40fc8918	7.891735
243	0xbe0c2534	-0.13686067
244	0x3d90417a	0.07043739
245	0x3e21175f	0.15731572
246	0x3e153017	0.14569126
247	0xbc0f2684	-0.00873721
248	0x3dc2a653	0.0950438
249	0xbd200a62	-0.0390724
250	0x3d31a1c1	0.04336715
251	0xbd0a6b1b	-0.03379355
252	0xbcfb06c6	-0.030642878
253	0x3e035fc8	0.12829506
254	0x3dcf8f5d	0.10134766
255	0x3db6d838	0.08927959

onnx::MatMul_13 f4 [96, 7]
0	0xbccb8dd3	-0.0248479
1	0x3c1eb589	0.009686836
2	0xbd58b3d0	-0.052905858
3	0xba7fd5ff	-0.0009759366
4	0xbc3da6c3	-0.011575404
5	0xbcfb104c	-0.03064742
6	0xbe0a0b5d	-0.13480897
7	0xbe0e392e	-0.13889
8	0xbe29bcd3	-0.16575937
9	0xbdea2945	-0.11433653
10	0xbe0fae9b	-0.1403145
11	0x3cbc4b14	0.022985019
12	0xbdaf9454	-0.08573213
13	0x3e8a2da2	0.2698794
14	0x3cf1a7ce	0.02949896
15	0x3d0be008	0.0341492
16	0x3d8f4057	0.06994694
17	0x3daa5597	0.08317106
18	0xbda2a2aa	-0.07941182
19	0xbd65204f	-0.055939015
20	0xbe0ee027	-0.13952695
21	0xbe1def89	-0.15423407
22	0x3c37db35	0.011221697
23	0x3c15ab38	0.00913506
24	0x3c2f2196	0.01068916
25	0x3a6918c5	0.00088919356
26	0xbdbd7d35	-0.09252397
27	0xbcd2ccac	-0.02573236
28	0x3d3c3433	0.04594822
29	0x3dc2f4a1	0.095193155
30	0xbd8931ba	-0.06698938
31	0xbd79bdd3	-0.060972046
32	0xbd9cf58b	-0.07664021
33	0x3c950860	0.01819247
34	0xbcfdcfff	-0.03098297
35	0xbd3efe0f	-0.046629008
36	0xbcc27e14	-0.02374176
37	0x3d39f7a3	0.04540218
38	0x3db81d19	0.08989925
39	0xbd74404f	-0.059631642
40	0xbcca4d97	-0.0246952
41	0x3d46fcc7	0.04858091
42	0xbdb4d99d	-0.08830569
43	0xbdb2714d	-0.08713017
44	0x3c9e629f	0.019334136
45	0x3ca8d29e	0.020608243
46	0xbd1320d4	-0.03591998
47	0x3b4895f5	0.003060696
48	0xbe0d3417	-0.13789402
49	0xbdcf2428	-0.10114318
50	0xbcd90493	-0.026491439
51	0x3d6a5a11	0.0572148
52	0x3d5e6980	0.05429983
53	0xbd6bf975	-0.057610948
54	0xbd0fb5df	-0.035085555
55	0xbd13fba5	-0.03612866
56	0xbbdbbca7	-0.0067058387
57	0x3d591c60	0.053005576
58	0x3d2a1eb6	0.041533194
59	0x3cdd2ef8	0.026999936
60	0xbd2c96ee	-0.042136125
61	0xbd79a5cf	-0.060949143
62	0xbc4431e2	-0.011974784
63	0x3da6702e	0.08126865
64	0xbb4b649a	-0.0031035305
65	0x3c2e6f7a	0.010646695
66	0x3d468100	0.048462868
67	0x3d77581e	0.06038677
68	0xbcb6938f	-0.022287158
69	0xbd08f869	-0.033440027
70	0xbd1eead4	-0.03879817
71	0x3c4cc2e3	0.0124976365
72	0x3cefb72a	0.029262144
73	0xbd64f669	-0.055899058
74	0xbc3f8985	-0.011690502
75	0xbda54b42	-0.08070995
76	0xbdebcdc6	-0.115138575
77	0xbd9a2859	-0.07527227
78	0x3d084c37	0.03327581
79	0xbd831d65	-0.06402091
80	0x3cc85309	0.024453657
81	0xbc91c194	-0.0177925
82	0xbd1994d5	-0.037495453
83	0xbdb9afa0	-0.09066701
84	0xbe5fb5a0	-0.21846628
85	0x3eb8aa38	0.36067367
86	0x3e8a4ed7	0.27013275
87	0xbe117d0a	-0.14207855
88	0xbe421a8f	-0.18955444
89	0xbec60215	-0.38673463
90	0x3da4cc3b	0.08046766
91	0xbd3d94c7	-0.046284463
92	0x3c01a152	0.007911997
93	0xbc5a475f	-0.01332268
94	0xbe176157	-0.14783226
95	0xbdbf9d0e	-0.09356128
96	0xbe59d4e0	-0.21272612
97	0x3eabd935	0.33564153
98	0x3d9589d0	0.07301676
99	0xbd89f86a	-0.06736834
100	0x3c37d8f5	0.01122116
101	0x3d7ef3c1	0.06224418
102	0xbdc64c3b	-0.096825086
103	0xbc86ca3e	-0.016453858
104	0x3d982aaa	0.074300125
105	0xbc82bbca	-0.015958685
106	0xbcbe609b	-0.023239424
107	0xbd7a880d	-0.061164904
108	0xbb3ea510	-0.0029090084
109	0x3cca931e	0.024728354
110	0x3bfde4b4	0.007748211
111	0xbcaee73f	-0.021350501
112	0x3ca75c44	0.020429738
113	0xbd10d246	-0.035356782
114	0xbd927c37	-0.07152598
115	0x3ab3c781	0.0013716073
116	0xbdc0bf9f	-0.09411549
117	0xbb55ecc3	-0.0032642342
118	0xbb57f719	-0.0032953678
119	0x3d2d5fb7	0.04232761
120	0x3c19a7fb	0.009378429
121	0xbcc90a6d	-0.024541104
122	0xbd3ebd3f	-0.046567198
123	0xbd016527	-0.031590607
124	0xbb940d54	-0.0045181904
125	0xbbd881a7	-0.0066072526
126	0x3d4d78d2	0.05016405
127	0x3d228f73	0.039687585
128	0xbca34ee8	-0.019935086
129	0x3d8c96d5	0.068647064
130	0x3be65971	0.007029705
131	0xbd91a014	-0.071106106
132	0xbda3c2ee	-0.07996164
133	0x3dd7388c	0.10508832
134	0x3f00375a	0.5008446
135	0x3ed53c57	0.41647598
136	0xbff132e5	-1.8843657
137	0xc039abb2	-2.9011045
138	0xc080eeae	-4.0291357
139	0x3efa99dc	0.4894551
140	0x3dc1ab02	0.09456445
141	0x3cc2502a	0.023719866
142	0xbda08348	-0.0783754
143	0x3d8870bb	0.06662127
144	0x3cc0581b	0.023479512
145	0xbd2a4c26	-0.041576527
146	0xbbb05f24	-0.0053824354
147	0x3e04933b	0.12946789
148	0x3d6df70e	0.058096938
149	0x3d9c2112	0.07623495
150	0x3c99f9f6	0.018795948
151	0xbd312998	-0.043252558
152	0xbddd2f3c	-0.10800025
153	0xbdb59119	-0.08865566
154	0xbdae260e	-0.08503352
155	0x3b1cafd3	0.002390851
156	0xbca2feb4	-0.019896843
157	0x3d685493	0.05672128
158	0x3c8523fd	0.016252512
159	0x3d861f32	0.06548919
160	0x3d82abe4	0.06380442
161	0x3d7f7262	0.062364943
162	0x3be9a83b	0.0071306503
163	0xbaf39449	-0.0018583621
164	0x3d64f59b	0.05589829
165	0xbcd83b15	-0.02639536
166	0xbe29a8c5	-0.16568287
167	0xbe129a03	-0.14316563
168	0xbd403d2f	-0.04693335
169	0x3d937d2c	0.07201609
170	0x3d887508	0.06662947
171	0xbe0aaa06	-0.13541421
172	0xbd1e8b7d	-0.038707245
173	0x3c1d0192	0.009582894
174	0x3d58082b	0.052742165
175	0xbdb3870a	-0.08765991
176	0xbc8208c4	-0.01587332
177	0xbdbd0f6a	-0.092314556
178	0xbdb0a19e	-0.08624576
179	0xbc45bebf	-0.012069403
180	0xbd2a3687	-0.041555908
181	0xbc3df7e4	-0.011594746
182	0xbdd34c2c	-0.10317263
183	0x3ca21a62	0.01978797
184	0xbdae02af	-0.084966056
185	0xbd44fab9	-0.04809067
186	0x3d49300b	0.049118083
187	0x3ce1bceb	0.027555903
188	0xbc83db46	-0.016095769
189	0xbd8df9ad	-0.069323875
190	0xbc129352	-0.008946257
191	0xbe0723ce	-0.13197252
192	0xbe035cb2	-0.12828329
193	0xbdb8109b	-0.08987542
194	0xbcb9e0ec	-0.022690259
195	0x3d9ce922	0.07661654
196	0xbd2f71a1	-0.042832974
197	0x3c9f2987	0.019428981
198	0xbdbb9b86	-0.09160523
199	0x3d1f419c	0.03888093
200	0x3d888f84	0.066679984
201	0xbdd3aa38	-0.10335201
202	0xbdefbdac	-0.11706099
203	0x3d3751f4	0.04475589
204	0xbc1d096f	-0.009584769
205	0x3d83268a	0.06403835
206	0xbba54fd6	-0.0050449176
207	0xbc1f0110	-0.009704843
208	0x3d7be72f	0.06149977
209	0x3cec4ed9	0.028846191
210	0xbdec4db4	-0.11538258
211	0xbed9e8bb	-0.42560372
212	0xbe4ea2cb	-0.20179288
213	0xbcdbfed8	-0.026854917
214	0x3cf51351	0.029916437
215	0x3ec811bb	0.39076027
216	0x3f2ef3d8	0.68340826
217	0x3f2a97ba	0.66637766
218	0xc06175f3	-3.522824
219	0x3ffc6a5a	1.9719956
220	0x3f0734ae	0.5281476
221	0xc051a584	-3.2757273
222	0x3fbd2a0c	1.4778457
223	0xc0530ea8	-3.2977695
224	0x3c95e7a6	0.018298935
225	0x3d7554f6	0.05989548
226	0x3d3d0be7	0.04615393
227	0xbd34bbde	-0.044124477
228	0x3c38db01	0.011282683
229	0xbd8745d1	-0.06605113
230	0x3992c5e4	0.0002799473
231	0xbcebbccf	-0.028776554
232	0x3de0973a	0.10966344
233	0xbd091075	-0.03346296
234	0x3b6ea5f3	0.0036414831
235	0xbc567cea	-0.013091305
236	0xbdf758cc	-0.120774835
237	0xbcc6b884	-0.024257906
238	0xbbd7f909	-0.0065909666
239	0x3db21b08	0.08696562
240	0x3b8c0055	0.0042725005
241	0xbd83bfc7	-0.06433063
242	0xbbb31173	-0.0054647266
243	0x3ca4b6cb	0.020106694
244	0xbca0d5b7	-0.019633157
245	0xbe377f80	-0.17919731
246	0x3d9374f4	0.072000414
247	0xbda43443	-0.08017781
248	0xbd81609b	-0.06317254
249	0xbb3fff3c	-0.0029296419
250	0xbd6d2cb3	-0.057903957
251	0x3d9eaf3d	0.07748268
252	0xbd3f9202	-0.046770103
253	0x3e0bb14e	0.13641855
254	0xbe0d201f	-0.13781784
255	0xbd72e452	-0.059299774
