web/public/onnx_model.onnx (onnx, 180373 bytes, 4 tensors)

fc1.bias f8 [96]
00000000: f301 203a e43c dbbf 26a1 4b19 6c3d d5bf
00000010: f4e4 771b 2249 cfbf b4e5 80e3 7e97 debf
00000020: 64a6 5fa9 a8c9 c6bf a35d 2d5b 05dd f1bf
00000030: a9d7 ddef 89c0 c3bf 84d6 4f32 03e6 d23f
00000040: fd37 f769 dc12 cbbf 6622 213b cee3 d5bf
00000050: d34f bcff 523c f03f c9c1 767b b219 c9bf
00000060: c860 44b6 336f e1bf 39c7 03ed 7594 eabf
00000070: 747b 2342 1e8a e4bf afb9 4fa3 db3d b6bf
00000080: 5c9f 1691 3f21 c5bf 1ced 5e32 7beb e33f
00000090: f6a4 4c87 7f2f c5bf a34b 2944 9f98 b43f
000000a0: f650 1dd5 248c d4bf 5c8f f547 baaf debf
000000b0: 8328 40aa 8003 d3bf 5cb4 0eb2 40a1 b4bf
000000c0: 9add efb6 e58a d5bf 5945 dacd 24f9 bfbf
000000d0: f0c8 1c90 f1c8 d53f 39bf b8d6 7029 efbf
000000e0: acc7 5e35 18f3 e1bf 8977 9a1b c8c6 d6bf
000000f0: 8ff1 a65b 4931 c6bf dd8b 23eb e028 dabf
00000100: 8d27 879e 1ddd b0bf 427c 43ae 7b48 c0bf
00000110: 6cd0 cf4e bc4c cdbf 6441 93ac c73c e4bf
00000120: 93e3 d466 611f cebf 3995 891e 9335 bebf
00000130: cde0 7e2a 034e b3bf b2ec 1b96 51ac c8bf
00000140: 7633 4aac 3a92 ccbf 7223 9eab b1f3 d6bf
00000150: cc88 5701 19bc 1f40 3fd0 407f ccb7 c2bf
00000160: 616e 5dcc da81 e13f ccd5 994a b97c debf
00000170: c45f bb4c 969b e0bf d64b 7a81 e3e6 edbf
00000180: 3fbc 6b7b 2a3a ccbf 638d 37e2 80e1 b8bf
00000190: 8a01 f546 8ca9 c7bf a1f5 07b4 6ec6 e2bf
000001a0: 8b7c 8c9f 53b4 d1bf 2412 8783 0cfa c33f
000001b0: 0d42 96b2 ea91 c2bf 1e68 344d 428b d3bf
000001c0: 112d e2fe 60ec e6bf 82b0 6959 f439 09c0
000001d0: bc23 dff6 d39a e0bf fb95 a20c 5b27 d5bf
000001e0: 19ab 4298 7e64 c9bf 00ac 2eba 9bfa c4bf
000001f0: 4915 403d 86b5 bbbf e9e9 5919 13c3 e2bf
00000200: 3063 c748 6e0f d8bf 9f31 dd81 f554 aa3f
00000210: a06e 6ea4 9a64 dfbf 233e f3e8 7d34 e73f
00000220: 5e17 3bd3 c0a4 c3bf 3e5a c9f4 56ce f4bf
00000230: fd8c c06b 37cb afbf b175 7759 9c12 e2bf
00000240: f99f f4b3 fb8f c4bf 86c4 fb2e 8957 c8bf
00000250: 0809 99f0 35c5 cfbf f108 70bf 62fb e4bf
00000260: fdde b098 492c e7bf 5b93 614c cc82 d9bf
00000270: f1c9 f36c 746f c5bf 7b7c 0f24 af49 a7bf
00000280: a900 8455 3ae5 d8bf a2b0 cef1 d4d0 ccbf
00000290: 888e e3cf c1b7 e4bf 174f 20fc f705 d5bf
000002a0: 4cfe 48a1 903a a5bf 284e f6b9 6524 c3bf
000002b0: f44d 7fd8 81b2 d2bf 9b48 c129 c343 c0bf
000002c0: 61fb 2afd d6f0 debf 68f1 9c0c 1703 e0bf
000002d0: 9fb8 8f46 d0e8 b93f b914 3545 bf69 babf
000002e0: c16d 3d2e f080 a4bf 8432 a18a f0fc dcbf
000002f0: 9f56 d6ab c051 cabf 32a3 5b15 de8e c1bf
-0.4255915229441875 -0.3318739172959958 -0.24441934910991103 -0.4779965612138668 -0.17802913923451336 -1.116460186158158 -0.15431331836924514 0.2952888480498148
-0.21151309179407454 -0.34202914976461896 1.014727591483269 -0.19609671619902105 -0.5448244628815013 -0.8306226376719003 -0.6418601314324932 -0.08688137757392299
-0.16507715782540344 0.6224952682308955 -0.16551202875533705 0.08045382894606105 -0.32105370342220796 -0.47947556521670776 -0.29708878160511903 -0.08058552119355639
-0.3366026197904489 -0.12489538217257258 0.3403896243427331 -0.9738086885244918 -0.5609246294391048 -0.35588267036097726 -0.17337910628510797 -0.4087450310018406
-0.06587395782767498 -0.12721200951543393 -0.2289042839835277 -0.6324194307908724 -0.2353326561076555 -0.11800498481314471 -0.07540912425509134 -0.19275874928994124
-0.22321256077375623 -0.3586239028887156 7.933689137427972 -0.14623409474882185 0.5471014014723999 -0.4763625362896533 -0.5189925669355877 -0.9344346550809586
-0.2205250837937189 -0.09719090960384373 -0.18486169304561556 -0.5867227092964421 -0.2766312654584417 0.1560683862900457 -0.14507802696290675 -0.30537469424746344
-0.7163548448747027 -3.153298090494048 -0.5188999005996418 -0.33052707895180305 -0.1983793490847681 -0.16389795866902546 -0.10823859210366495 -0.5863128180638429
-0.37594182116804387 0.05142943582777381 -0.4905153852248336 0.7251576947982737 -0.15346536935811178 -1.3003758966421084 -0.062097293761576446 -0.5647718188662819
-0.16064401900189276 -0.1901713828479254 -0.2482058930200497 -0.6556867350593888 -0.7241561872715178 -0.3986082788381304 -0.16746383018433122 -0.045484040405193014
-0.3889909587014793 -0.22512304121972188 -0.6474312839822725 -0.32848929998111615 -0.041462440193296674 -0.1495482595461095 -0.2921452154380113 -0.12706794298953103
-0.48344969485690653 -0.500377201685791 0.10120870325747199 -0.10317607345230585 -0.0400462204404124 -0.45293820894293213 -0.2056198920296781 -0.13717247050160492

fc2.bias f8 [63]
00000000: 7b2a a266 64c2 f53f eaee 64dd 79f3 2a40
00000010: 5ae2 2a31 6807 f33f 29dd 50b6 d6e7 4440
00000020: e3b0 710a 4a38 3940 75a2 3213 77fe 3d40
00000030: 2760 b9a3 8264 2140 606b a941 cc4d 24c0
00000040: a23f d08f 6631 47c0 8ff0 0c01 1399 4340
00000050: 1b30 ff8c 26af 3f40 167a 68aa 3f60 3240
00000060: 868c 5b67 3651 2bc0 6f4f 2d9e 8e86 3340
00000070: 854c 68d3 c427 42c0 d23d 1300 6a95 2bc0
00000080: 8c34 c76c 6990 f8bf 2b78 383d ba5e 3dc0
00000090: b687 36da 8da5 46c0 5e96 c003 fb39 1c40
000000a0: e247 56a8 0330 2940 d0f2 0ff8 cd5b 3040
000000b0: 9d4c 532a 255b eebf 92de 6585 0bb5 4040
000000c0: 69e9 9df0 b1ec 3b40 7df8 6818 1a8f 3e40
000000d0: dc13 3996 be89 3240 3d4b 1198 6e25 e7bf
000000e0: 7aaa bbab 708e 41c0 495e 5bb5 7ffd 3740
000000f0: 74c8 f4a0 e443 3c40 76f3 3e9b 7037 3440
00000100: 5b60 0a39 bea5 19c0 0176 3f01 7348 1040
00000110: 87e3 c43c d173 2b40 857e 0d9c 3576 1b40
00000120: c3ba 26a7 bd12 28c0 9d17 0b72 b62e 34c0
00000130: b54f 290e 66aa ca3f 8645 d449 523e 1740
00000140: 50a0 cf03 1044 28c0 5fce 278e fe44 20c0
00000150: 7c77 6de9 734b 12c0 b823 b421 f260 3740
00000160: a0f0 5679 9589 0e40 65c7 1541 0e71 12c0
00000170: e9df 4063 facb 2640 e3fa ca2a b10a 2dc0
00000180: 8c71 f3ab 2fdf 42c0 56d6 6fc8 3e43 1f40
00000190: 9dad 7906 e1dd 2340 e5d8 340f 1893 2e40
000001a0: 58d3 742a 2fbb 16c0 7a96 4778 d152 0240
000001b0: 750b b020 2982 2ac0 0a5a 81a1 50e8 00c0
000001c0: 501a 2f42 6076 3bc0 6b94 2e88 4a39 45c0
000001d0: 7e45 9b60 d481 24c0 cea4 4c77 73ab 21c0
000001e0: f939 d080 f6c0 1ec0 1796 15c0 23c8 41c0
000001f0: 2a57 8d3e 60bb 24c0
1.359959031021076 13.475539129801707 1.189308349667178 41.81123999546464 25.219879772907813 29.994004440175974 8.696309200648171 -10.151948978358348
-46.38594243687045 39.19589245921917 31.68418198805021 18.375971460825973 -13.65861819260159 19.525613676130373 -36.31069414704056 -13.791824343060316
-1.535256791033393 -29.370029283796764 -45.29339149153331 7.056621607427216 12.593777905018161 16.358611587423013 -0.9486261202495317 33.41441409563153
27.924590147545505 30.558991933467485 18.538064373908 -0.7233193368977947 -35.11281344092727 23.990229925924982 28.265207347642402 20.216561987751867
-6.411858454950642 4.070751208780622 13.726205729517245 6.865438879321691 -12.036603187062957 -20.182471397121493 0.20832515422318712 5.81086078031638
-12.13293468389034 -8.13475460277476 -4.573684356027908 23.378694635848404 3.8171796302468266 -4.610405938104894 11.398394681615132 -14.520882928159557
-37.74364232432262 7.815669185472492 9.93335743174867 15.287292933655815 -5.682797110920397 2.2904385945174086 -13.254220029344404 -2.1134350411987315
-27.462406288623527 -42.44758703493502 -10.25357343573955 -8.834865310769967 -7.6884403349963515 -35.56359101346987 -10.365968661073186

onnx::MatMul_12 f8 [150, 96]
00000000: fcc6 0c24 5931 903f 29d3 b9c1 39c7 a43f
00000010: aa30 ce7c 8a53 c1bf ead6 f03e 61f2 e03f
00000020: 4de7 79b4 7d34 c43f 0f6d 01cc fafe d33f
00000030: c090 e3e9 1a69 8b3f da5e a0a5 f3ae 98bf
00000040: 5ed0 39dd 664c 97bf 6670 304c 9fce c63f
00000050: 55be ab73 e475 c63f 2ba4 9d19 5b14 513f
00000060: 920a 98b3 081b b33f 5b9c 4040 d99c cc3f
00000070: 0457 cbd3 7e36 c63f 0bf9 baf4 1dd9 c13f
00000080: c199 188e 3e8a a43f 5f9c 7ea7 ec4b d1bf
00000090: 2cec 4a46 6b20 ba3f 968b 50ad a7c8 bdbf
000000a0: 47ed 4aa0 a2f8 b7bf 7fad fb93 1e01 d73f
000000b0: 1a01 1b23 a010 1140 7a56 abcf 196c 9bbf
000000c0: 35af 0530 d2a4 bebf 4ef9 66b1 6ce1 e83f
000000d0: 2a9f ea76 de02 b1bf 6668 7655 fa28 e33f
000000e0: 3328 ab6e ba26 c23f 51c8 0f0b a23a 9b3f
000000f0: 8bbe 4614 90e8 af3f bf47 872e 4a62 d53f
00000100: b123 ea8d ffb9 b0bf 2ab8 5ed3 60d8 b33f
00000110: aa94 6bfe ff90 af3f 1889 9087 1b42 babf
00000120: 784e 4815 141a a23f f66b 50e2 beb9 bb3f
00000130: 8282 303a be62 b33f 4f93 476a 12f3 993f
00000140: f82e faed 7fc3 c03f 3d59 a0a7 94f6 e43f
00000150: 0ae0 bfb0 5a5c 08c0 1120 9895 7116 b13f
00000160: b3f0 5d57 7549 d83f f530 a01f ed47 d73f
00000170: 9ee6 ea20 381d c83f 6dfd 555e 478e cc3f
00000180: 40ab b2a4 03de b93f c1a5 50d2 e4db cabf
00000190: e824 b349 0870 d33f 460d 7b39 975b d03f
000001a0: aa55 6912 6001 ef3f a325 eb23 0b87 e43f
000001b0: 5ef7 b72f e94f c43f 6dea 7966 0626 d13f
000001c0: d77a 7786 f00d cf3f aece fd19 b4b9 be3f
000001d0: 58b8 eab8 0f1e e43f d278 1766 7d40 aebf
000001e0: 0f1e c0f8 0b56 cabf 67db b8c4 96f0 85bf
000001f0: b477 6abb aa53 a53f 93c6 a975 0824 c53f
00000200: c678 1065 afbf c23f 19c8 694d 3707 e33f
00000210: 8a21 c0d9 0af1 eb3f 6e59 7cc1 4170 ea3f
00000220: 0111 3fad 1d7b f03f b358 a8d3 7667 d03f
00000230: 42dd dc45 0fad d2bf 4050 f27a 0ecd b83f
00000240: 93c1 054d 1f7e 8c3f 995c 4941 47ae c03f
00000250: f649 114f 41f2 ec3f eafb 95c0 cbf2 c63f
00000260: 19c8 78d9 0da6 ec3f 609c 688b 314e a1bf
00000270: df8c 5f35 4792 c53f 09ba 6f08 3253 9a3f
00000280: cd94 928c 2c84 e43f 2f7e 7477 5503 c73f
00000290: 6e7e ad29 f72e c53f fbee a002 8d7f ca3f
000002a0: 1043 57ee c05d b83f 64bf ebb8 0120 bc3f
000002b0: 81dc 07ed 9efb a0bf 4fd4 5068 3c8f 8a3f
000002c0: 001e 3309 e5b3 c83f 9e89 5d9b 135f d33f
000002d0: 48d7 213a 42d2 c9bf 9535 a2f2 d5d3 ea3f
000002e0: 9f83 94d5 5da8 b7bf 0254 663c e8dc cc3f
000002f0: c7ce 6835 93cf 9a3f c0e4 f015 fa87 ab3f
00000300: 382a 7934 ad50 a9bf 75bd 5e39 94d7 b43f
00000310: 237d 8a87 acb5 983f 34a2 49fe e9cb cbbf
00000320: 1141 140a bbaa 993f 24f3 8022 ed08 b43f
00000330: 37b8 99b2 61ed 6d3f d7cd e07c 2316 df3f
00000340: 084d 38a2 49fb ab3f ec2d 7cef 51aa bc3f
00000350: f0c2 0709 4983 e3bf f762 c094 ef8a a6bf
00000360: bca1 d476 81d4 973f 498e 963f c84d d23f
00000370: af30 b9ba e584 cebf 7d4b 1480 1700 9a3f
00000380: 2f23 91b2 ed28 b63f 08ad de1b f97c da3f
00000390: 59d4 77e7 fabf acbf 5fbb 38db ed15 a6bf
000003a0: 251a 5d02 721d cfbf 37c1 5064 e53e 9e3f
000003b0: 6d31 2906 962f 16c0 5c1b 9ae6 88fd d53f
000003c0: 3052 75ce 1d9a 863f 1650 486b dc78 b1bf
000003d0: 5cdd 7627 5f78 d7bf 735a 699e ce96 bbbf
000003e0: f07b d2a9 30ad a43f 0ab1 5527 6661 c33f
000003f0: 8687 bffb 6fa9 9c3f 3271 1403 ef3f babf
00000400: 7905 0e1e ce6d c2bf bb20 0711 3027 b1bf
00000410: fa7a ba8b 05ef b83f 6d2d cfbc 8c10 c9bf
00000420: 0bed e960 fa5b a1bf 6474 f812 807a 84bf
00000430: 1e2e e72e c0db b9bf 129d b2b6 e720 7e3f
00000440: 56fd 6763 ae43 bbbf fbed 1085 f3f5 c43f
00000450: 7415 012d df7b 07c0 5c67 dc12 3fea a23f
00000460: d718 1a89 3edd e4bf 5dcd a2af 5680 bbbf
00000470: cc63 123b bc6f b33f a7da 4d02 890a b5bf
00000480: 1c39 316d e9de 50bf 5faf 3ed9 aac7 be3f
00000490: 139b 912e 2207 b03f 2602 1d44 ec7e a23f
000004a0: e9ce 9c96 4bb2 bd3f ae61 2bd2 299b c3bf
000004b0: cd80 a5d1 4316 afbf 09fb 90be 8168 aebf
000004c0: 8c95 8c36 bb93 b0bf b97e 6d96 3bbf e0bf
000004d0: 39e9 eab9 ab4b b63f 47d6 62b2 85e5 9ebf
000004e0: 398d a129 17c6 cebf f891 d851 2696 363f
000004f0: dce0 2805 f4d1 b23f 2054 8744 3d1b a6bf
00000500: 853f 8852 e881 d73f 273d a07e 8a67 d23f
00000510: 112d 4c74 8b18 b7bf 5755 6f2d 6f3e d4bf
00000520: 346f cbbd 5ce6 c03f b04a 7aab 05c8 cabf
00000530: 5686 4a43 dba4 b8bf e0de bad5 ab98 d5bf
00000540: 970f 77c3 fad1 ba3f 7900 853c ff68 b63f
00000550: a336 76ad e089 2140 3ca1 3b9c d821 a83f
00000560: ec3b 48c7 e9fe bfbf 0d33 7303 6c05 babf
00000570: 4ab4 c947 78c7 ad3f c266 d8eb f0bf a13f
00000580: 0ac2 422a 38ee b03f 11b8 3114 07e7 b6bf
00000590: 464b 7873 702b c03f e092 0405 b78d 98bf
000005a0: 1480 be6b c932 91bf 9284 43b3 487b 78bf
000005b0: 0716 7462 692c be3f d544 cf3e 0ae3 b23f
000005c0: 0566 c973 cc5e afbf 546a 7787 f08a d7bf
000005d0: 56cd 8280 1e7c cc3f b4e4 4197 dd7b d13f
000005e0: 52a3 a5bb 85ed a93f 006d c3f1 2e26 dc3f
000005f0: 5353 a0d2 cab5 d53f 66d7 276a 3490 81bf
00000600: 09ae c927 47bb b13f a7a2 c24d de87 ce3f
00000610: c4ea cd74 0f57 b93f 7294 c736 f37e db3f
00000620: 1e6f 012b 09f6 bb3f 8b24 1340 0619 d93f
00000630: 353b 6845 aa2d b33f 4675 4c47 f336 c53f
00000640: e24c b355 2e22 af3f 5a97 c5a3 1232 c73f
00000650: 515d 6f20 7735 f13f df1f 8889 f60c c03f
00000660: 38b9 8500 49d6 cd3f 1f69 cf37 9836 d63f
00000670: 28da 73ea 9146 d03f 21d3 3979 4cb8 a83f
00000680: 1fd9 3dde bfab a03f dd0d 4ea8 097f 753f
00000690: 6ceb a19c 1dcc 9abf 8f00 aac9 ae42 8e3f
000006a0: 3f0f 43a5 ca58 d03f 1057 474b be5f a43f
000006b0: 0c75 d952 8802 1840 b4d5 6740 730c cc3f
000006c0: 4acb bf34 94d1 d03f aebd 54c9 bc32 c43f
000006d0: 43bb 1402 ae9b ed3f 52d7 d15a e31a da3f
000006e0: 09ae 7c6b 41a0 e23f 03ff adf6 1338 d03f
000006f0: 1ecb f266 7741 b73f 4ef4 407a 0896 923f
00000700: 2bf1 ee0d fd45 a0bf fef0 24d9 d0c7 9ebf
00000710: 9fb3 6ea2 daeb 93bf c31c 421f 419a d23f
00000720: dc81 6172 83a0 b53f ac9c fe49 693b a73f
00000730: 4e3c 79b0 eeb9 af3f 5781 8176 6e7e c83f
00000740: 566d ed46 9d67 a03f 1d9a 6c8c 85c4 d03f
00000750: 36a0 a2d5 082d ee3f 7df5 1e82 5fa9 bf3f
00000760: 5fcb 1467 2563 f13f c738 116f dd73 cc3f
00000770: 78c6 71ca 298a d13f 94b3 1fed 5878 bb3f
00000780: 2db9 6e50 2042 c03f 4e52 6ff2 0f94 c93f
00000790: 8469 a6da 2531 b83f cd05 dbed 0d52 c53f
000007a0: 7427 9ca9 9bb8 da3f 9727 cfe7 2200 e53f
000007b0: 81ce 44cf 5210 a93f d72c b758 2c71 c83f
000007c0: f0d3 78f5 089b c53f e2e6 7ec5 5ef4 c1bf
000007d0: f4fe ef78 2b73 d73f 1a28 8364 ba93 d33f
000007e0: f7f5 2a3b 5b83 d53f 3e08 e09d 2c9d b23f
000007f0: b8f8 4dce d923 b53f 6dd1 f101 b3d0 cf3f
0.015813248467742888 0.04058247079675532 -0.13536196798339023 0.529587386065683 0.15785189926446677 0.3124377243272684 0.013384065878604523 -0.02410488794711694
-0.0227523872876677 0.17818061084915654 0.1754727902220902 0.0010424508713760088 0.07463125595681167 0.2235366405231812 0.17353806821363815 0.13943838548397766
0.040117220731463295 -0.2702590594948954 0.10205717531327768 -0.11634300214113433 -0.09363762296100218 0.3594433255336397 4.266235874674999 -0.02677955942166086
-0.11970246956269366 0.7775176491630107 -0.06645002749666831 0.5987521809759186 0.14180689243068087 0.026590854573392445 0.06232118842615105 0.33412413162033866
-0.06533810820304954 0.07752041969681103 0.06165313702312265 -0.10257122096712512 0.03535521278186321 0.10830300355193842 0.07572544975892906 0.02534130834273479
0.13096617813095413 0.6551001810028435 -3.04509485326344 0.06674871351435764 0.37948354274682145 0.3637650307507692 0.1883917008142832 0.2230920038818839
0.10104391833253334 -0.20983562726295982 0.30371291348690344 0.2555902539572411 0.9689178809737105 0.6414848042997402 0.15868868665705355 0.26794586188740405
0.24261290136106226 0.1200211108642246 0.628669606366894 -0.0590857684253351 -0.20575093885439386 -0.01071279323433112 0.041653952958980694 0.16516214127800719
0.14647476610929838 0.5946308624245403 0.8731741192760165 0.8262032298105575 1.0300575988231346 0.25631495160758816 -0.29181272337469377 0.0968789148485607
0.013912434137382223 0.13031855285473595 0.9045721573150434 0.17928454307181535 0.895270275830856 -0.03379969431653573 0.16852655511966128 0.025707990422171565
0.6411345239218008 0.17978924114957937 0.16549577269596533 0.2070175421557606 0.09518056696766686 0.10986338390989442 -0.033169714388287204 0.012968513425315601
0.19298994969561534 0.3026780144920397 -0.20172908628927133 0.8383588541925514 -0.09241281952246404 0.22549155186848685 0.026182460913516416 0.05377179639658314
-0.04944363847296923 0.08141447449337653 0.0241305310943264 -0.21716046253574606 0.025065348138981373 0.07826120464683278 0.003653231445063045 0.4857262343896002
0.054651547481762874 0.11197387787631613 -0.6097760368703273 -0.04402874651731808 0.023271582486957362 0.28599744996811133 -0.23843070618966553 0.025390975181902576
0.08656201943916807 0.413877751556996 -0.056152191882497156 -0.0431360559563163 -0.24308610072530815 0.029536804435509736 -5.546470733894563 0.3435995342228375
0.011036141265017368 -0.0682504426879976 -0.36672190526902226 -0.10776988379925871 0.04038383553528735 0.15140988274232142 0.027990102520454772 -0.1025380499381228
-0.14397598712461582 -0.0670042077609904 0.09739718114222376 -0.1958175584717127 -0.033904861765188775 -0.009999275759634503 -0.1010093798169511 0.0073555995287855214
-0.10650148322019012 0.16375583646173184 -2.935484267802787 0.03694340806232674 -0.6520073583385749 -0.10742704189288106 0.0759236950128887 -0.08219200426342842
-0.0010297088199596243 0.1202341823943107 0.06260884892399714 0.03612459498845437 0.11600181986869597 -0.15317271005802752 -0.060716742841351846 -0.059391073715678706
-0.06475420076147581 -0.5233438432732874 0.0870921448612635 -0.030172432911703486 -0.2404202416683832 0.00034464297809425016 0.07351613164871956 -0.04317656957179161
0.36730392513072047 0.28756964078725605 -0.09021827306076015 -0.31631068646432453 0.13203009860341697 -0.20922919152197528 -0.0962655104908888 -0.33744331237856606
0.10476653358551712 0.08753962733772082 8.769292278938627 0.0471332255090737 -0.12498341670310226 -0.10164523205021343 0.0581624591476176 0.03466751936885039
0.06613493949658547 -0.08946270220778298 0.1263256610696663 -0.02397809951902985 -0.016795298768215686 -0.0059769477704502295 0.11786516812943414 0.0737768557876451
-0.06127013123905204 -0.36785519818446244 0.22253781580875892 0.2731851555941589 0.05064027705777242 0.439830528351834 0.3392207199952299 -0.008575829972851511
0.06926388474828839 0.23852137371911405 0.09898468591374426 0.429623416419708 0.10922295856419992 0.3921523690920103 0.07491554445753652 0.1657394502771387
0.060807655297731036 0.18121560093566808 1.075553061198509 0.12539560046593487 0.23310196424012886 0.3470821900388205 0.25430724998241994 0.048281087682801045
0.03256034458074652 0.005248105739954903 -0.026169264493073482 0.014775624779986422 0.25541940821516457 0.039792963685313265 6.002473158381019 0.2191299499969951
0.2627916827324738 0.15779838400474716 0.9252538719791591 0.4078911196623852 0.5820624446254793 0.25342272844135055 0.09084268821133576 0.018150455915236834
-0.03178396983227779 -0.03005911183684961 -0.01945439926537384 0.29066494038165674 0.08448049108984129 0.045375147135297084 0.061965426485237715 0.19135838304920114
0.03204051485837549 0.26199473107627275 0.942997376686441 0.12367817808895683 1.0867055918322064 0.22228591845709486 0.27405781526531525 0.1073051051059351
0.1270180123078232 0.19983100259436742 0.0944999369443505 0.16656660188713915 0.4175175815913612 0.6562666442416568 0.048952663232197054 0.19095377284825218
0.16879379259049143 -0.14027008670182456 0.36640440759946036 0.30589160743386545 0.3361423566637706 0.07271078924534977 0.08257828985913107 0.24855649561835538

onnx::MatMul_13 f8 [96, 63]
00000000: f54e 86fd b6d2 cd3f 8246 40b3 fcc6 d1bf
00000010: 9ff2 5054 237f 82bf fc52 6ab2 3535 a33f
00000020: c5e8 9398 c98d c0bf 7a38 cbd5 a9fb b6bf
00000030: 3be5 c6f2 ba52 823f 6c88 2bba 979c bcbf
00000040: 9e10 a49e ad88 c5bf 69a3 be1f d6bd b4bf
00000050: 652c a0c4 066b a3bf c6cb a9f9 5a41 d2bf
00000060: cc6d fb40 9693 d1bf 6b9d 7550 aa09 c0bf
00000070: 801d e5d0 49be b4bf af94 085a 8bf2 993f
00000080: 8f8d 8f2d b5ea 8b3f a36b 055e d161 863f
00000090: e2a6 3bfe 8618 bfbf 70bc 4ba7 9d2f 85bf
000000a0: 1bde 6015 9a2c cabf 3a29 b0eb 5979 bfbf
000000b0: aa81 5e59 03a5 a53f 7d55 14b4 83cd b7bf
000000c0: 7105 d11b 9751 c7bf d4fa 3711 22c9 d2bf
000000d0: c8e7 4128 2e22 d3bf 2618 1a08 e4be 9d3f
000000e0: 69d8 dd23 d476 9b3f eaa9 91ce cba8 933f
000000f0: 1f50 ebbe c318 703f a95d 312d a4d5 b5bf
00000100: 0c78 1d32 7994 d1bf 90e8 9402 d414 a1bf
00000110: 00cc 7520 06a9 87bf 587f 7412 4e95 9c3f
00000120: 2c3c b2f0 4f9e b9bf 5046 745b 55ae b4bf
00000130: b014 1534 aa0f cfbf de1d 8305 d56a c2bf
00000140: 0e9a 16ff 5796 b7bf ed3a 2ef6 5ce2 9d3f
00000150: 4645 6094 7da7 a6bf 98ac 571c f02a a0bf
00000160: 879b 7cf9 b0a5 8ebf 55e7 4fcc b918 b4bf
00000170: bd3e 4aca 0027 bdbf 6d13 4225 9c13 d2bf
00000180: ffac 47b0 4067 aabf 7678 2c14 d3d8 b9bf
00000190: b027 f45e e267 d3bf 2fa9 26fc b866 b53f
000001a0: 53c8 c1c6 5a42 b23f b6fc d8d9 2251 aabf
000001b0: 9daf 3b10 4ab5 82bf dca9 ad1e 5b62 a4bf
000001c0: 6e84 f0b5 d080 a6bf 8d12 2a89 ca55 923f
000001d0: 95c9 17c2 c5b0 b2bf 18aa 601c 76f8 9d3f
000001e0: 7f82 bfda d7df a63f 8414 b89e f6da a6bf
000001f0: 2d66 1421 2058 b1bf b332 78f7 dad8 dc3f
00000200: 9ff1 6edb a406 dcbf f525 e19b 2e39 b2bf
00000210: d6f4 cb64 5eb3 d1bf e333 3450 fccc b73f
00000220: 4349 1379 f013 dcbf da0e 46e8 1844 c83f
00000230: 0638 8b57 ee7e c7bf 364d 03e7 36eb 4bbf
00000240: 0db5 1071 b13c c7bf a6ce e220 d1ba dfbf
00000250: 0dec 35c2 8d64 d1bf 2454 029e 30eb a9bf
00000260: 73df fe77 5ec6 d8bf a143 b8a2 d1cd c4bf
00000270: 44bf b9d4 251a e0bf b019 60d9 6455 e4bf
00000280: a27c f3da 2ff3 dbbf ab6b 5e9b 3a44 e3bf
00000290: 873f b182 66b1 a2bf 4f69 07df fd2f c0bf
000002a0: b036 f740 e217 d4bf cca3 3eb6 2224 c1bf
000002b0: 7b3f b5fe 3cde b3bf 4d9d a7d5 500b cdbf
000002c0: eee5 c11d 13e6 b93f 4fcb 5876 6a87 bdbf
000002d0: 00f0 adf3 e4f0 e6bf aaae efe3 eff9 dcbf
000002e0: 57a4 c0b0 814e dabf b12e 4304 c1c3 aebf
000002f0: a404 cc76 b5cf dbbf 499b 7c64 d1dd 9dbf
00000300: 47fe 89bb 10a8 cb3f 7470 9bba 8ce4 d13f
00000310: 6838 092b e502 e0bf 0edd 84b4 745f cebf
00000320: cdf0 ad1b 7609 cfbf ffa7 fb7f f40e d13f
00000330: 9f4f ce52 3ead 9d3f 72d8 72fd 4474 be3f
00000340: 1d80 57dc 9768 d33f 39c3 23b4 bec1 e5bf
00000350: 7b46 b8e3 a6f8 c2bf 42ed c211 f96c a6bf
00000360: 126c 56ca 29e7 cfbf a4b4 761e f9f5 b3bf
00000370: ca70 ef75 72ab bcbf caf4 49d9 4f29 e4bf
00000380: ccd2 b41a eeb0 c1bf b84d 20d8 2a31 d5bf
00000390: 57a8 5167 6eb1 bcbf 2c4e 277d 7cce c9bf
000003a0: 2546 f185 ff4c dabf 1f59 f372 e9dc dabf
000003b0: 3b45 0ad2 d9f2 cebf f209 094a 12ca c5bf
000003c0: 8808 36b3 1fed 70bf c3eb 112f b18f e2bf
000003d0: 529a 3e30 2cd2 c5bf fb82 abda 9fee d2bf
000003e0: 7c8b abaf c8f6 8cbf 4f47 cc93 0813 c13f
000003f0: 98d8 1859 847e c1bf 63aa d63b 665f d5bf
00000400: ac1d 3dd4 dcda a0bf 1819 1508 0f06 cc3f
00000410: 4927 f87a 33b9 c3bf b50f 4b83 5a05 bebf
00000420: e88c 1c87 f2c5 a0bf 010d 63b0 25fe 92bf
00000430: c7fa d924 6a8a afbf bbbb 39bf 377d a23f
00000440: 07b1 a7f7 9e04 d5bf 856b ad01 4eaa 80bf
00000450: 39ee 2416 51b9 b5bf c84b 0f71 cb56 a33f
00000460: 0cea e2dd bf8b a93f 6190 e7c4 9f52 bfbf
00000470: f2b3 9bab 3153 b5bf 003a f4a6 6c7c b3bf
00000480: 4246 06b1 9fd1 cfbf 71b5 3d8a 1cd5 ba3f
00000490: 60b9 b4fc adac a2bf fcc4 6310 2bcf 9fbf
000004a0: 594a 239d 0f58 c8bf 3f24 abb9 ede9 b8bf
000004b0: d321 e2ee 6f75 c1bf af8c f2cb 6a5f c3bf
000004c0: e7db 8e31 f376 d4bf b7f3 4d21 26c1 7b3f
000004d0: 3445 56fc 8235 b7bf 13cb cad8 0cc9 943f
000004e0: 5bb5 064c 3ff3 a4bf 85ae 4734 46b3 b1bf
000004f0: 539c 1400 12a7 993f 4b6b 5655 872d c8bf
00000500: c9a5 26c4 9d6a 953f 2527 899c babe c9bf
00000510: f194 d899 d910 6b3f 7cb3 c774 fa04 c9bf
00000520: 78cb 2189 a4f6 a2bf 4521 aa2e d981 c7bf
00000530: c4f6 451f 76c1 bbbf 5063 aea6 1a89 b7bf
00000540: 332f 5131 f114 c5bf efc0 5bb6 1b09 b0bf
00000550: 215b 927c 946c 6e3f dab4 b0e0 d14f d1bf
00000560: 335a c877 ef78 b1bf d82c 5860 2ad6 bebf
00000570: f3dc 2a12 4e2b c0bf 8d76 6af9 f30a b6bf
00000580: a7aa 8916 83fd bcbf 7743 10a5 6776 c4bf
00000590: d157 6041 3315 b4bf df95 1412 719a b7bf
000005a0: 069f 7695 e450 acbf 6e55 03d2 960d bebf
000005b0: d30c 0767 6a70 c6bf 6107 4844 5061 d3bf
000005c0: 9ade 7b70 4d41 dcbf c1ad ce5e 6317 c1bf
000005d0: f592 f14f 1fb0 c8bf bf77 c736 6f9b b8bf
000005e0: 6bce 0d76 00ed 9dbf 2afd 45e1 2b88 cfbf
000005f0: acd2 460e 8068 d7bf e66f 1faf 6a53 c1bf
00000600: b5d7 94a4 a50f c2bf 2395 2d5d 4591 ccbf
00000610: 864f 2c17 d963 b9bf 1d8f be85 2d53 a9bf
00000620: fb61 6507 36e5 bdbf fadf 2497 6574 dabf
00000630: 950a 2c34 4dd2 c6bf 267b 8774 fadc a5bf
00000640: 1539 721b 2d17 b93f 9550 ed62 a833 ccbf
00000650: aae1 a896 fe8a d8bf 9192 4b88 bd22 d8bf
00000660: fbcf ad31 0c39 ccbf 4d82 f231 0525 b63f
00000670: 81f0 0f33 4082 b6bf f46a 2814 d5c8 7b3f
00000680: 6b20 f562 dfaa dcbf d238 d31c 1d29 e1bf
00000690: 4ae5 8efd 9432 d63f ad8d 41ae 2559 d5bf
000006a0: 5d93 39b3 cc5e cbbf 89c0 e64d 58cc e0bf
000006b0: 964b 50af 6687 e0bf 5dd4 8029 3409 cebf
000006c0: a364 4e8b 020f ddbf 19aa 963c 0898 c3bf
000006d0: b244 5872 e921 be3f 390a 5bcb e84c c93f
000006e0: ce5b fe80 35b7 e7bf 46c2 bb3b 72f0 e8bf
000006f0: 80ef e540 11e1 e0bf ba06 8c4e 5a6e bf3f
00000700: da6c 61c7 c837 823f fdff 796f 5be9 e4bf
00000710: 0e53 0db9 f131 e7bf f10c bdce d15c a0bf
00000720: 0677 b143 308a e2bf 7a93 c2da 2940 cd3f
00000730: 22cd fcfa 8a10 e2bf 8324 cdf3 9239 c5bf
00000740: 2a57 a1b9 11b7 d7bf a19b 48f7 73a9 c73f
00000750: 6c0b ed42 6bc6 d9bf afdf 66ad be3e cf3f
00000760: cdde f8ac da53 e1bf bd36 5279 3484 c2bf
00000770: 40c1 dab5 0c6f e0bf ded2 37df f6a7 e1bf
00000780: 9599 8c99 f6eb dcbf 8bda 0dad 0d61 d4bf
00000790: 4020 7eae 7c55 debf 0487 4d00 85c3 df3f
000007a0: 9f0d 463e 4126 ecbf 1e86 e2b2 bd7a e7bf
000007b0: 06fd 52ea b81f c1bf a586 a315 0fd4 e8bf
000007c0: 6546 a868 7ccc e8bf 1b6b 17e6 ba38 c33f
000007d0: 92d6 4c4f 6fb4 c6bf 62ac 0089 4dd8 cf3f
000007e0: cef8 5adb 7cab 9d3f 8c5f d434 e8f4 bbbf
000007f0: 1f00 96f9 6599 cdbf a735 023d 268f ccbf
0.23299300555355953 -0.27777020936000707 -0.00903155900061253 0.03751533320352071 -0.12932701063238575 -0.08977757901740971 0.008946857961620416 -0.11176441474120374
-0.16823358770500801 -0.08102167391792893 -0.03792592191901959 -0.28523897534540443 -0.274632991274953 -0.1252949612491919 -0.08102856969809658 0.025339295740327724
0.013631263211158621 0.010928760225103867 -0.12146800715313646 -0.010344726245845787 -0.204486141623179 -0.1229454231653663 0.042274574908563636 -0.09297965189428754
-0.18217743738390937 -0.29352618867407654 -0.2989612000598041 0.029048502916815398 0.02682048291122677 0.019198593600245596 0.003929867393441837 -0.08529115775433262
-0.2746870984464074 -0.03336203128351756 -0.011552856317143423 0.027913303257377592 -0.10007190348027056 -0.08078511698502067 -0.24266555350383134 -0.14388525742673058
-0.09213781335584079 0.029183819318457194 -0.04424660145026364 -0.031577590427184166 -0.01496446858761914 -0.07850228536690669 -0.11387638987275302 -0.28244689596640776
-0.05156900550704257 -0.10096472971460621 -0.3032155921251798 0.08359867244749773 0.0713249907728664 -0.0514002695967916 -0.009134844417950034 -0.03981289624683246
-0.0439515325636045 0.017905392286154998 -0.07300983418080016 0.029268117410689326 0.044676537945410814 -0.04463930785645068 -0.06775093848809695 0.450735799474198
-0.4379055159477278 -0.07118502908374309 -0.27657279818943203 0.09297158201316295 -0.4387170011879286 0.18957816449630266 -0.18356112742043268 -0.0008520143583389597
-0.18153970738186623 -0.4957773991729745 -0.27176231351740016 -0.050622481620998167 -0.38710748403854395 -0.16253109402944424 -0.5031918673321134 -0.6354240651715397
-0.43671795255608903 -0.602078727202174 -0.03650970788350976 -0.1264645899780796 -0.31395775169662965 -0.1339152707926402 -0.07760983675438908 -0.22690782959328218
0.10116691090106375 -0.11534753217055747 -0.7169060477604035 -0.45275494822883877 -0.4110416627978046 -0.060087234278026876 -0.4345525417448448 -0.029166480787490987
0.21606644780330184 0.27957456801755787 -0.5003534164950567 -0.2372880822601719 -0.2424762377885429 0.2665377855142878 0.028981183818885033 0.11896163165769894
0.3032588626647355 -0.6799005049088925 -0.1482132541573725 -0.04380014745535245 -0.2492420423485276 -0.07797200196974302 -0.11199107531814714 -0.6300429576800977
-0.13821197799702245 -0.33112593751976815 -0.11208238623081122 -0.20161396132481124 -0.41094959335632303 -0.4197333929599995 -0.24178622012963466 -0.17022923102383875
-0.004132388904851798 -0.580040542539216 -0.17047645908060588 -0.29581447939385414 -0.014142577992463982 0.13339335648248116 -0.13667349195902 -0.33394771426779907
-0.032919789226578317 0.21893489737176064 -0.15408938888895765 -0.11726918893242451 -0.032760218613725745 -0.018547619715502787 -0.06160289478156283 0.03611158570571812
-0.32840704140723215 -0.008137330461684087 -0.08485895910865161 0.03777156596301939 0.049894328914394576 -0.12235449368705666 -0.08330069007543253 -0.07611731601739535
-0.24858471053862458 0.10481432318711882 -0.03647369107999299 -0.031063721537923236 -0.19018740818735827 -0.09731946738169571 -0.13639640011048346 -0.15134940107700376
-0.3197601303067458 0.006775998063742009 -0.0906602731759179 0.020298195583289557 -0.04091832926801927 -0.06914175773970939 0.02505138516894718 -0.18888942400811923
0.02091452130995267 -0.20113308566424695 0.003303933145405773 -0.19546442701485123 -0.03703798459982627 -0.18365015772384133 -0.10842073691852777 -0.09193579263081841
-0.16470160396635833 -0.06263898088559804 0.0037138843659464548 -0.27049681608589327 -0.0682515780866673 -0.12045540668639221 -0.12632156264383063 -0.0861046298909633
-0.11324328708875929 -0.15986342963926933 -0.07844848962881136 -0.09220034305015855 -0.055304663891830017 -0.11739485385199597 -0.17530565291062902 -0.30281454723455253
-0.44148574814560393 -0.13352625016464795 -0.1928748264646384 -0.0961217411745272 -0.029224402623596307 -0.24634312152554944 -0.3657531871242934 -0.13535817671697642
-0.14110250984384512 -0.22318331765851793 -0.09917980972050885 -0.049462721420495216 -0.11677873306815194 -0.41335429916534816 -0.17829289481604307 -0.042701555943258904
0.09800989074776496 -0.22032646971149875 -0.3834835501943653 -0.3771203833587516 -0.22049095559816564 0.08650238484779856 -0.08792496916425031 0.006783325518450612
-0.44792923606701746 -0.5362687647809941 0.3468372799066698 -0.3335661126822867 -0.21383055449691826 -0.5249444505225408 -0.5165284561247627 -0.234655876412634
-0.45404113391993856 -0.15307715376305067 0.11770495454426813 0.19765958718751778 -0.7411143798261663 -0.7793513456982246 -0.5274740474264803 0.12277759950304815
0.008895462593662296 -0.6534859826351745 -0.7248467077539276 -0.03195815704978056 -0.5793687173970461 0.22852061444896404 -0.5645193960284909 -0.1658195200382445
-0.3705486595912243 0.18485879492183435 -0.4027355340551171 0.24410232035529364 -0.5414861086237238 -0.14465957569011847 -0.5135558654638217 -0.5517534599044571
-0.45190205569306247 -0.31842367076698314 -0.4739677146940302 0.49630856542181356 -0.8796697822839866 -0.7337330335469152 -0.13378058854684854 -0.7758860991127291
-0.7749616664970743 0.1501687644475503 -0.17738143322064964 0.24878853978711662 0.028974486244572266 -0.10920573510918369 -0.23124384581387944 -0.22311857203423566
