model/export/model_pt_LSTM.pt (torch, 523031 bytes, 6 tensors)

weight_ih_l0 f8 [288, 150]
00000000: 1ca3 3ed6 09ec b03f d1b1 f172 3c9b 9a3f
00000010: a992 8e34 0652 bebf 5d74 1fc5 dd3c 963f
00000020: 7b0d 53cf 070a 973f e662 aadb 7278 b0bf
00000030: aea3 7299 c06a bcbf 99f9 a6a1 a913 b9bf
00000040: 791a 7334 7af3 b6bf e347 498e bbc5 443f
00000050: d1bc b989 c789 b5bf 1583 af74 da6e bebf
00000060: 3c6f b225 f336 a0bf ae33 dbf1 e686 8d3f
00000070: cd94 dd02 350b bcbf 95fc 969b 4c97 b0bf
00000080: cbb5 2479 b414 c3bf 42bf 90b0 3b9a b0bf
00000090: d331 aa0d 9b2b a03f 766d 5e89 9b2e 9c3f
000000a0: 8963 f0d3 e1f1 a73f 1ba2 8ff2 78ee bbbf
000000b0: 72d7 db2f f5e0 1b3f da14 5bbc 0998 bdbf
000000c0: 75d7 bc9d 0422 9abf aee5 d382 e75a babf
000000d0: a087 595a 6f57 c3bf 30e3 cea7 a556 c1bf
000000e0: f422 08aa eeb8 9ebf a4e8 230c 715a 9ebf
000000f0: 96b8 296d ea36 a2bf 08ae d018 afce 82bf
00000100: 3c35 7515 2d23 84bf a5b6 3889 2b18 a1bf
00000110: bae6 1a51 c6d9 ae3f 9f53 1c3c bf14 bbbf
00000120: 1ed2 8b3f bb18 af3f 7407 646f bbb7 92bf
00000130: 203b fcdb 9579 c3bf 9e58 47d0 05f6 943f
00000140: b6cd 3304 af73 afbf 50e6 3866 9cb7 9ebf
00000150: beaa 85ce b020 babf 41ec 7394 bdf7 bfbf
00000160: ef28 1c70 04fc bebf 6d5c 5b5e d15f afbf
00000170: 7b1c a52c 5214 88bf 2720 af30 cae4 a63f
00000180: 057a 7bad 3122 a5bf ef29 fc4e d056 b0bf
00000190: 2822 ca25 05b3 66bf ff02 469f e479 bebf
000001a0: cbda 8160 13d4 653f ceb7 8a74 f679 81bf
000001b0: 3f34 5e4b e8f5 b8bf 4089 c2db 318f a53f
000001c0: e490 464d 579e a73f 3682 2a63 d64d bcbf
000001d0: 7ced f6d8 ddcd b13f c4f7 8cde 7a0b b6bf
000001e0: 1168 cf06 903f c1bf ea84 5f98 3896 9d3f
000001f0: 324e 664c f6ee a03f ce46 ec8c bf31 c2bf
00000200: 1443 7226 5dff a33f 10ec 01d0 fb43 bbbf
00000210: ab10 d95f 0078 c4bf a5a5 8802 eb7f a1bf
00000220: 0827 ad95 fe95 a33f f55b e2c0 7424 c4bf
00000230: 1fc6 b01f 30b8 a73f 2b03 d3ae 5520 793f
00000240: 313a 0cc4 8894 c1bf 15d6 f163 e820 bebf
00000250: 0381 3769 e8e2 973f 9ba2 8aab c3b5 afbf
00000260: 8d6b 8504 fd47 c2bf 2c04 1f20 431c 9c3f
00000270: 23d6 06a5 b0ca c1bf 70e9 0d50 6248 c2bf
00000280: 0adb 9781 a4d6 8f3f 2ea5 a34b 38ad a2bf
00000290: 829d d741 90b9 733f 952f da0f 2901 b7bf
000002a0: 2098 05df a7ef b8bf 140c 88c4 a9dd c1bf
000002b0: eb04 bce2 079e babf ba7a 4dbb 79c5 89bf
000002c0: ad56 5c6b 87d4 ae3f 14df 6fce 79cb b3bf
000002d0: 284b 56c2 403a a6bf acce 0410 0e6b bbbf
000002e0: 0b9c 1ed4 862e a13f b5c8 1c0b b4cf c0bf
000002f0: acc9 9b49 415a c0bf 6a50 c38f c8f4 bfbf
00000300: 09cc 497f d3d9 aebf 99c9 abe3 ef03 b4bf
00000310: bcae 9b9c 91d9 c2bf f7de a54b 9709 94bf
00000320: 7bab b4ba a149 a73f ad53 bc21 f380 9c3f
00000330: ef84 587a 8e20 b5bf c6d8 8efb 4914 b7bf
00000340: d882 d260 c4af c1bf a3f4 15e3 0c2d babf
00000350: 535f d5ea 0663 b1bf 1be5 b8d9 4a44 b7bf
00000360: df6d 9353 0629 a63f 658a 1e2e ec15 903f
00000370: 0092 2fb9 dc01 9ebf ada6 518f 3c1a c4bf
00000380: 7562 1fb5 3b88 c4bf 92f6 d086 6bfd a43f
00000390: d8e3 9ff1 b08c bebf f70d 7374 4477 c2bf
000003a0: 600e 35db 3c04 a73f bdfb 6059 f684 c1bf
000003b0: 477a d659 daad bfbf 6fb6 31c0 3ed7 bebf
000003c0: d272 e60b 741d c5bf 401d d85b 0bbc c4bf
000003d0: a34f f319 985e c1bf f281 8747 6489 b7bf
000003e0: 668b 086d ee83 b4bf 6569 848f 9952 c6bf
000003f0: 9ce5 d196 7c08 c4bf ea17 66c7 c60e b43f
00000400: acee 2e68 3b9b 85bf 63d6 d151 1301 acbf
00000410: 1a3b 7050 7da4 ae3f af0d cf1d 3c49 b33f
00000420: 2570 fb9b 87f9 a0bf b5a4 2d20 49a5 a3bf
00000430: afb0 3302 0c40 b7bf 98ae 0bb4 9ad3 b5bf
00000440: 7025 b451 0846 24bf 60ea bcae 1a3c b03f
00000450: a2f3 26ee 7c1a aabf 266c 7375 3200 a7bf
00000460: dd58 6226 f646 b2bf 2efd 687d 9256 b03f
00000470: daad 062f 72f7 bcbf e3e5 8da6 a29c ad3f
00000480: 7160 57e0 31a2 86bf 0da7 651a 7767 9b3f
00000490: d2d6 2f38 e5f9 82bf cdc6 9d6c c26c 773f
000004a0: c930 94b0 552c b13f 42f8 9f67 905b a6bf
000004b0: 2251 de3f cf63 64bf 7e9c a5bc 510a 71bf
000004c0: 667c 46d0 329b 873f 621a 31b2 c57d c7bf
000004d0: 1b27 78e0 f083 91bf e0f0 064f bff6 9cbf
000004e0: 1e02 2af9 b3d6 90bf ac24 6b5a e039 a5bf
000004f0: 4a99 15e3 1cb2 9e3f 066d a1f1 2be7 b8bf
00000500: ccda 12ff dbe0 823f 272e 8b28 46b4 c5bf
00000510: f33c 1c76 17ec a2bf d268 cc21 85c9 b2bf
00000520: c9aa 4532 969c 7bbf 5e72 1e86 2bbf 86bf
00000530: 8a68 8ecc b14e c6bf b43c 6a30 3e1c 803f
00000540: 88f9 b931 f706 373f 9620 6356 e0bd c5bf
00000550: 5096 0587 20fb bcbf 8e74 d026 bfb9 aabf
00000560: 0924 0125 8264 a3bf fae7 4e2a ad77 bfbf
00000570: cfc2 cd7b 0a93 c1bf 4429 4807 0af3 6cbf
00000580: 1bf8 6df9 81ad c1bf 2c8b 7fe3 36cd acbf
00000590: 5b24 df99 84f4 c9bf 3143 4b43 41e1 b5bf
000005a0: 81ee 2c7a 493e b6bf 4950 72a2 cd81 babf
000005b0: 848a 6ce6 f8ee 80bf ac06 17ee 7696 95bf
000005c0: 645e bb6b bfd1 b0bf 6b4e 7301 8e73 c7bf
000005d0: 9033 44fb 60a9 c8bf bc0a fba9 402f c1bf
000005e0: 1af3 1d01 b3fc 8f3f 79c0 19c4 d98e 923f
000005f0: ebd8 8e5e c4ea 96bf 80b4 b95c fd23 843f
00000600: f804 ad50 f150 a6bf 03f4 3777 972b c8bf
00000610: b1cd 821d e2bd bcbf 7303 d7f1 da9d c6bf
00000620: c6a5 37bb ce32 bfbf 347c f046 cdd7 c4bf
00000630: 54d0 7d21 631c b1bf 1882 af74 b5d0 c2bf
00000640: 93bb 399e 5278 adbf c483 1790 11f6 a9bf
00000650: 1b63 013c 7075 89bf d1b1 a586 dcc0 c8bf
00000660: 337b 4182 e31b 89bf 097a f39e b74a a1bf
00000670: d006 7eaa 32aa 97bf b085 1f67 e2e8 b5bf
00000680: 8aa6 0f68 218a aebf 1073 be00 f99d c0bf
00000690: 2a07 eaae 05ef c0bf 7015 a77b 4443 bebf
000006a0: 9a62 a701 a6ea a9bf 48f4 740f 9413 c63f
000006b0: ae71 5fb5 7673 c73f f698 aeac f234 a73f
000006c0: 2b12 470a 1a26 bc3f 71e8 037b 75b1 d23f
000006d0: 04ab 6895 0bf4 c53f c9aa c414 3d7e 9a3f
000006e0: 8980 fbb8 4e6e d23f 52cd 71ae c1cb c23f
000006f0: 80bf 6a3a 1d9d aa3f 51fe 8f38 e223 d13f
00000700: 6e65 732e 97b8 c53f 386b bb08 0722 c93f
00000710: 259c b139 98c5 d03f 8637 eda1 c14b b73f
00000720: 6581 19ab 5ce3 c03f 6b24 c97d 9489 d03f
00000730: 17b2 d642 4de9 823f c975 113a eee3 a83f
00000740: 5fc2 0b15 b2a0 b93f c57a 0428 00d9 ab3f
00000750: 00f4 5a17 3311 963f ce94 1b6d 1da9 cf3f
00000760: 8312 0391 afd1 bf3f 53ce e1ae 69ec af3f
00000770: f1b8 b3c9 d868 c13f a52a 9905 919f bf3f
00000780: 1316 1cb2 0f07 c43f 235d 4621 abdf c43f
00000790: 25f5 ff1f b761 bb3f fb7a fc4a 8cf6 a53f
000007a0: bcf9 9fae e92d ca3f ae34 c14f b2b3 a63f
000007b0: 984b 997c 66aa ab3f 7298 f3e3 97d7 be3f
000007c0: 3fa5 26d0 07c7 b43f 4e57 4fca d699 c63f
000007d0: 9ddb ad56 9cf9 cd3f 249a 0ca6 5626 c03f
000007e0: f77f e15c 6534 c13f 4049 0a85 8ae6 c53f
000007f0: 0d28 1c93 a24b c63f 2039 40eb f003 c13f
0.06610166054327887 0.02598280383647184 -0.11843909056785641 0.021716561466622476 0.022499200848654404 -0.06433790076188081 -0.11100391145977426 -0.09795627781475104
-0.08965266972072951 0.0006339231300194172 -0.08413359749259831 -0.11887898777741797 -0.03166923365753724 0.014417461639277675 -0.10954600639304886 -0.06480864332751175
-0.14906936564641024 -0.06485341129950675 0.03158268491560858 0.027521543750123688 0.04676728927751756 -0.10910755082989747 0.00010634895803804197 -0.11560116623430208
-0.025520393493216404 -0.10294959014927116 -0.15110580360038472 -0.13545675939328694 -0.030002335670391525 -0.02964188229177779 -0.03557522375636883 -0.009183280892179915
-0.00983271810278074 -0.033387527943302055 0.060255238914988365 -0.10578532426400365 0.0607355609007849 -0.018279007600546973 -0.15214799157589542 0.020469752156565428
-0.061429471266730415 -0.029997295130874513 -0.10206131975216245 -0.12487397074066654 -0.12103297936497247 -0.06127790715043422 -0.011757509219604714 0.04471427768982066
-0.04127650492386085 -0.06382467201562013 -0.0027709103144995147 -0.1190474404193189 0.0026646021324795203 -0.008533406669211898 -0.09750224914587678 0.04210811431518602
0.0461299211340547 -0.11056270524068953 0.0695475249003063 -0.08611267026296249 -0.13475227673080828 0.028893360424153615 0.033073136163832464 -0.14214319592479402
0.03905764669719339 -0.10650609806354816 -0.15991215400766143 -0.034179061946200386 0.0382537419996663 -0.15736255090880005 0.046327117794487054 0.006134352396828284
-0.13734540531773257 -0.11768963279777041 0.023326522275852756 -0.06193362683308586 -0.14282191010246628 0.027451561770934926 -0.1389981084627588 -0.1428339854135845
0.015546117024297885 -0.036477812989526334 0.004815639023468933 -0.08986145627039684 -0.09740685648793646 -0.13957712265263977 -0.10397385869511637 -0.012583685902140974
0.0602152174525775 -0.07732354440656436 -0.04341318485525952 -0.10710227862437688 0.03355809535360529 -0.1313386015186261 -0.1277543649117211 -0.12482884893262428
-0.06025563172160992 -0.07818507488608474 -0.1472646727264556 -0.019567836754020154 0.04548364071009466 0.027835654195843485 -0.08252802359540444 -0.09015333549072854
-0.138176486279028 -0.10224991363607443 -0.0679172824214878 -0.09088580909237402 0.04328174371923032 0.015708628001116404 -0.029303978731961777 -0.15705067632670958
-0.16040750831486475 0.040995941359580304 -0.11933427714383471 -0.1442647522545568 0.04495420623655089 -0.13687018741799575 -0.1237465352373671 -0.12047187988511053
-0.16496134358467046 -0.16198865875797175 -0.13569928423987418 -0.09194018122025918 -0.0801381126589554 -0.17439574725797083 -0.15650899280789765 0.07835047119269203
-0.01054998790447511 -0.05469570516372071 0.0598487053576859 0.0753362248206517 -0.033153760710519266 -0.03837040441323706 -0.09082102826841053 -0.08526007552762349
-0.00015467502166925272 0.06341711774886383 -0.05098333747034835 -0.044923378789200094 -0.07139528691400039 0.06382098733682959 -0.11315072677705676 0.05783565791257297
-0.01105154958615648 0.02676187609305374 -0.009265700127780194 0.005718955488065181 0.06708274422652773 -0.04366732850029155 -0.002488999160911957 -0.004160231861852213
0.011526486378725841 -0.1835257644726936 -0.017104877186319017 -0.02828501624911517 -0.01644402702595659 -0.04145718673459817 0.0299763215638447 -0.09727739953216394
0.009217947694521021 -0.1695640275923875 -0.036957486312639086 -0.07338745188863818 -0.0067411295934600235 -0.01110681536720753 -0.1742765663919424 0.007866369106777384
0.0003513673307010902 -0.16985706537366657 -0.1132068948405387 -0.05219838475043402 -0.03787619306292107 -0.12291986735263541 -0.13729983372788587 -0.0035338588588774995
-0.13810753516367033 -0.05625316168859337 -0.20277459634079062 -0.08546836750907684 -0.08688792450714723 -0.10354314056377335 -0.008268303424818109 -0.021081789285523442
-0.06570049648450432 -0.18321394987889347 -0.19266903179996264 -0.13425453471980642 0.015618704291904307 0.018123056978254646 -0.022379940291750094 0.009834269897704084
-0.0435862933141013 -0.18883031197756858 -0.11227238865358548 -0.17669236000622454 -0.12186901159989025 -0.162835750234963 -0.06683940475142097 -0.14699428746736554
-0.05755861455406044 -0.050705479468667686 -0.012431027251453444 -0.19338566374371038 -0.012260224735823754 -0.03377317252465068 -0.02311019101717343 -0.08558478372244482
-0.05964760203626181 -0.1298209432251487 -0.13229437866908117 -0.11821392077316317 -0.05061835069836214 0.17247248415688632 0.18321117263884673 0.04532583578047593
0.10995638609808427 0.2920812321968987 0.1715101699386069 0.02587218703517172 0.2879826361149829 0.14684315698432698 0.05197993600938755 0.26781516574553615
0.16969575660804587 0.19635093618748 0.2620602191368014 0.09099970057761028 0.13193853716348794 0.25839721950303013 0.009234050371412157 0.04861397227135062
0.10010827077690852 0.054389958271931195 0.02154998617219306 0.24734847857977232 0.12429330149013577 0.062350561712176365 0.1360121712563749 0.12352854143788734
0.15646549412501595 0.1630758202052017 0.10695976763959843 0.04289663710937038 0.2045261480961481 0.044339725719149 0.05403442641240658 0.1204771930239035
0.08116196471987268 0.1765697944489894 0.23418001396541124 0.12616999729034817 0.13441149745176492 0.1710980558023696 0.17418319876770774 0.13293277251109092

weight_hh_l0 f8 [288, 72]
00000000: ec5e 23a7 9044 b3bf 906a 244a 4098 b43f
00000010: 4686 94c1 bf7f c1bf 71c4 9630 1bb7 a63f
00000020: 9596 3360 4e84 be3f 8887 8444 5ee4 c73f
00000030: be37 853e 392e 6cbf f7fe 1f08 5d78 783f
00000040: 0110 1d8f 2930 c23f 788b ea05 fbc9 b9bf
00000050: bdf1 599a 7abe c33f 25ef 7c2d 22bb bc3f
00000060: 5096 bb3a fd13 b13f 3db6 3982 4083 be3f
00000070: a977 a480 9c4e a03f fe92 5d94 0e62 a63f
00000080: 409a 8af7 5253 ad3f 6930 fd8e 5c17 9d3f
00000090: 4413 f8c5 e118 c13f 9186 3380 76d4 b1bf
000000a0: 1973 ffcd 19c7 c23f fae1 379c d114 be3f
000000b0: 7d14 6fce cd13 b5bf 3819 547c be45 c43f
000000c0: 9cd3 7450 09b6 a13f 3f10 39c5 978f bb3f
000000d0: 6b3a 687b 3a7b b03f 8df5 ad05 45b7 c43f
000000e0: a7b6 8f37 df42 b13f 8ede b53a 7f50 c0bf
000000f0: d40e 705a 53c2 813f d56c f46d 8257 c0bf
00000100: 5dd9 c52f d171 b83f 88cc 1a64 f784 8ebf
00000110: e4c1 307a 6c87 c13f 1f2e de3a 6b23 b33f
00000120: 8622 8594 7b5d bdbf 65b7 dbab 2078 953f
00000130: 1585 e097 52dc c1bf 3dc0 cc5b 1b42 9e3f
00000140: 247a bdad 9a5f b7bf c89b 0854 b112 b13f
00000150: 9fa3 6e37 cd35 b5bf 5f80 7b69 655f a23f
00000160: 9121 eb3e 0140 4fbf 3e74 a10b c7ec 2fbf
00000170: ca4c 7674 2339 a43f 2dc7 e6bd 5d11 8dbf
00000180: 47be 7a62 4350 953f e43e f792 e587 a5bf
00000190: 0c0e b66c 5160 963f 0fce c256 3dc6 acbf
000001a0: 84b7 f387 0fc7 b23f 8526 a6ac b7cb bebf
000001b0: b052 11ca 2e20 aa3f 85f8 7210 866c ba3f
000001c0: 5216 c678 a4f8 ae3f 7a73 d03d ed29 93bf
000001d0: 3452 a103 05a4 a9bf 6b59 615e c685 c03f
000001e0: 5b02 8055 2de1 8e3f 9b45 ba05 853f 7e3f
000001f0: a49c 5e35 e090 b2bf 7e07 16e2 7c25 b2bf
00000200: 09e3 fb5f bdf6 963f c61d 28b6 f003 c23f
00000210: 2dae dd8d 85eb a9bf 4c2f 3cd2 b9ad 9b3f
00000220: 3233 27df f722 a83f a4ee 398f c5a7 7cbf
00000230: 866d fa73 c6e9 bbbf ebb4 39ec c065 82bf
00000240: 72ad 4ded 58c1 a2bf 59ac e6a7 3400 d73f
00000250: cc50 dc23 b11e d73f 0413 2144 efc0 b8bf
00000260: 4c19 4c74 da31 e0bf bcca b0dc c0bf 92bf
00000270: ddbf cf13 677c 983f 5032 5dc4 2e80 b0bf
00000280: 6c21 8a81 12c3 d7bf 86b8 5d9e 4e4d d63f
00000290: 7f45 b1f5 fedf a93f 5c9e 4b08 a053 9d3f
000002a0: 2486 dbca 5681 9f3f 9a3e 6142 e4d6 e13f
000002b0: 735a 53b6 8076 bebf 30a4 d2d8 df2b b03f
000002c0: e3a0 ce54 3bad a9bf 65cb 6793 5859 aebf
000002d0: 42dc 0d49 073e c1bf 547d 6037 4f48 c4bf
000002e0: 2cac 0f5c fa1b cf3f 025d a8d4 4ff8 c6bf
000002f0: 5627 ea36 4588 a53f 95c1 fa11 1717 abbf
00000300: 9c0a ad02 a78d c63f e5cf 06af 702c 973f
00000310: a78c 3ff0 ab23 d6bf f631 39e3 6e9e a9bf
00000320: 78ac da7a 336f e7bf 353f 3000 58ce a4bf
00000330: 21c1 0959 2eaf e4bf 7ef7 3b04 3892 c1bf
00000340: 8742 1bc8 bcf1 ad3f b39f 6133 8bc3 e3bf
00000350: 6e40 e747 e6e5 e2bf 0b45 137d 3bfc b9bf
00000360: 9747 507a ddb8 d83f fce5 ed5d 9bd4 e4bf
00000370: 629c 3a46 3b66 b4bf 1372 e247 c247 d83f
00000380: 6ca8 ad1c 1aa1 e33f a5f2 284a 5dc4 b93f
00000390: 6f32 9aa5 d424 d03f 2d95 1b25 3550 84bf
000003a0: b6a4 b285 29d5 c9bf 20b6 ec50 df1b aabf
000003b0: a21e 611d eefe 9dbf 3ea1 ddbe 9acb b0bf
000003c0: 49a6 7b47 9921 d03f 0ebf 0fa3 5417 b13f
000003d0: 7a0d f412 17ba be3f 0789 c6b7 12a8 553f
000003e0: 80f2 20b1 4999 c03f 26eb 83b9 c582 ba3f
000003f0: 459a b864 655c a93f 06ae 9c35 98d9 d03f
00000400: 767f 30b5 a8a3 babf 399d f8b1 d58a a03f
00000410: 9a84 bc84 65fc cabf 6534 97a3 9fd6 cf3f
00000420: 794d 3915 8a84 993f dc56 2a36 90f9 bcbf
00000430: 5a0a b602 7294 bc3f a6ed a370 d1f8 9a3f
00000440: 9ec9 5022 3517 babf 6acb 89b6 a0ba 9bbf
00000450: 6f7e 92ba dc6b d13f 102a 0383 ff93 d43f
00000460: 52f3 8527 e6f5 abbf bd39 4750 a1dd 97bf
00000470: 8cd1 7de6 b417 d9bf 1417 d791 5f71 c03f
00000480: ba85 f7fe a704 993f 00e9 5c8c 386f 8bbf
00000490: 5a2c 07d8 5a02 dcbf 0f64 631e a63f a73f
000004a0: 0fab 13ba d3ce c43f 1c27 23cf cf89 cdbf
000004b0: 59e0 611e 90b9 bb3f d446 d327 e441 cc3f
000004c0: 9fd7 6e5b 8677 a23f c7d8 c95f 89cc a2bf
000004d0: 98d0 7319 8b2e c0bf 3d06 14ff 3193 ae3f
000004e0: f706 148d 7015 dd3f a122 4ff3 06b2 c43f
000004f0: e18b 4247 4fd5 a4bf 37f5 177a 92a0 cb3f
00000500: 2da5 9860 9e1e c83f 2486 1756 bf73 bb3f
00000510: 91c6 47e7 cf34 b93f 330d 1e23 768d c73f
00000520: 9279 92a5 9f61 cbbf 581f 9bbc cdcd b8bf
00000530: f030 1334 5803 b73f 2f24 9167 0730 b6bf
00000540: d123 8e49 d52e cfbf 4f4c 4ed1 dec2 c73f
00000550: 7978 d908 2350 b73f ab43 5df0 2df9 a7bf
00000560: 1ec6 9971 2c93 60bf c8d7 0151 2896 a33f
00000570: 966b 7502 e8da d1bf ab70 f580 248a c43f
00000580: 8f59 e400 063d c0bf 1b44 b315 b8e8 ca3f
00000590: 8f11 d780 ff93 ebbf bd3d b0f7 c334 a2bf
000005a0: 2a2c 9d48 7246 e3bf 0398 3f36 895f b83f
000005b0: 6407 0b2f 596d c0bf fecf ed63 d275 dc3f
000005c0: 3b3d 7430 a685 c6bf 85de 2af3 c808 b2bf
000005d0: 10f7 4a3e 0bad e3bf 3ee0 5495 f9fc b33f
000005e0: c662 d828 5b05 a3bf e326 92f8 79d5 a83f
000005f0: 429c c5e5 ffa1 72bf 1b54 3fa6 a5c7 733f
00000600: 9d14 b16b 52ac cabf f4e8 2614 a3c8 993f
00000610: 1e73 c940 204d cb3f 33bd 3eed 4736 65bf
00000620: 8026 38d8 452c 943f bda1 9d43 8e25 a93f
00000630: 5b0d bfc3 6b30 b13f 49f3 edba c571 b0bf
00000640: 32a3 264c fd2f 8dbf 3e5e 4472 c8d7 c23f
00000650: a9b1 d88b 2537 d83f 4542 b2a7 3eff bc3f
00000660: ff07 d575 0076 b1bf 2a3f 0053 cc91 76bf
00000670: 8b96 89d8 1029 b53f 0e98 d3bb ace6 a33f
00000680: 8f95 da08 7f2f b33f cd3b 2c41 bb03 b13f
00000690: 7ea7 f438 77bc bdbf cdbf 96dc 8414 be3f
000006a0: e3ae aff5 6d61 c4bf de98 4782 2f49 6fbf
000006b0: 5493 e9f0 32ec e93f 8a80 e8dc 38ea c43f
000006c0: a427 e1c2 4d84 a63f 9e26 c636 0a67 d03f
000006d0: 3a09 7336 c700 b23f 11d0 b028 b1ec c3bf
000006e0: 40f9 2790 b893 ce3f 3f55 b080 e798 963f
000006f0: 9dcf 6408 2674 b0bf bddd 6801 07a8 c6bf
00000700: 906e 6b8e 13e4 993f 3a97 5548 e7b6 ab3f
00000710: ac44 158c 2ff4 c83f 39f4 b019 8335 b33f
00000720: ad62 7982 cdee d13f 9442 798a 018f ab3f
00000730: eaac 2fc6 5480 b23f df65 b2d9 19a4 b4bf
00000740: eade d29b f436 c1bf 3231 c6fc 4b48 a1bf
00000750: 78d4 b33b 5c1d ab3f 1f52 3671 dd7c 673f
00000760: ecf7 252d d26c c33f d2b8 65c2 14a8 c1bf
00000770: 0f62 aea6 5d98 b03f 79d4 b06d 0356 aa3f
00000780: 50e9 e3f8 54c5 ba3f 90d8 d0bd 0302 55bf
00000790: 62b2 2138 1fd1 c7bf 0b76 07ec a773 a3bf
000007a0: 02f6 e872 200e bcbf e5bb b5e1 477a b1bf
000007b0: 9d0e e761 790e bbbf d191 55a0 1b45 b73f
000007c0: 9a85 c10f 5691 c23f 152e 1f44 f292 b8bf
000007d0: e2cf de6b 5be6 a03f eabc 868f c0c6 c3bf
000007e0: c7fb 8ff2 fb8b cb3f 03ec 32f7 8aee c03f
000007f0: bd5d c7c4 1254 c03f 55df 5527 1a85 a13f
-0.07526496963998469 0.08044816789735365 -0.13671109153897215 0.04436573951841972 0.11920633171720348 0.18665674539175492 -0.003440009884946498 0.005974162488200588
0.14209479797330007 -0.1007382287448716 0.15425045525252115 0.11223043070361578 0.06671126064210253 0.11919024638492544 0.0318497569116823 0.04371686516859617
0.05727633735414317 0.028409429766995595 0.1335718361516688 -0.06964817647851819 0.14670107420433778 0.1175051695244135 -0.08233343400850575 0.15837842055061357
0.03459195239194132 0.1076598030568343 0.06438031685704863 0.16184294488259035 0.06742663485030197 -0.12745657316894604 0.008671427915039422 -0.12767057770620363
0.0954867116578035 -0.014902050726368424 0.1369453045495127 0.07475919902042748 -0.11470768333414058 0.02096606301250094 -0.13953621307249678 0.0295490526943356
-0.09130255452826269 0.06669147779085371 -0.08285219767880257 0.035884064794800656 -0.0009536748965155874 -0.00024356775049031056 0.03949843212753874 -0.014193279607613707
0.020813992391309346 -0.04205243510261683 0.021851799259378565 -0.056199948159157846 0.07334992474690522 -0.12029598202766507 0.05102678505560243 0.10321844007100552
0.060490741484539826 -0.01871462526115717 -0.05007949513734325 0.1290824852791944 0.015077928706888224 0.007384795778891197 -0.0725231294915028 -0.07088451881102562
0.022425612433809614 0.1407452477871926 -0.050625012939090254 0.027029899079067207 0.047141786566135116 -0.006995937077245582 -0.10903587657451483 -0.008983142098453153
-0.03663137337465629 0.3593875541361676 0.3612482881737946 -0.09669394887266597 -0.5060856124335174 -0.018309606046566826 0.023912058433722783 -0.06445591253322758
-0.371281267646302 0.348468451170341 0.0505370783727228 0.028639317041692855 0.030766826754989776 0.5574818893891973 -0.1189957089548928 0.06316947024846864
-0.050149778463777904 -0.059275405877903954 -0.13470545832726272 -0.1584567089457588 0.24304131980110932 -0.1794528759353185 0.042055285409402884 -0.05291053862072485
0.1761978877130631 0.02263046329763076 -0.34592722379438573 -0.05003687404368755 -0.7323243522163372 -0.04063677789974777 -0.6463844050431683 -0.1372747440981889
0.05848493521410086 -0.6176200870076997 -0.5905639080392697 -0.1015050106391479 0.3862832731693912 -0.6509529909664589 -0.07968492950986808 0.3793798162458028
0.613415771496205 0.10065253315492358 0.2522479645929598 -0.009918608851374156 -0.20181769397939825 -0.050993898991105846 -0.029292793791937506 -0.06560675773437638
0.2520507047725898 0.06676224690431473 0.120027010085371 0.001321810034916883 0.1296779742132408 0.10355792788679405 0.04953305105691589 0.2632809184603676
-0.10405973838396484 0.03230922505854967 -0.21082753163594675 0.2487372921736181 0.02491966013469724 -0.11318303415677228 0.1116400963419805 0.02633979082109552
-0.10191661918432834 -0.027079116002322413 0.27220838756509286 0.32153308672118985 -0.05461043579541659 -0.02330638935546302 -0.39207193859990563 0.12845987912276569
0.024431824624007815 -0.013395730765854541 -0.4376437291763914 0.04540747757864249 0.1625618609026209 -0.230768180981891 0.1083002161193475 0.2207608408412428
0.036068152104618216 -0.03671674055378698 -0.12642039053719567 0.05971676100490384 0.45443357255145095 0.16168295746162634 -0.04068992371437453 0.21583777391053058
0.18843440739264264 0.1072349152741699 0.09846209904187676 0.18400456156460052 -0.21391673645571224 -0.0968903146232355 0.08989478370057546 -0.086670363221075
-0.24361673442424928 0.1856344720841627 0.09106654134800064 -0.04682296332487764 -0.002023302845196153 0.03825498570306213 -0.2789859794626691 0.16046577736677156
-0.12686228793672824 0.2102270227392474 -0.8618161693962508 -0.035558818803220295 -0.6023494165650665 0.0952077634279647 -0.12833704754853692 0.44469127424895294
-0.17595364919587006 -0.07044654785829081 -0.6148735253006823 0.0780788411692592 -0.03715023873900729 0.048503696053627164 -0.004549026107588951 0.004829070156081828
-0.2083838487471085 0.02517943201539992 0.21329119838164784 -0.00258935974303367 0.019700137445431753 0.049114652398944504 0.06714509514772742 -0.06423602880199754
-0.014251688848916897 0.14721017436453282 0.37836588532334275 0.11326972574375656 -0.06820681454431109 -0.005510137692922782 0.08265786444243355 0.03886928360752516
0.07494348493727031 0.06646318760998256 -0.11615700855750608 0.11750059495420757 -0.15922331329726722 -0.003819077292280245 0.8100828843422314 0.16339789186986692
0.04397814754390986 0.25628905629182863 0.07032437400178973 -0.15566076742982252 0.23888308562158933 0.022067658643284856 -0.06427228646208367 -0.17700278824643859
0.025284104888540215 0.054129817561984386 0.19495195713037583 0.07503528001048289 0.2802003645097482 0.053825424340748246 0.07227067793398914 -0.08062898220887103
-0.1344896088464716 -0.03375470600721754 0.0529583762053471 0.0028671574634222675 0.1517584534121278 -0.1379419278341119 0.06482491797795141 0.0514374801063377
0.10457354618475745 -0.001282218602921801 -0.1860693954544273 -0.037991759836341364 -0.10959055715007796 -0.06827210674758495 -0.10568960800361045 0.09089825310144951
0.14506030816395993 -0.09599222338800247 0.0330074853112874 -0.15450293548699473 0.21520947784298824 0.1322797495866724 0.12756571396196917 0.034218613912286124

bias_ih_l0 f8 [288]
00000000: a917 b947 ec7e b1bf e9af e181 a4d6 c73f
00000010: 5a6d 3049 aab0 b83f 92f8 530c f722 a3bf
00000020: f19b 0fab c7db a13f dc46 7da2 0b55 babf
00000030: 715d 00de f639 c8bf 7560 9e28 8bf0 c33f
00000040: e479 541e 6cc7 a23f 6e2e 60a5 66ba c23f
00000050: dbd4 289b 2bfa a5bf 1f97 2bf5 1baa d6bf
00000060: a073 0571 6f40 82bf f1d1 ead1 37b1 923f
00000070: 1e19 5c6e 65b0 c3bf 3f8e 2883 3e79 ddbf
00000080: 164a 88c5 3315 b6bf bd8c eb60 11ae c7bf
00000090: 3952 04c6 1370 b53f 5c7c b162 6fb4 bb3f
000000a0: c3ed f33f f99b b7bf a49a fb37 869b a83f
000000b0: 11cc 9689 b29f c83f abb7 01d6 21f9 cbbf
000000c0: 043c 11e9 0b1a c33f 7c31 0a67 cd5b b5bf
000000d0: ff4f 3049 3001 a23f 6521 ae1e 7979 a53f
000000e0: 617e e9f3 ae48 c33f b82d 1bde 8070 c2bf
000000f0: 1bf8 5080 66bf be3f ea0c 9ee2 1e7f b93f
00000100: d203 e9a9 8703 b43f 6a1e 47fc a97e b83f
00000110: bbbc 4c8e aa55 d0bf aa91 80bb 6cf9 acbf
00000120: d742 90a0 8b9d a13f cf3f d5f3 e6de c63f
00000130: ba0a 5ee0 ef02 c2bf d024 eade b3dc c63f
00000140: f1d4 349b 18e4 d6bf 533b 5df8 2451 d2bf
00000150: 5523 c944 8b41 d13f 3cfa 3b5b d2a6 a1bf
00000160: f5a3 97f2 0345 a23f f212 3e65 430b 98bf
00000170: 8fac 741f 2363 c5bf 4ed6 c72c 42d9 b53f
00000180: eee2 6898 a2cd b43f 59a8 ef88 b929 9bbf
00000190: 5264 8c06 7857 c23f 16ce 6bfd ec8c a73f
000001a0: c683 1ad5 a0dc b33f 20aa 45c7 07da bebf
000001b0: 0bb6 516a 5df3 ab3f 3068 d625 fad5 c63f
000001c0: 27d8 56dc 4354 aa3f fba3 2566 61ac 9dbf
000001d0: 3a4c 7efe 033e ccbf b912 373e dbd9 b53f
000001e0: 6aa4 933c 284c c2bf fb71 33b3 6f78 c6bf
000001f0: 6a8b d722 834c c03f 40dd cfea 3739 c0bf
00000200: 0090 2950 50ef a3bf 5db7 67ef 4335 d2bf
00000210: c133 17d3 b859 9ebf aa1a 8f7f b2be a83f
00000220: 85cd 8965 5e76 a7bf 0b7c 1481 3232 b8bf
00000230: 94da e8ef 9075 c6bf 9b06 b6e7 8475 c7bf
00000240: 1628 d8c2 f9b8 a2bf 0c65 e3e5 8965 a83f
00000250: cb91 cda0 d8a0 d63f 7a74 0b60 5f2e c9bf
00000260: a8be 5f80 2e5a b03f 0eef 2118 aed6 73bf
00000270: 29c0 effc 818d b5bf 5584 7cb7 4488 8abf
00000280: 0a7d 110a e7b2 ba3f 6d98 c96b c5db 833f
00000290: a403 f9a2 ad37 9b3f 6578 2fee e2b5 aebf
000002a0: 3d9e 12e6 e358 cf3f 6510 a251 7572 adbf
000002b0: 48bd b793 9d9d 89bf 1d98 1f30 002a 78bf
000002c0: c406 8839 3ee6 c4bf caea 97ef 18db c1bf
000002d0: 7c36 80e8 cc5d b8bf 7ea4 4fef 7ca5 d73f
000002e0: af5f b132 c661 c1bf f100 06da 4d4e c83f
000002f0: fb18 d0e3 1f57 ccbf bd27 3501 cce2 7b3f
00000300: b592 b99a d924 4dbf de47 3f5e 653f c63f
00000310: ce10 90bb 1f14 c03f e261 2e8d fed9 b43f
00000320: 830e 7ba7 acf0 9dbf 7daa 1f96 ad7f aabf
00000330: a4ac 17c7 006e cebf b5eb 9d1d 8b6c 71bf
00000340: 2cc6 e91d 7d63 c23f 936d 7af8 dadb b7bf
00000350: 5fa4 409f b742 a93f bd25 1b0b 6921 b9bf
00000360: 1af1 ef7d b4fc d53f 5e31 abe9 4402 b0bf
00000370: 3425 ebfa 107a c7bf cb9a e548 3503 b03f
00000380: 79ce c91a 7539 c1bf 7d41 3f5a d00c 7e3f
00000390: f331 39f1 c62c d63f 74c9 c1a7 d226 843f
000003a0: 7fbe b5ed 2bb7 b93f 8f7a 6984 2f9d b5bf
000003b0: 6db9 12cd 4c07 a13f 4364 71dd 02ec b03f
000003c0: c44b 114c f601 d1bf 034e c1b1 535e bebf
000003d0: 94d4 22eb 0ec8 c53f fb93 e3b2 fcf4 b63f
000003e0: 06b4 036c 20f7 afbf 99b1 1499 877a c0bf
000003f0: 670e 9aea 22b6 babf 1d05 b93a 3552 b9bf
00000400: 3431 4b80 0786 a2bf f144 b81d 3a9b 9fbf
00000410: 431f 00e7 f45c d13f 7f96 324f f0f1 b53f
00000420: e7e5 bdef d4b3 babf 21c0 d97e 168e 933f
00000430: 9a02 14fd 0941 b33f 5c38 bbc6 ea3c 873f
00000440: cf99 d743 4115 ba3f 0738 5cc2 f8ed a3bf
00000450: 774a 260d 89c7 a5bf 67a9 ad1d 4e1a a23f
00000460: 5ab7 2f5e 4537 c2bf ed88 c981 4c54 c73f
00000470: 0822 42e0 38cc d53f dfdc c619 109d bfbf
00000480: bb6c 1615 90d1 ac3f 53f0 c74a 22e9 84bf
00000490: 9865 d427 a93b d2bf 46ab 5a6d 8680 7e3f
000004a0: 1b31 4245 b067 8f3f 102e 2eec 91a5 c4bf
000004b0: 0957 9dc5 a668 c13f 0a67 cc89 f066 703f
000004c0: 28e1 b53d 38fd a3bf eefa 90b5 ebda c1bf
000004d0: 7d1f 33ac 8a3c acbf 14bb 733f fa57 b93f
000004e0: 08e2 82df e016 c4bf 9903 9f19 f176 c03f
000004f0: 02a4 c3f7 813a b73f 3299 c54e 980a c33f
00000500: 2863 2255 bb32 a2bf d1b7 cb82 d77b c0bf
00000510: 856b e2ec 6fef c0bf 92cf 8e45 cc99 a8bf
00000520: 5f8d a247 c424 cdbf 2c4a 905b 11fc c6bf
00000530: 8b53 1ea4 0f66 b63f 0656 49cb 6023 b8bf
00000540: 64f3 0220 8aef aabf a277 59ec 9ed6 a7bf
00000550: c63e c74b 9de4 b8bf 4d08 6bb4 c8f9 a2bf
00000560: e92d 05e1 3f4a 9a3f 0006 19dc 9458 b6bf
00000570: c51f 340a 2538 543f f29e 04ca 6560 c1bf
00000580: 3625 1b10 5f75 c23f 3576 830b 964e 8bbf
00000590: 6bf0 4633 3884 b8bf 6a5f 2a22 55c0 673f
000005a0: 90ff 2a27 b2b1 5ebf 4b4e c220 ad4b d5bf
000005b0: 2511 5e3a 7975 96bf 3d65 2d88 0ee9 d0bf
000005c0: 0e22 c693 ffa8 ab3f 1241 31a0 c06d 963f
000005d0: 0aa1 5faf 07c3 ba3f 224d 19dc bd45 c63f
000005e0: 2400 47f5 1744 c3bf 4268 da80 0cee 9c3f
000005f0: 4bb2 2923 f687 ba3f ce38 c25a 922b a1bf
00000600: 5854 fdcd 9012 9fbf d128 8b04 2251 9bbf
00000610: 5786 424c 9950 c33f e5eb a40b 5483 b1bf
00000620: f306 1b62 5798 a2bf af9f b992 66d7 b9bf
00000630: 2003 3e74 495a b23f d975 1d62 dd45 b4bf
00000640: e647 503f 6411 a23f 40f7 07c5 1fc5 7bbf
00000650: f03f fb29 ace2 b43f 9fbb a162 55b3 81bf
00000660: 0b1f 2800 559f babf 39fc 62b3 db0a bcbf
00000670: b1a9 a8bd 0be5 8ebf 49a4 b598 4038 52bf
00000680: 8fc1 c684 4fcc a9bf 8a43 e622 dfb0 a23f
00000690: 72c3 71ec 9867 853f 0484 53f3 fd93 b13f
000006a0: ed55 2f44 b42f c23f 73a5 aee0 ab2a b1bf
000006b0: e4fe 1ba3 75a7 593f 3ad1 dadb 930c 903f
000006c0: 225a b837 a5ef c9bf 839f 902b bab1 c6bf
000006d0: df74 886e 54e6 d63f 88a9 f6f6 fcde c6bf
000006e0: 42e4 eb5f 79f1 9c3f 7f0d 3bf1 1381 c1bf
000006f0: 728b 3f67 92f5 b7bf 54c5 ab43 7cd6 c5bf
00000700: 16ee cb8b 54c0 bcbf e917 bc36 797b b4bf
00000710: a460 d2c4 182a c5bf 27df a5dd af25 a3bf
00000720: 480f 9f06 ca71 ce3f b152 b8db 1773 aabf
00000730: 51ba 405d 9edf b4bf 6ef8 5ef2 33e7 c63f
00000740: d054 1b8b b334 c7bf 401c 58c2 0fb8 a9bf
00000750: a1fb a65f a5cc c3bf 46d9 7807 f8d9 c03f
00000760: 09ea 6b45 7c6f c23f 3793 24c6 112f d4bf
00000770: f18f 40b7 6415 b4bf d720 72a2 ff54 a2bf
00000780: bf68 ec35 7e98 c2bf cdcc cbe2 b0cc bdbf
00000790: 3b11 8e0f c684 c3bf 037b 1fe0 1bed c0bf
000007a0: ece0 18a4 efcc c1bf bc2a 8c53 8b38 c3bf
000007b0: 234d 6268 dfcf c03f d0b6 506f e83b cd3f
000007c0: c7ef 5098 b57f c43f b57e 5a9c 13f8 c4bf
000007d0: 0542 1338 3d5c cf3f 129b d4b9 67a1 bdbf
000007e0: 876e 2f63 88a0 b63f 686d b6fb 972e 97bf
000007f0: 3277 c4a3 cf8e bcbf 7af6 0d28 97cb cc3f
-0.06834294081735827 0.18623787252306492 0.09644569670529304 -0.0373761370228617 0.03487991297861715 -0.10286019055390788 -0.18926893081582422 0.15577830775578475
0.036677721693411575 0.14631350588784947 -0.042924273195618055 -0.35413264219674717 -0.008911963116298882 0.018254158198674323 -0.15382068527851173 -0.46052515800895216
-0.08626102039878733 -0.18499963028361846 0.08374141296764827 0.10822197112564552 -0.09222371875141903 0.048061556180802684 0.1923735782453098 -0.2185404105143197
0.14923237686386426 -0.0834320427476935 0.03516531842629433 0.041942391390935176 0.15065562162179716 -0.14405833096530585 0.120108038260668 0.09959595711375227
0.0781788625545368 0.09568273934484642 -0.25522865196667127 -0.056590459717230715 0.03440510115627198 0.17867743402393763 -0.14071463065564221 0.17861030945304046
-0.3576718822180985 -0.28620266203227124 0.26962548940041603 -0.0344758736009578 0.03568279587108939 -0.02348046594080961 -0.16708792720723806 0.0853463515594168
0.08126274319591761 -0.026526354773445202 0.14329433746096015 0.04599705308455897 0.07758526995395618 -0.12051437964479605 0.05459110186425783 0.17840506408248435
0.05142414154708801 -0.028977891788063186 -0.22064256597931992 0.08535547512935694 -0.14294913251731894 -0.1755504250530889 0.12733496857898824 -0.1267461678068944
-0.03893519381088595 -0.2845010602894627 -0.029639137157392307 0.04832990462414462 -0.04582495679360491 -0.09451594973914738 -0.1754628344949266 -0.18327390016570608
-0.036567502054893605 0.04764967852833921 0.3535672731725554 -0.1967276782005774 0.0638760627186864 -0.004843406730397749 -0.08419048714836265 -0.0129552238937
0.10429233547028019 0.009696524001992135 0.026579583236756257 -0.05998143346344945 0.24490021451969027 -0.05751387235162112 -0.012507659025657106 -0.005899430021576915
-0.16327646073482616 -0.13949882220170756 -0.0951812808636649 0.3694755875608918 -0.13579633212316142 0.18988965173412667 -0.22140883086849059 0.006808087247302139
-0.000889402629991118 0.17380969144738762 0.12561413439119068 0.08145132967764071 -0.029238412592134565 -0.05175535638394011 -0.23773202630340962 -0.004253905697505657
0.1436611553249788 -0.0931984764705958 0.04933713740349143 -0.09816605111259143 0.3435488920074633 -0.06253462509920868 -0.1834126687229315 0.06254895238599116
-0.13456596191427986 0.007336439015447002 0.3464829784104772 0.009839673752342938 0.1004512267443207 -0.08442971213069426 0.033258819611876024 0.0661012449867409
-0.265744756970147 -0.11862681474422491 0.17016779404881233 0.089675706552569 -0.06243230169807394 -0.128739309069158 -0.10434168078978133 -0.09891064342175011
-0.03617881241879886 -0.030865581573441273 0.2712986236442598 0.08572294171843885 -0.10430651524611499 0.019096709720941022 0.07521116665521746 0.011346658887671328
0.10188682466796382 -0.038924955106367114 -0.042537958960697723 0.035356942293975284 -0.1423117360968103 0.1822600969054017 0.3405897321722766 -0.12349033955875964
0.05628633744637442 -0.010210292727599468 -0.2848914040528938 0.007446789842712692 0.015334488977054186 -0.16130279571767447 0.1360062088885388 0.004004420855176391
-0.03904128793050382 -0.13949343076270487 -0.055149396439047906 0.09899868058321842 -0.15694819368015112 0.1286298155883088 0.09073650645190415 0.14876083227427156
-0.0355433026717889 -0.1287793530131567 -0.13230704371093452 -0.04804838513464839 -0.22768453119088414 -0.179567498883061 0.08749482876585384 -0.09428982699440533
-0.052608791740090394 -0.04655930171132573 -0.09723837947899047 -0.03706195070618943 0.025673864468712813 -0.08728914617042705 0.0012340890614854644 -0.13575432171023
0.14420688902309003 -0.013333484865536519 -0.09576750995523901 0.0028993284952995484 -0.001873420693911474 -0.33274391364213746 -0.021932501018015266 -0.2642246560913753
0.05402373007661164 0.021903047349327194 0.10453842193203769 0.1740033459378561 -0.1505155513423243 0.028251834263393734 0.10363710745304748 -0.03353555066961321
-0.030344259808164104 -0.026676684882468053 0.15089718078256695 -0.06841016086848091 -0.03631852219178979 -0.1009430034843024 0.07169016921944804 -0.07919105191600496
0.0352889373099428 -0.006779789066511388 0.08158374810159308 -0.008642832825186462 -0.10399371389223348 -0.10954068307454258 -0.015085307813099332 -0.001112044413128526
-0.050386891325049914 0.03650567341822526 0.010451502528867816 0.06866442862111916 0.14208081559506472 -0.06705736384778564 0.0015658043670895789 0.015672979635114027
-0.20262589665135616 -0.17729880454248467 0.3578082160400537 -0.17868005808606946 0.028264900664883415 -0.13675164488641298 -0.09359087963779958 -0.17060807518240984
-0.11230972683909388 -0.08000905596063003 -0.16534719095648598 -0.03739690380728993 0.23784756968790988 -0.05165934140328455 -0.08153714920693146 0.17893075308342382
-0.18129581730196387 -0.0502324032532262 -0.15468280001183835 0.13165188183638515 0.1440272654507029 -0.3153728899945238 -0.07845143770151687 -0.03580473764401553
-0.1452787173555574 -0.11640458619131096 -0.1524894309951693 -0.13223598903183395 -0.13906665337140767 -0.15016309337109657 0.13134377095102776 0.22839074549977179
0.16014738023102223 -0.16382069715927164 0.24500241506622458 -0.11574409758450724 0.0883870355750621 -0.02263867830116109 -0.11155412433842285 0.22496308761394684

bias_hh_l0 f8 [288]
00000000: 4c05 7188 ca12 93bf 1e12 4c98 98eb c83f
00000010: bd44 f520 0447 ba3f ed8e 2e3d 8a28 c4bf
00000020: cdf9 5e7e e797 ad3f be32 4a4c 4e13 c7bf
00000030: ac44 fe1f fa00 babf 32b0 fdc0 3b7d a9bf
00000040: 92ed fc80 cdca b53f 91db 8690 63df a53f
00000050: 5f5e cf7e 5933 46bf aa71 ae87 7122 d2bf
00000060: 93ac 33d9 a900 92bf c3dc 10e9 1319 b8bf
00000070: 8afe 34e7 5250 babf 32e6 14ac 0c14 e1bf
00000080: d35a a018 41f2 cabf 5db1 080b e653 c1bf
00000090: 5cc4 dcda dce7 883f beeb a6e0 afc5 923f
000000a0: 679f 5beb 8290 c8bf bc7f fb83 50bf b93f
000000b0: dd8f 737d 6a10 c93f 4286 0ba3 8ee9 c1bf
000000c0: 5041 c730 a6ea a53f 6f84 4d0d ccac 6bbf
000000d0: 3057 c746 d72c c83f a514 bd27 81c1 ad3f
000000e0: 3f45 5b78 6f6c 24bf fde4 b32f 9928 b1bf
000000f0: bf7b 1cb3 09ac a43f 1c19 1bb0 0d44 a23f
00000100: 1926 9b73 c535 a63f c989 f7f2 008a cf3f
00000110: ca7f 333a a034 c3bf a388 f04d 00f3 ccbf
00000120: 5f4a 0c83 57c1 a1bf 6281 780e 4b94 993f
00000130: d572 010c 2f60 c9bf c37f 8e92 e6a4 903f
00000140: a3b6 a049 3240 dabf 51fc dae9 670e d4bf
00000150: 7a8b f530 8218 d73f 080e ef25 211b acbf
00000160: a158 2a39 319f bf3f b1d0 46e5 b76e c1bf
00000170: 7f6a 834b 99f6 c4bf 581a bd4b c3fb abbf
00000180: d371 b0fb e32e b3bf 8a47 4a4f c3b6 c9bf
00000190: e7ee 26ed 8fc6 a8bf 0680 98fc bbdf a8bf
000001a0: e8bc ae2b 9866 cc3f 542c ce31 0d30 b0bf
000001b0: 1c42 e9e8 36b3 c03f d39c d212 7d70 d13f
000001c0: 4f92 8732 4e01 35bf 48b8 06c7 24a7 9cbf
000001d0: 4e83 961b 68d9 cfbf f39a 2a99 e80c c63f
000001e0: cdd4 38de ce7a babf 10de 3cb1 8bbd c9bf
000001f0: 3d7d 0c42 0d22 b73f 2686 aa5e be2b a83f
00000200: 53e4 190f ac8a c63f 30d2 65c5 a8c6 d5bf
00000210: e53a 3c7c c1a0 c53f 1df0 e78d 1eda a9bf
00000220: 0585 4aa2 2773 bfbf c145 6602 ab67 aa3f
00000230: ae94 5df3 8459 cabf 3c99 7701 09e8 ccbf
00000240: b803 9235 ba2b b83f 5d54 34d2 32b9 a5bf
00000250: b0ed 5fba e48b d43f 4aec 202a 143c c8bf
00000260: 53b3 2f53 ce69 c63f 0211 6579 8075 b0bf
00000270: 8592 991a 3bb0 c4bf 02db 02b8 af63 cb3f
00000280: bcd4 c7e7 2103 c33f e19e ebb8 5699 b43f
00000290: ef86 96c5 648a c7bf f0ef 436e aeda 823f
000002a0: 892d a123 3e9b b73f cd47 3c86 ddbf a33f
000002b0: 3097 c59b 849a c6bf 5fa6 4505 8b74 c0bf
000002c0: c262 f6f2 acc6 a3bf c1a9 2308 83bd b0bf
000002d0: 2973 25e8 aadd ccbf bfc3 9ddd d8e1 d63f
000002e0: ebf7 bfea 296a bfbf 6910 22ce c114 b03f
000002f0: 78f1 8d7a 76c5 b5bf f9a9 026e 9021 c3bf
00000300: 8f75 35b6 35f5 b73f daa8 ddbb 2231 a63f
00000310: 95fb 90e3 0428 cd3f d7b0 6afe 7254 a3bf
00000320: 07b2 0f80 ac68 a33f 7401 60f3 2c5d 9abf
00000330: 2d6e 9aca 51f1 c4bf b23a 43f9 cc83 adbf
00000340: 6200 e03c 7663 d23f e989 c1cf f77a c3bf
00000350: f375 b604 8e27 b33f 5b1f 1c3a 7900 c9bf
00000360: 55c6 3502 4d85 d23f 09fb 8baa ae5f b6bf
00000370: cb91 d9e3 f3d0 9d3f 1ba8 73d3 c8d8 8c3f
00000380: 2b53 6dd5 831f cfbf 122c 2c57 e20c c2bf
00000390: ef7c 5ce5 70ab c73f 40b1 3339 e5d2 b3bf
000003a0: a146 71ed 2b5e c43f 7d3e 849f dde8 b6bf
000003b0: af77 a496 faf8 adbf e215 d152 4851 b93f
000003c0: a7f7 3850 f398 c9bf 9acf 9f82 b054 b0bf
000003d0: 503a 0e98 ef69 c03f 29c1 f002 1944 c23f
000003e0: aba1 60bc 24b1 5abf 6e9c a250 a079 b6bf
000003f0: 573d bb93 ea1c b2bf 1cec 3b5e e971 92bf
00000400: fe06 667e 3439 a0bf 6d36 8019 e9f3 813f
00000410: 28c9 d5ad 3cff d23f 6b81 851b 8fbc a4bf
00000420: 9a89 56df 7e11 80bf 56f4 866a 0c7c b7bf
00000430: 8977 0e62 1b2b b63f 065b e0ab 6e9c c2bf
00000440: 86ff 07b6 4fc2 903f 6c52 2038 bed8 c3bf
00000450: 5820 4016 a9ad 9c3f 4592 42a6 353a a1bf
00000460: 8690 cc67 bec1 bbbf f93d a515 467f b63f
00000470: e8df 527b 8a75 cc3f 573b 9db2 1609 bbbf
00000480: c221 e38f 0719 563f 0f4c 282b 30f2 573f
00000490: 1ebc 39e0 f0b5 c8bf cfd9 9d2a 9d3b c43f
000004a0: 5c3d 772f 2e7b b6bf 8ba3 bf5b 8373 59bf
000004b0: c91e da43 5c9d b63f 1d3d 881a c7d3 98bf
000004c0: e98a 5d8c e992 913f 4fb8 bc9b de8e 9fbf
000004d0: eb4d 9232 e949 a23f ac8b bb8d 3591 c33f
000004e0: f98f af07 b6d1 d0bf f780 49bc 3b6e 9dbf
000004f0: 6d6b 62c5 c7b9 b43f 3843 fd89 a5e5 ca3f
00000500: 9cdf 7e24 14f6 b53f 2074 15de ee5b b1bf
00000510: a9bb db6e 8cdf a6bf 4e30 379e d01e 88bf
00000520: edb7 57a9 0f3e d8bf 9d52 63ea cca1 bfbf
00000530: 0dd6 23fe 72a3 b63f 975b 9813 c98a a2bf
00000540: 1d42 e8f3 d272 ac3f 3361 0d8f b74a bebf
00000550: 506c e999 9cbd c6bf c237 379e cd15 b6bf
00000560: 9262 dfd4 df07 a8bf 1805 e798 aa98 7cbf
00000570: e1db 19a3 c22a b3bf a391 390c 335f bcbf
00000580: d0c9 842e 8a22 c03f 1825 bd74 9d47 c2bf
00000590: 4eac 68af f778 a9bf a7f9 5ee9 567d c2bf
000005a0: a4b5 ebf3 34dc c03f 8ff6 8ba4 7b1d cabf
000005b0: ec74 733e b1b6 91bf 6872 bcbd 9c91 cebf
000005c0: 03ff 9908 db9c bf3f 81c9 b150 735b c4bf
000005d0: 57a3 e8b6 f1f9 bf3f 776d b117 ba90 bf3f
000005e0: ec86 07f3 be45 bbbf 67d0 3e86 c4ef b0bf
000005f0: 6630 72b9 59d6 c73f 890f bb93 2e1c c6bf
00000600: e061 c9ae 5712 bb3f 5381 de98 f995 c13f
00000610: 18b6 f51b 360d 963f beed 0763 b709 c5bf
00000620: 0fd3 83bf a10a c0bf b15f eb2a ae57 b9bf
00000630: 9582 2041 a0b2 b33f 2660 db89 5a82 48bf
00000640: 7bbf b44d 8a50 bd3f 479e 3e8e 02ae 9c3f
00000650: 40c5 e37b 3bbc c13f d74f 7668 d940 c33f
00000660: 7d3d 36b0 0759 abbf aed7 1281 59bc 9d3f
00000670: 5fb5 3dc8 7926 b13f 4a04 4427 6b77 b0bf
00000680: 36eb 9f3d b1b9 973f 92d8 1dcc 80df b0bf
00000690: c684 4af5 683b a6bf 47e3 9fe0 6f15 d13f
000006a0: af80 26fe 9ab2 9fbf 57a1 21b3 d930 c0bf
000006b0: 8e27 4831 dd15 81bf ac81 f903 c1c1 80bf
000006c0: 81c2 1cb7 1f12 993f 9e89 801b ec4d cdbf
000006d0: e2a2 9fc5 ece4 db3f fefd dc27 0df7 c4bf
000006e0: 7a62 03ce 2b93 c0bf d946 4b2d 5e44 b9bf
000006f0: 8b9a 6f25 b369 c1bf d3af dbd4 d2bf c2bf
00000700: c083 3f99 5b91 b6bf c1fc c40d d5f4 a23f
00000710: 5aa2 3b15 68d6 953f 98b1 9009 1dad 9f3f
00000720: 713c 6579 265d d13f d6e0 02ef 94e5 c2bf
00000730: f20e 4898 7b36 a9bf 4483 165f d625 c63f
00000740: ad04 3c29 3d18 c4bf 5d9b 70e9 7042 b9bf
00000750: cf9e c2b6 848f c0bf 9732 2a9e 63c9 b33f
00000760: a68b 16c1 a1c1 c33f 42a5 c474 f056 c3bf
00000770: 9ef7 8f72 5f7a 9cbf 1c72 7da6 85ed 5ebf
00000780: 65c4 b040 7478 c5bf 461d ab9e 2cf9 c0bf
00000790: eb67 77aa 5236 9ebf ff9b 030f 33b0 c9bf
000007a0: a83e b7b4 148c c5bf f3cb c1dc 550c 5e3f
000007b0: b5f7 b25f 8cd2 70bf 8cb3 a167 79cb c53f
000007c0: dbce 13c5 4081 c83f bf6f a5c6 d0df cdbf
000007d0: 6ed3 2528 a750 d33f a581 2b32 9a6a b9bf
000007e0: fd01 3b37 40ad c03f 97e9 4404 d8a9 bebf
000007f0: 3abe 27e6 39b6 bcbf 71a8 73fb f139 d13f
-0.01862637002728222 0.19468982159027431 0.10264612011566761 -0.1574871824969856 0.057799562622210844 -0.18027666783418356 -0.10157740861019943 -0.04978358012053298
0.08512577437516303 0.04271994723551765 -0.0006775080670377679 -0.2833522629751096 -0.017580655939053513 -0.09413265647968942 -0.1027881445379483 -0.5336974488229258
-0.21051801397762535 -0.135372882259058 0.012160993031644356 0.018332241141006504 -0.19191013805470478 0.10057547781207082 0.1958134758525593 -0.13994009934599388
0.042805856184375046 -0.0033782945051120043 0.18886843639364193 0.058116947270300735 -0.00015581951827540495 -0.06702573217980397 0.04037504493157184 0.03567545675973546
0.04337899242598215 0.24639903892155093 -0.15004351465085924 -0.22616580777782244 -0.03467820620257522 0.024979756124709047 -0.19824779592717925 0.016254046149356115
-0.41016823950017506 -0.31337926709597236 0.3608708837620537 -0.05489448154505899 0.12352283139839183 -0.1361913556589847 -0.16377559840369213 -0.05465517329735253
-0.07493424315220602 -0.20088998195256763 -0.04838990945742499 -0.04858195742076536 0.2218809331220435 -0.06323320833159701 0.13046919224372366 0.2724907573523982
-0.00032051238170386227 -0.027981352470014792 -0.24882222506587443 0.17226893881635127 -0.10343640256253935 -0.20109697488963763 0.09036333906668843 0.04720873742668301
0.17610693681106912 -0.34025019909975907 0.16896837774444076 -0.05049224359751767 -0.1228508731096732 0.05157217411318583 -0.20585691340526097 -0.22583115169181578
0.09441722686643927 -0.04242857757541494 0.32103841972976976 -0.18933345849095168 0.17510394155342598 -0.06429293597927102 -0.16162813948462343 0.21397968754691737
0.148533094572178 0.08046476378114732 -0.18391093871928585 0.009206164112121912 0.09221256608832652 0.03857319129578194 -0.1765905151943854 -0.1285566116087464
-0.03862514940118934 -0.06539172123635863 -0.22551475844638816 0.3575346149655693 -0.12271368008802568 0.06281672747178536 -0.08504429332783114 -0.14946179744340762
0.09358535479028361 0.04334362548145672 0.2277837859309925 -0.03775367122338629 0.03790797293899933 -0.02574606166308642 -0.16361448662506586 -0.05764618437534831
0.28732067055535115 -0.15219018596970038 0.07482230773026526 -0.1953269513835448 0.2893860360701173 -0.08739749587764946 0.02911740377602871 0.014085358574863751
-0.24314926072352114 -0.14101819282981914 0.1849194641044742 -0.0774367584851392 0.15912388891097343 -0.089490748829343 -0.058540182961436364 0.09889652273076124
-0.1999801770888869 -0.06379225911206135 0.1282329075297235 0.1427031769139913 -0.0016291483639268949 -0.08779336899407195 -0.07075372797702549 -0.01801266324671867
-0.03168643992377261 0.008766003695224367 0.2968284318550496 -0.04050109110790142 -0.007845870199905392 -0.09173657990227588 0.08659526008565711 -0.1453989352455311
0.016366239056878416 -0.15505197277584004 0.028006212218344068 -0.03364722876111562 -0.10842504533917649 0.08787954357580209 0.22233706494966943 -0.10560743199060361
0.0013487409446942687 0.0014615507503819047 -0.1930523962832646 0.1580692728127375 -0.08781708391983528 -0.0015534193798833775 0.08833862930816418 -0.024245367998500734
0.017161988441681073 -0.030818441634601176 0.0357201456291952 0.15286893291985615 -0.2627997469955968 -0.02874081932748226 0.08095978325802174 0.21013325917967918
0.08578611269956443 -0.06780903741805888 -0.04467429021121145 -0.011777524784427975 -0.37878791367881953 -0.12356262895930077 0.08843153671826816 -0.036215098993287835
0.055563537858805946 -0.11832759134756969 -0.17766149058556602 -0.08627019035995345 -0.04693507646124319 -0.006981531520467564 -0.07487122041662488 -0.11082762764414737
0.1260540702001678 -0.14281051826609636 -0.04975103393766088 -0.1444500579363652 0.1317201796550026 -0.2040247491312823 -0.017298478543001858 -0.23881873383006114
0.12348717651365963 -0.15904084625396922 0.12490759578271358 0.12330210760540249 -0.10653298791251203 -0.06615856435274879 0.18622895770056686 -0.17273504460728997
0.10574863450290861 0.13738937343897337 0.02153477235463272 -0.16435901961800242 -0.12532445765796082 -0.09899414584958667 0.07694436635984865 -0.0007479612429177648
0.11451019665832789 0.028007545406266734 0.13855689572623398 0.15041654205981445 -0.05341362024330019 0.0290388093023563 0.06699334276864509 -0.06432218273768445
0.023169297586700575 -0.06591038688006481 -0.043422012274513075 0.2669334119414554 -0.030954763185605468 -0.126490795580376 -0.008342483583891693 -0.008182056363865119
0.024483199645319424 -0.22894049971462221 0.4358474664609685 -0.16378941008041176 -0.12949130591620756 -0.09869946103870166 -0.13603820159842814 -0.14647899049248156
-0.08815548411759178 0.037024171763272225 0.021325708671528033 0.03093381281739624 0.27131044249558217 -0.14763127966376172 -0.04924379571823846 0.17302970545736163
-0.15698971284294796 -0.09867006015029518 -0.12937983440246234 0.07729170428701547 0.15434667518738115 -0.15109067632264767 -0.027810565345127373 -0.0018876843623366673
-0.16773846777644788 -0.13260419604760382 -0.029504100470013766 -0.2006896804152518 -0.168337429275643 0.001833995675977415 -0.004107044539692174 0.1702720409406563
0.19144448874396044 -0.2333928079559637 0.30179766579322276 -0.09928287243702145 0.13028719612886155 -0.11977911094883208 -0.11215555066132135 0.26916169696654096
