static-demo/onnx_model.onnx (onnx, 70038 bytes, 4 tensors)

fc1.bias f4 [96]
00000000: 19d4 11bd d8e1 c4bd b0c7 f5bd c261 a9bb
00000010: c277 c5bd d22e c7bd 06d1 73bb 1c46 0ebd
00000020: 5833 0fbd 9a8f 413c 2d74 583d 621b 0dbd
00000030: 19da 1fbd efe3 f33c b6de 49bb 222e e3bc
00000040: 445a be3b 3ab6 75bd b4ea 07be d6ce b5bd
00000050: 6eb0 6fbd e874 05bd 3db5 f3bd fdd6 773c
00000060: e740 1ebe bc9d dd3c b011 063e 7553 19bd
00000070: b390 febd d76d 9fbd 60e1 fabd e012 95bd
00000080: 6f59 b0bb 415a aebd 6163 bb3c 9c23 9ebb
00000090: fa90 293c 04e4 adbc 6445 43bd 402c b1bb
000000a0: ddc8 163d f76a a2bd d7ea b3bd 441e 1ebe
000000b0: 91a0 013d b3e6 d3bd d3c5 27bd acba 6dbd
000000c0: adc8 10be 020c 79bd 79b9 ab3d 656d b4bd
000000d0: a9c0 debd 1bc6 f9bd 578e 6f3d 3ec7 7ebd
000000e0: eee4 05be ce56 babc f95d b9bd c109 8a3c
000000f0: 264e b43c 6289 36bd 5018 113d b6f4 fdbd
00000100: 3672 043c 6dc0 063b 61b8 f23c bb8d 01bd
00000110: d10e e4bd 4b34 6ebd 12b8 863a 9978 9bbd
00000120: d305 093d ba11 b1bd 19d5 febc 7c4f f5bc
00000130: 7787 753d 221b d5bd 6477 11bc 82fc 2d3d
00000140: 3db9 1bbd b99d 373b 71b5 00bd 4da5 5fbc
00000150: 2ead 1f3d ca65 8dbc e912 20be 33fd 4c3c
00000160: 6804 eabd 28d4 babd 7ad9 0abd afc3 ed3c
00000170: 3dfa 19be bcea 233d fff5 65bd e22f a63d
-0.035602663 -0.09613389 -0.12000978 -0.0051691243 -0.096419826 -0.09725727 -0.0037203445 -0.03473483
-0.034961075 0.011814022 0.05284517 -0.034449942 -0.039026354 0.029771773 -0.0030802912 -0.027731959
0.0058091003 -0.059988238 -0.13273126 -0.088773414 -0.058517866 -0.032582194 -0.11899803 0.015126941
-0.15454446 0.027052753 0.13092685 -0.037433106 -0.12429943 -0.07784622 -0.12250018 -0.07278991
-0.005381755 -0.08513308 0.022874536 -0.0048260223 0.0103495065 -0.02122689 -0.047673598 -0.0054068863
0.036812652 -0.07930558 -0.087850265 -0.15441233 0.03164727 -0.10346737 -0.040960144 -0.058039352
-0.14139052 -0.060802467 0.083849855 -0.08809928 -0.10876591 -0.12195989 0.058485355 -0.06220173
-0.13075611 -0.02274647 -0.09051127 0.016850354 0.02200992 -0.044564612 0.035423577 -0.124001905
0.008083871 0.0020561472 0.029628934 -0.031629305 -0.111356385 -0.05815534 0.0010278246 -0.075913616
0.03345282 -0.08645959 -0.031107472 -0.029945128 0.059943642 -0.10405566 -0.008878563 0.04247714
-0.038018454 0.0028017594 -0.031423036 -0.013650251 0.038983516 -0.01726045 -0.15632214 0.012511539
-0.11426622 -0.09122497 -0.033898808 0.029023973 -0.15036865 0.040018782 -0.056142803 0.08114602

fc2.bias f4 [3]
00000000: e16c 55bd baea ff3d 8e09 bfbd
-0.05210579 0.124959424 -0.09327994

onnx::MatMul_12 f4 [138, 96]
00000000: ded6 333e 49af e93d c148 913d a46f c83d
00000010: 7964 163e fe41 353d 4570 b73c d612 fd3c
00000020: 58ba 8cbd 15d7 2abd 82b4 ffbc 7644 5b3d
00000030: 5385 303e 90e0 3c3d 9362 8f3d 3566 c73d
00000040: 866c b73c f08c 673d f342 ddbc 115a e63c
00000050: 5402 873d 5310 b73d 9106 463d 2e4f 933d
00000060: e70c 123e 3722 90bd a0f0 953f 67e0 a33d
00000070: cf06 f43d adc1 85bd de7c ce3d aa95 6dbd
00000080: 8fe1 dc3a b139 3d3d d69b aa3d 1ea0 2a3d
00000090: e9cb 96bc 7c0b 463d 92df 7ebd 6d06 d33d
000000a0: 2a4b e63c 5363 353c cb77 c93c ea29 723c
000000b0: 13b6 493d 9fa9 313d 0278 353d 95be 3e3c
000000c0: 26fb 203e 5eed 57bd 8020 26be ccd2 803d
000000d0: 8aaa 6c3d a78a 813d e6ab 7ebd f1f4 7d3c
000000e0: 93c7 203d 02d9 9f3d bf11 ae3d 5167 efbc
000000f0: 7577 7fbd 7f59 18bd 1f18 323d 7ce5 383d
00000100: 1e6b d9bb e782 91bd 3852 2e3f f312 7f3c
00000110: e618 943d 14bb 4ebd 6d3b a83c 3e46 bd3d
00000120: e76f 803d c570 c5bb 5830 853d 28fc 17bc
00000130: e34f 053d 3c0e a5be 8d45 6dbd 78ca de3c
00000140: f3b3 733d 6fdb b9bb 4ed6 963b 9a7a b53c
00000150: fde2 003d d123 c73c 8ffb 7f3d b5ad e73d
00000160: 6d9f f33d 45cb 9c3d c6e1 d03d 6bb1 23bb
00000170: ae9c 2abd 4420 5f3c 3b07 98bd 5754 ef3c
00000180: 0ab2 52bd cf1c 493d cb38 6abd dc34 8cbc
00000190: 3e3b f6bd e2d9 afbd 8599 533d 0d82 9cbc
000001a0: 4229 e93b b9c2 1ebd 0bc2 e7bd 2175 64bd
000001b0: 7473 00be 3959 00bd b2d0 28bc 1261 d0bd
000001c0: 5a7c a43d 222f 0fbc 0056 1f3d 3a05 85bd
000001d0: d25f 5dbd 5fd8 93bd e491 5b3d 5484 333d
000001e0: 7e47 82bc ead2 f1bc 46af 093e 6c8d 36bd
000001f0: d687 04bd 213a 1abd 7db0 33bd f374 58bd
00000200: 8d2e 173e a82b bdbd 1b87 283d cf89 02bd
00000210: dcf1 5cbd 33e6 efbd f0f5 06bd c4c3 6abd
00000220: 84c8 81bd 4903 cbbd ed67 1dbd 631f af3c
00000230: d4fc bdbc 4ae0 9f3d 7b1a 9b3d 9b10 0abd
00000240: 00be 253d dd5e 543d 317b fa3d 2b9f 02bd
00000250: dee9 d03b 631b e13d 119e 93bc 6241 133c
00000260: e5bb c7bc 6a94 86bd 49d3 023e 6c43 873d
00000270: bea0 b6bc 022f 37bc a854 ec3c 0915 96bc
00000280: f4c3 ab3d 1abe 973d b8a9 85be 13d8 133b
00000290: 7759 ec3c ea8a 8f3c c807 02be e104 efbd
000002a0: 896c 30bd 1a11 22bd 46db a63a ae0c 233d
000002b0: 51d1 d7bd 58c1 8d3e 7db1 bebd dd70 12bd
000002c0: e3f3 80bd 9459 c13b bf92 a83c dddd acbd
000002d0: b460 cc3a 84e4 daba 1b3b 703d 22e0 f6bc
000002e0: c9fc c73c 42d2 abbc 4273 6c3d 28f4 aa3c
000002f0: b465 8a3b 3e32 55bd 4764 e13c c957 88bd
00000300: fc59 2e3d 1bce 7fbb 9e6b 10bd e6cf 703d
00000310: df94 833d 5351 ce3d 6ab0 ff3c 1676 2dbd
00000320: 5caa ac3d fb84 453d 7051 50bd d6d9 363c
00000330: d912 47bd 0343 783d 8b17 c33c 8e90 0e3e
00000340: f08a 43bd aa1e cb3c fc2f 403b 002b ce3c
00000350: 4b7f 7ebd a6d7 b6bc 1d39 533b 666d e73d
00000360: d238 a8bc 16f0 8dbc f2eb 323d 1102 313d
00000370: b32a 84ba bbd7 02bd b3e8 953d 1244 a83c
00000380: 2793 4c3d 7e64 fdbb 28be 243d bedf 6abd
00000390: f314 8a3d 9cd5 463d 67dc 1f3d ce5f d93d
000003a0: 4b12 6d3d 648c 343d 19c1 f53d 5dbc 473c
000003b0: 2e0d 993d 811f 0a3c ea81 9c3c adae 553d
000003c0: bb8c 233d be13 743d c794 b1bd 58ec 353c
000003d0: a49d ea3d ecba fb3d 195a 3ebc 9fb6 a9bc
000003e0: debf 3fbd 10e8 a33d 72e1 4a3d a554 e1b8
000003f0: ce4b ef3c e031 88bd c34f 013d 8bdf 033e
0.17562434 0.11410386 0.07093955 0.09786919 0.14686765 0.04425239 0.022392401 0.03089277
-0.0687148 -0.041709024 -0.031214003 0.053532086 0.17238359 0.046112597 0.070012234 0.09736291
0.022390615 0.056530893 -0.027009463 0.028119119 0.06592241 0.089386605 0.048346106 0.07192837
0.14262734 -0.07037776 1.1714058 0.08001786 0.11915361 -0.06531081 0.1008241 -0.05800406
0.001685189 0.046197597 0.083305046 0.041656606 -0.018407779 0.048350796 -0.062224932 0.1030396
0.028112013 0.011071044 0.024593255 0.014780501 0.049245905 0.043374654 0.0443039 0.011642118
0.15720806 -0.052716605 -0.16223335 0.06290206 0.057779826 0.06325274 -0.062175654 0.015500293
0.03925283 0.07805063 0.084994785 -0.02922407 -0.062369782 -0.037194725 0.043480035 0.04514073
-0.006635084 -0.07105046 0.68094206 0.015568483 0.072313115 -0.05047138 0.020536149 0.09241913
0.06271344 -0.006025406 0.065033615 -0.009276427 0.03254689 -0.32237422 -0.057927657 0.027196154
0.059497785 -0.0056719105 0.004603184 0.022153188 0.031466473 0.02430907 0.062495764 0.11312429
0.118956424 0.07655958 0.10199313 -0.0024977576 -0.041653328 0.013618533 -0.07423254 0.029215021
-0.051439323 0.04909974 -0.05718307 -0.017115049 -0.12023018 -0.0858648 0.05166008 -0.019104982
0.007115514 -0.03875992 -0.11316308 -0.055775765 -0.12544042 -0.03133509 -0.010303663 -0.10174765
0.08031531 -0.008739265 0.038900375 -0.064951375 -0.05404646 -0.07219004 0.05360593 0.04382737
-0.01590323 -0.029519517 0.13445768 -0.044568464 -0.032356106 -0.037653092 -0.043869484 -0.052845906
0.14763851 -0.092368424 0.04114447 -0.031869706 -0.053941593 -0.11713829 -0.032949388 -0.057315603
-0.063370734 -0.09912736 -0.03842919 0.021377271 -0.023191847 0.078064516 0.0757341 -0.033707242
0.0404644 0.05184828 0.12230528 -0.031890076 0.0063755354 0.10991552 -0.018019708 0.008987756
-0.024381587 -0.065712765 0.12775911 0.066046566 -0.022293445 -0.011180641 0.028848961 -0.018320577
0.083869845 0.07409306 -0.26106048 0.002255921 0.028851254 0.017522294 -0.12698281 -0.116708525
-0.043072257 -0.03956709 0.0012730143 0.039807014 -0.10537971 0.27686572 -0.09311197 -0.035752166
-0.06296518 0.005900571 0.020577786 -0.084407546 0.0015592785 -0.0016700183 0.058650117 -0.030136172
0.02441253 -0.020974282 0.057727106 0.020868376 0.0042235497 -0.052049868 0.027513636 -0.06657369
0.042566285 -0.003903276 -0.03525888 0.058792017 0.06424879 0.10074105 0.03121205 -0.042348944
0.08430931 0.048222523 -0.050858915 0.011160335 -0.04860196 0.060610782 0.023814937 0.1392233
-0.047739923 0.024794895 0.0029325476 0.025166988 -0.062133115 -0.022319626 0.0032230087 0.11300163
-0.020534907 -0.017326396 0.043682046 0.04321486 -0.0010083526 -0.031944018 0.073197745 0.020540271
0.049945023 -0.007732927 0.04022041 -0.057342283 0.06742277 0.048543558 0.03902855 0.106139764
0.057878774 0.0440792 0.11999721 0.012190905 0.07473217 0.008430363 0.019104917 0.052168537
0.039929133 0.05958914 -0.08670955 0.011103712 0.11455849 0.12291512 -0.011618161 -0.020716963
-0.04681384 0.08003247 0.049531408 -0.00010744602 0.029210951 -0.06650138 0.031570207 0.12878244

onnx::MatMul_13 f4 [96, 3]
00000000: 4bc0 b1bc 0fc5 1bbd 1180 913d 603e f53c
00000010: 97f5 e9bc e08e 4dbc 821c 0bbc 52e4 0dbd
00000020: a522 763c d41b 41bd 7997 8bbc 03fb 49ba
00000030: 72b7 f63c 78f1 41bd a8bd 90bd bca7 6abd
00000040: b3e5 533c 187d 423d 47d5 e73c 367e 20bc
00000050: c182 8b3d 5bd5 993d cc4d 803d dcb3 3bbd
00000060: 949a aebd d185 243d cc1b 933d 4aa4 733d
00000070: 4f69 343d 6634 15bd 1253 863e 8856 a93d
00000080: 0308 0bbf 136f bdbc 9726 11bd 265d 323d
00000090: 26f7 433c 48b7 a13c 0756 41bd 99f5 893d
000000a0: d6e8 623d cc4f 65bc 6022 003c 6d8b aabd
000000b0: 4b83 f03d b83d 293d a59b 323c 984d fe3c
000000c0: 2c3c bbbd 36c2 9b3d 70a4 b5bd 6e34 603d
000000d0: d9cf 8fbc 19a2 92bd 3748 12bd ce1a b33c
000000e0: 46ed e13d 0787 40bd 5a66 60bc 52ab f2bb
000000f0: 84e4 4e3d 9eb2 283d 54bf 8abb 8c46 82bd
00000100: 830f 423d 8de2 bb3d 02a9 99bd bd8d 97bc
00000110: be1d 1bbb 7c1f 113d 5367 da3d a3b4 4d3d
00000120: c921 943d 6156 803d 8254 f53c f96e 043f
00000130: 9c1b 09bd 3e36 4dbf 16d8 13bf ee16 06bf
00000140: dbe6 6a3f db18 c0bc bf60 81bc 1655 cabb
00000150: 1e62 c23c 85dd f73b 5017 bebc eb00 00bc
00000160: a874 843d f0ab cd3c 9be7 953b a089 103d
00000170: e620 89bd 28f6 5d3d d32d 6ebc 19a8 9d3d
00000180: 4018 1dbe 894c 103e 43ea 0ebc 8503 f1be
00000190: 2287 463e d6bc 8b3e b533 883c 09e9 c33c
000001a0: d16a 043c 29ec 6f3b 9329 4dbc b51a 663c
000001b0: 6892 e5bc 3df1 c13d d6a5 4abd b682 173c
000001c0: 2838 ae3b cf36 f53c f2ae c23d 56c4 a63d
000001d0: b41d bf3a 67e4 ac3c 8fd1 103d f425 cbbc
000001e0: aaf6 f2bb a520 933d 7c9a 2e3d 51f5 cebc
000001f0: c910 b03d 6d13 283c 9b9c bebc d4ba f4bd
00000200: b24f 7ebc 47af 0bbc c57b dfbc bd36 31bd
00000210: b0e3 2abd db51 b1bc 3021 01bd eaac 08bc
00000220: 8c11 90bd 633c 8abd b197 d1bd 2ed7 fbbd
00000230: 6ee4 a5bd bf99 813d 90fa 553d 22de 12bd
00000240: f3e1 583d b095 f3bc 47e9 6d3c ae9b 57bd
00000250: f2fe 0f3d 58a1 813d c061 afbe 7193 b93c
00000260: 0bae f53e aac0 2a3d bbf5 82bd 45ee b9bd
00000270: 21d4 91bd 3749 903c 2b11 00bd 2fc0 70bd
00000280: c18a 9a3d adbb 9d3d 60ab 9f3d 61c2 8abd
00000290: a14a 3c3d fa16 0e3e 28a1 25bb 395e c9bd
000002a0: 9619 52bc a58a c13a eecf e43c d5a0 8a3d
000002b0: 4c9a 893c 2d42 563c de70 93bd 26b6 e83c
000002c0: 2380 053b eb3c 54bb ce6d 753c 1a3c fa3c
000002d0: bc6a d4bc 16b6 07bd 0a84 98bd d82a 4f3d
000002e0: 7eba 0b3d 529b 13bd 9b71 893c a663 e93c
000002f0: 9d68 553b d76b 553d 50e0 6d3c 8a17 2f3d
00000300: c863 a03d be4d c33c 69af 18bd ea3b 0f3d
00000310: 9b78 7b3d 9bee 833d 09ca 633f ee67 51bd
00000320: f10b 5ebf 9493 d8ba 8ba0 a23a a7ce 283c
00000330: 6444 01bf ef5d 243e ae14 ad3e 58e3 82bd
00000340: 7227 c33c 07b3 83bd 488f 943d b2b6 7c3e
00000350: 630c c1be 67ec 983d 1042 683b a6fa 903b
00000360: ffea 77bc d189 cfbd b209 a2bd 2d84 7e3d
00000370: 4e5d 433d cdd9 833d c3d1 07be 5ccb 90bb
00000380: ae80 8e3d 1895 3d3c 8f74 7bbd b8ec 2d3d
00000390: 320a 173f 363b 4abd d4c6 61bf 2d24 65be
000003a0: 1dce 103f 642d f6be 6a0e b33c 9e07 943d
000003b0: 0ea2 9dbd 1b82 38bb 21aa 893d 750b 43bb
000003c0: 8e26 61bb a67a ac3c 1716 7dbd d970 0ebc
000003d0: 9a19 0cbb 6860 b23a 7616 543d 594a a83d
000003e0: fe88 263d a3e2 a6bd c84b e4bc 6f04 103d
000003f0: 7012 093f 1756 c0bd 9ba3 72bf 18a7 c9bd
-0.021698138 -0.038029727 0.07104505 0.02993697 -0.02855949 -0.012546271 -0.0084906835 -0.03464157
0.015022908 -0.04714568 -0.017040001 -0.0007704945 0.03011677 -0.047349423 -0.07067424 -0.05728887
0.0129331825 0.04748258 0.02829994 -0.009795716 0.06812049 0.075113975 0.062648386 -0.045825824
-0.08525577 0.04016668 0.07183036 0.05948285 0.044045743 -0.036426924 0.26235253 0.08268458
-0.543091 -0.023124253 -0.035437193 0.043545865 0.01196078 0.019740716 -0.047201183 0.06736297
0.05539783 -0.013996076 0.007820696 -0.083273746 0.11743792 0.041318625 0.010901366 0.031042859
-0.09142336 0.07605402 -0.088692546 0.0547375 -0.017555164 -0.07159824 -0.0357134 0.021863367
0.110315844 -0.047003772 -0.0136962775 -0.007405677 0.0505109 0.041185968 -0.004234234 -0.06361112
0.047378074 0.091740705 -0.07502939 -0.018500203 -0.002366885 0.035430416 0.10664239 0.050221097
0.072330065 0.062664755 0.029947523 0.5173183 -0.033473596 -0.8016089 -0.57751596 -0.5237874
0.9175851 -0.023449352 -0.015793202 -0.006174694 0.023728427 0.007564249 -0.023204476 -0.007812719
0.06467563 0.0251064 0.0045747287 0.0352875 -0.06695728 0.05418983 -0.0145372925 0.07698078
-0.15341282 0.14091696 -0.0087228445 -0.47072998 0.19387487 0.27292508 0.016626218 0.02391483
0.008082108 0.0036609268 -0.012522119 0.014044453 -0.028023914 0.09469841 -0.04947456 0.0092474725
0.005316753 0.029933361 0.095060244 0.08142917 0.0014580996 0.021105004 0.0353561 -0.02479837
-0.0074146586 0.07183961 0.042627797 -0.02526346 0.085969515 0.010258538 -0.023268035 -0.11949697
-0.0155219305 -0.008525676 -0.027280698 -0.043265093 -0.041721046 -0.021645477 -0.03152579 -0.008342007
-0.07034597 -0.06749799 -0.10234011 -0.12296902 -0.0810021 0.06328153 0.05224091 -0.035856374
0.052949857 -0.029734462 0.01452095 -0.052638702 0.035155244 0.06329602 -0.34254265 0.022653313
0.47984347 0.041687645 -0.063945256 -0.090786494 -0.071205385 0.017613037 -0.031266373 -0.05877703
0.075459965 0.07701812 0.07796359 -0.06775356 0.04596961 0.13875952 -0.0025273059 -0.09832425
-0.012823483 0.0014766051 0.02793118 0.067689575 0.016797207 0.013077301 -0.07199262 0.028407168
0.0020370565 -0.0032384943 0.014979793 0.030546237 -0.025929801 -0.033132635 -0.074470595 0.05057797
0.0341134 -0.036036797 0.016777804 0.028489899 0.0032563575 0.052104797 0.014518812 0.042747058
0.07831532 0.023840781 -0.03727666 0.034969248 0.061394315 0.06441995 0.88980156 -0.051124506
-0.8673697 -0.0016523474 0.0012407465 0.010303176 -0.5049498 0.16051458 0.3380484 -0.06391019
0.02382252 -0.06430631 0.07253891 0.24679068 -0.37704763 0.07466965 0.0035439767 0.004424411
-0.015131711 -0.10133708 -0.079120055 0.06213777 0.047696404 0.064380266 -0.13263611 -0.0044187736
0.069581375 0.011571191 -0.061390456 0.04246208 0.5899993 -0.049372874 -0.8819401 -0.22377081
0.56564504 -0.48081505 0.02185746 0.07228015 -0.07696925 -0.002815372 0.06721903 -0.0029761468
-0.0034355256 0.021054577 -0.061788645 -0.008693897 -0.0021377564 0.0013609054 0.051779233 0.08217306
0.04065799 -0.08148696 -0.027868167 0.03516048 0.5354376 -0.0939142 -0.9478089 -0.09846324
